retail-case-study/models/best.pth (torch_old, 680494 bytes, 99 tensors)

embeds.0.weight f4 [3, 3]
00000000: da1f 09b5 3d24 86b6 68d4 2837 9636 34ba
00000010: 41c3 9e3c 3522 64bc cbb9 b0bd a87e 0d3d
00000020: 781d fd3d
-5.108283e-07 -3.99773e-06 1.0063035e-05 -0.0006874589 0.019380214 -0.013924171 -0.08629187 0.034544617
0.12359136

embeds.1.weight f4 [4, 3]
00000000: 09e2 d6b6 ead9 f135 7849 d335 7d2b 283e
00000010: 588b 20be d3cb 2b3e 732f 85be 8525 8d3e
00000020: 54bc 92be 5f3b 9d3e 111d 82be b97a 973e
-6.404011e-06 1.8019321e-06 1.5742107e-06 0.1642284 -0.15678155 0.16776972 -0.26012763 0.27567688
-0.28659308 0.3070936 -0.254128 0.29585817

embeds.2.weight f4 [82, 19]
00000000: abbc 50b6 1dc9 bf36 ca54 0635 6d73 4c35
00000010: 7d53 0137 8a88 24b6 4ca5 b536 93c7 0937
00000020: 3fd2 06b7 2246 ee35 9f91 d9b5 13a1 2437
00000030: 6164 1f37 ad43 0bb6 2b22 2334 98eb 9235
00000040: 29bd 2b36 6012 a336 c6c8 68b6 41fd b93e
00000050: 4dd4 1f3d f22a 14bf 2a31 15bf 0345 aa3c
00000060: a99b 5bbe 4ff0 14be d1df 66bd b606 253f
00000070: 3b34 77bd c75e 223f 63ae 8ebe 9a15 babd
00000080: 694d ba3c 7989 943e 6903 2fbd 1b98 b33e
00000090: d94c 043b e5c6 3fbd 5309 ec3e 4957 a3be
000000a0: 9598 7bbe 8a53 cbbe f560 393e 9cf2 4abf
000000b0: eacf 173e c649 d33e fb83 813e 2e50 723e
000000c0: 2c04 013e cffd 89bd 0f8b 1abe 06fe 5a3e
000000d0: 5f5b 1e3f da26 e7be e842 9abe 85d1 99be
000000e0: cb02 823e 0ef9 da3e d6da 123e 1c64 27be
000000f0: 724f 9dbe e528 e03d ee01 a4bd b906 a23e
00000100: fcef 04be cfc4 19bd 3f2c 07be 76cf 67bb
00000110: 186b 403e ca94 8cbe e2e6 8ebc 5450 62be
00000120: 0284 af3e 1fd7 3a3f 6f2d 11bf a91b 9b3e
00000130: 1212 983d d728 89be 3bee 90be 4868 abbe
00000140: 5521 64bd ef7f 9ebe 6db5 9c3e af2b e83e
00000150: 47c8 ec3e 2947 e33d 3884 e13d 94ea 85be
00000160: 6cce c2bd baf3 0dbd f3e8 333f 2530 39be
00000170: e41d 2a3e 3938 64be c8bf 603d f8d9 5b3d
00000180: ff06 b8bc 5990 9dbe 2200 47be 5787 853e
00000190: ac41 9ebd 7f3b 83be a2e5 27bf 7b06 983d
000001a0: 99d4 09bc d746 1cbd 25ed 9a3e 3c9b 9bbd
000001b0: 73c8 843e a7f1 c73d 2df4 7ebc 1bab 9a3d
000001c0: d4fd c4bd b9ee ac3e fd4d c0bd feee 203d
000001d0: f483 503d 8c81 1c3d df93 563f 55e6 0c3e
000001e0: e7a3 a7be 018d 66be 1753 31be 152c dcbc
000001f0: a921 413d 56b5 a5be 5d27 663e 3f8b f5bc
00000200: 2972 3d3d ab59 2b3b 27d2 7a3d 4f73 28be
00000210: fddd 633d 6cfb 5a3e 1f87 a1bd bcfb 84bd
00000220: 1e43 e2bd fab5 013e 6ecf 94be b524 90be
00000230: 7fba 47bf dd7d 09be e5e1 7e3d 4a38 8cbd
00000240: 11f3 593e 5e4e aebc cf71 b83d 944f 613e
00000250: 6d80 903d 520f 3bbd 4fa4 f3be 7e62 253e
00000260: 1b3b 373e 2297 70be b16c 55bf 2924 fabe
00000270: 4e3c 663d bf47 40be 2fed 84be 8429 053f
00000280: 7169 133f bddb bc3d d27b 1b3e 3cbd 6ebe
00000290: 646d 08be b949 1b3c 3f19 033f b957 2fbd
000002a0: ab70 8a3d 470b 9dbe 1394 6d3d 1192 adbc
000002b0: 6ae7 e2bd 2739 443c a2df bc3b 627c 143f
000002c0: c9c9 833e 6b84 27be 54d1 8abc ea77 293e
000002d0: 80e9 913e 851b ffbd 4b2c 53bb d9b6 c7ba
000002e0: 51c5 e63e b522 a1bb ddae 233d 5685 443c
000002f0: a414 9fbf 58a3 073f e060 1abe 2ed4 8abd
00000300: fbde f2bd 4cd7 e9bd afab 4b3e 3f7a 333e
00000310: 1426 153d f586 043e e024 ba3d 110b 803c
00000320: e7b8 39be 540b ee3c 2656 f1bd fe22 403e
00000330: 2076 8c3d ece2 123e 5370 ee3e c2fe dabe
00000340: 0006 823f 2f67 633e b9a1 973a 79da 22bd
00000350: c268 15be 39e4 053e 977c f13d cfbd 52be
00000360: a56a 0ebf 3649 523e 7145 5c3d 8349 f53d
00000370: 129b 653e fb2b 75be 08f0 22bd e470 1a3d
00000380: 33b4 493e d5ce ca3e dbfd a1be e7e0 753f
00000390: a661 4fbe 747b 1c3e ba60 6f3d e7cf 80bc
000003a0: 3884 953e cc7b f53e 61be 71be f7bf d1bb
000003b0: 1fbb 37bd e28d 4cbd 82fe d23e a454 ffbe
000003c0: 216c a6bd 05da b93d d769 edbd 414c 083e
000003d0: b106 3a3f 0cf7 b3be cea3 6e3f cf56 293e
000003e0: 0dd1 81be 8d94 98be 1a59 acbe 4388 e53c
000003f0: 217a 43bf ef03 543e e160 463f 751e be3e
-3.1104234e-06 5.7156562e-06 5.0042274e-07 7.616389e-07 7.708438e-06 -2.451738e-06 5.4134634e-06 8.212303e-06
-8.035974e-06 1.7752793e-06 -1.6210141e-06 9.812665e-06 9.50051e-06 -2.0752007e-06 1.5192988e-07 1.0946414e-06
2.5591091e-06 4.8599177e-06 -3.468756e-06 0.3632603 0.039020825 -0.5787803 -0.58278143 0.02078486
-0.21446098 -0.14544795 -0.05636579 0.64463365 -0.060352545 0.6342587 -0.27867422 -0.090861514
0.02274199 0.29011133 -0.04272786 0.35076985 0.0020187406 -0.04682054 0.46100864 -0.3190253
-0.24569924 -0.39712173 0.18103392 -0.7927644 0.14825407 0.41267222 0.25296006 0.23663399
0.12599248 -0.06737863 -0.15092109 0.21385965 0.6185817 -0.4514683 -0.3012917 -0.30042663
0.25392756 0.4276814 0.14341292 -0.16346782 -0.30724674 0.109453 -0.080081806 0.31645754
-0.12982172 -0.037541207 -0.13200472 -0.003537146 0.18790853 -0.27457267 -0.017444078 -0.22100955
0.342804 0.729845 -0.5670995 0.3029454 0.07425322 -0.2678897 -0.28306755 -0.33477998
-0.05569585 -0.3095698 0.30607167 0.45345828 0.4624655 0.11097557 0.11011547 -0.2615553
-0.09512028 -0.034656264 0.7027733 -0.18084772 0.16612965 -0.22287072 0.054870397 0.053674668
-0.022464273 -0.3077419 -0.19433644 0.2607982 -0.0772737 -0.2563133 -0.65584767 0.07423111
-0.008412504 -0.038153496 0.30259052 -0.07597968 0.2593418 0.097628884 -0.015561146 0.07552167
-0.096187264 0.3377588 -0.09389875 0.03929042 0.05090709 0.038209483 0.83819383 0.1375974
-0.32742235 -0.22514726 -0.17316853 -0.026876489 0.04715124 -0.3236491 0.22475953 -0.029973624
0.04625145 0.0026145976 0.061235573 -0.16450237 0.055631626 0.21384972 -0.078871004 -0.06493327
-0.11047958 0.12667075 -0.29064506 -0.28153005 -0.78018945 -0.1342692 0.06222715 -0.06846674
0.21284129 -0.021277603 0.09006082 0.22003013 0.07055745 -0.045668907 -0.47586295 0.16150853
0.1789364 -0.23495153 -0.83368975 -0.48855713 0.056209855 -0.18777369 -0.25962207 0.5201647
0.57582766 0.09221599 0.15183952 -0.23314375 -0.13322979 0.009478026 0.512104 -0.04280827
0.06759771 -0.30672666 0.058002543 -0.021187814 -0.11079295 0.011976517 0.005763964 0.58002293
0.25739887 -0.16359107 -0.016945519 0.1654965 0.2849846 -0.12456421 -0.0032222446 -0.0015236988
0.45072415 -0.0049174675 0.039961684 0.01199468 -1.2428174 0.5298362 -0.15076017 -0.06778751
-0.118589364 -0.11418018 0.19889711 0.17527102 0.036413267 0.12942107 0.090890646 0.015630277
-0.18136941 0.029058136 -0.1178401 0.18763348 0.06858468 0.14344376 0.46570072 -0.4277249
1.0158081 0.2220733 0.0011568583 -0.039759133 -0.14590743 0.13075341 0.11791342 -0.20580219
-0.55631477 0.2053574 0.053777162 0.11976912 0.22422436 -0.23942558 -0.039779693 0.037705317
0.19697647 0.39610925 -0.3163899 0.960463 -0.20252094 0.15281469 0.058441855 -0.015724136
0.29202437 0.47946012 -0.2360778 -0.006401058 -0.044856187 -0.049939997 0.412098 -0.49869263
-0.08126093 0.09074787 -0.11592453 0.13310339 0.7266646 -0.3514942 0.93218696 0.16537021
-0.25354806 -0.29800835 -0.3366173 0.028019076 -0.7635823 0.20704626 0.77491575 0.37132612

embeds.3.weight f4 [4, 3]
00000000: 84e8 0235 c9c5 73b6 2f80 b7b5 da0c a73e
00000010: 4e80 2c3e 013b 8abe 19ee a3bd a72e 9cbd
00000020: 82c1 8e3d 4578 453d 9c23 4b3d 4bec 85bd
4.876713e-07 -3.6324948e-06 -1.3671869e-06 0.32626992 0.1684582 -0.2699814 -0.08004398 -0.07626086
0.069705024 0.0482104 0.049594507 -0.0653921

embeds.4.weight f4 [13, 7]
00000000: 1c5b b436 c60a 0db6 a51f 69b6 fa58 c0b6
00000010: c95d 9fb6 bf93 47b6 ad53 e836 1a4d f53d
00000020: 8786 053c 0121 5cbd 6657 c53d ef13 033c
00000030: 522b a13d 350b 4abc f354 45bd 716f 943d
00000040: 1c05 b4b8 5939 5d3d b889 a23c 1b56 353d
00000050: c591 39bd 32c7 ac3c a2a8 7ebd f0d9 dd3b
00000060: 6958 fa3c cf6c babc d4c0 aabc 97b0 e3bc
00000070: 279f 29bd 005b b1bc 67ea 283d d48b bdbd
00000080: a06e 20bd 73cf 41bd 6bea f9bc 569b c9bd
00000090: e112 9d3d 68b5 563d 8ce6 abbd 4f3c 05bd
000000a0: e16e 94bc 5023 ecbd f030 21bc 2792 5bbd
000000b0: 8ef0 893d a96d a43d 03b9 babd c60e 5d3b
000000c0: 3d1e a6bd 4c44 1dbd e54d d4bc f023 063e
000000d0: 1739 35bc b07f d3bc 45fa e93d 16e2 c3bd
000000e0: ce31 013d 213c 10bc 0196 59bd c6ac 83bd
000000f0: 709a 80bc c9f2 da3d 11d4 7c3c 6031 b83d
00000100: 2e9c 3fbd 5a72 40bd 95d8 3a3d 0868 0b3d
00000110: e496 cabb b47f 223e 4137 153d 75c3 5c3d
00000120: 3753 30be f359 133d 4b91 bc3d 61dc 00bd
00000130: 82b1 183e b381 c63c a494 11bd 642d 913d
00000140: dcd4 50bd ec2c d0ba 12fa 3ebd 0948 fd3d
00000150: d868 0d3e 1527 d63d edbd a5bd 4d22 a6bc
00000160: 3b26 d23d 1ff6 29be 05e0 0e3e
5.3750246e-06 -2.1016908e-06 -3.4738125e-06 -5.732404e-06 -4.7494873e-06 -2.973931e-06 6.92388e-06 0.119775966
0.00814975 -0.053742412 0.096358106 0.008000358 0.07869591 -0.0123317735 -0.048176717 0.07247818
-8.5840205e-05 0.05400977 0.01984106 0.04427157 -0.045305032 0.021091077 -0.06217254 0.006770365
0.030559735 -0.022756962 -0.0208439 -0.027794166 -0.041411545 -0.021649837 0.04123917 -0.09255186
-0.039168 -0.04731698 -0.030507287 -0.09844081 0.076696165 0.052419096 -0.08393583 -0.032528218
-0.018119277 -0.11530173 -0.009838328 -0.05360618 0.06735335 0.080287285 -0.091173194 0.003373073
-0.08111236 -0.03839521 -0.02591605 0.13099647 -0.011060975 -0.025817722 0.11424688 -0.09564607
0.031541638 -0.008803398 -0.05312157 -0.06429438 -0.015698642 0.10690839 0.01543142 0.089937925
-0.046779804 -0.046984054 0.045616705 0.03403476 -0.0061825383 0.15869027 0.036429647 0.05389734
-0.17219244 0.035974454 0.092074 -0.03146017 0.14911464 0.024231767 -0.035542145 0.07088736
-0.05098425 -0.0015882528 -0.046625204 0.12367255 0.13809526 0.10456673 -0.08092866 -0.020280028
0.10261198 -0.16597794 0.13952644

embeds.5.weight f4 [53, 15]
00000000: d43b a0b6 85df 9d35 509b 9f36 cab5 8136
00000010: 38a5 72b6 c765 a4b6 f5b1 efb4 f333 34b7
00000020: 4bb3 1937 bf70 beb5 4a50 b436 5634 2236
00000030: da4f e0b5 a05c 5a36 efc8 bf36 6772 60bc
00000040: 9ef4 d9bb 9ba6 c5bb 5ac4 7e3c 10e3 8abd
00000050: 4f94 5e3e 7813 b1b9 9c30 f3bc 005a ff3c
00000060: f8f9 f4bc 6a8a 81bd 5473 c63a c19b 43bd
00000070: caa4 c33d b58f abbd 6270 b83d e523 623e
00000080: a356 aa3d df09 5cbe 40b0 7a3e 747f 96bd
00000090: 7ceb 26bd 6dc3 8b3d cf6f 713d dffe 733e
000000a0: d084 163e 0ecc 553e 8d3b abbc 7ba0 62be
000000b0: 38bf a43d 01b4 373e f678 823e 49aa ef3c
000000c0: 0b50 14be 9418 fd3d 86b2 f8bd 6bcf a9bd
000000d0: 80f8 1f3e 9f48 513e ea51 393e 5a65 313e
000000e0: f8ff 793e 14ba 0fbc 7de6 a03b b7ec 8d3d
000000f0: 4e86 f63d e046 213e 2b17 da3d b254 0ebe
00000100: 9f86 1dbd 6637 edbc 8a88 f93d c25f 093e
00000110: a6fa 803e 070e 8a3e 0496 a43e 4489 8c3e
00000120: 9c0b 92ba 9084 1c3e 9da6 ed3d cebe 57bc
00000130: d493 ddbd 0ae8 e3bd 584c 1a3e fa23 27be
00000140: 903c 033e 0402 063d 8c1e 02be cf42 a13b
00000150: 0eea 943c 0e76 38be fb1f 5c3c c7ed a3bd
00000160: e704 503d 1293 22bd 7bc1 6fbd df2b f8bd
00000170: a139 2d3e 54d2 b4bb 15ce 90bd 81c7 323c
00000180: eea9 0abe eabb 91bd 77d5 b1ba 6e38 713d
00000190: 65de 1d3c 79c1 fcbc 0c3d 543d 9c62 d33d
000001a0: 8242 5abe 2ef8 663e 46be 90be 7e8c 41be
000001b0: 99c7 283e e045 8cbb 6858 f03e 9153 de3d
000001c0: 5db7 c43d b16a 8d3e 573c 873e 6702 e9bd
000001d0: 98f7 ddbc 720e 233e bbc7 e63b 691c 29be
000001e0: 6653 0d3d 049a 24bb ace6 f0bd 06b0 913d
000001f0: cc53 263e e087 1bbc 88a4 193d a3e7 c03d
00000200: 324a a9bd 0b02 87bd 9449 b1bd 0083 923e
00000210: 1410 db3d b336 203a e45b a93d 0fd2 943d
00000220: 6a0c 87bd ccc0 ccbd 4e53 a63d ccf7 32be
00000230: 2313 b43d c4c7 273e 0795 00be 3e0f c3bd
00000240: fb66 1ebb a52d 883d 066c 1bbe 259f 143d
00000250: 6096 223d 4028 933d e4f8 90bc 0061 75be
00000260: d730 83bc 3977 70bc adb5 adbd 9e8d e8bc
00000270: b714 2ebe a666 fabd 3292 153e 5550 5a3e
00000280: 058c bf3d 90d4 a6bd efd9 b2bd c46e 00bd
00000290: 574d 2bbe dace 27be 7c5d eebd a82d a7bd
000002a0: 2a35 da3d aea6 1a3d db7a aa3e 8e1e df3d
000002b0: 6e28 82bc e52f 41bd 38a2 9ebc 3007 81be
000002c0: c3e7 a33e 8dca 483d 255a 3dbd 46ea 813c
000002d0: c485 64bc 5841 debd b183 d03a 32b2 223d
000002e0: 4189 a1bd 80ed 813e 9b82 ac3d 765b 733d
000002f0: 9c56 4a3d 139a e5bc 153b 00be 6372 9c3e
00000300: a0bc 06bd 0366 df3d 491b 66bb 969e 543d
00000310: ab17 a23c eae0 c5bd 5f27 253d 3e59 1d3e
00000320: d627 b03d 178e e2bd 5edc 80be 1d07 f13d
00000330: fe11 643d f7e2 f1bd 1aaf 243e e3e2 0cbe
00000340: d8a1 32bc 087e 373d 2c3b 1c3b b8a1 35bd
00000350: fc2d 19be a5e6 413c 7b6f 3abe fa4d 3bbc
00000360: cfea 143e b29a 8fbe e03b 1abe bb56 8fbd
00000370: 3e52 41be 25fb cf3b 812e a4bd a711 07be
00000380: 17f2 073d 9b3a 893d ac6e 08be 04c6 763c
00000390: 7196 713d 1fe9 f2bd 2dac ed3d 646b b53d
000003a0: 61de 563d 4e3d 94bc 676f 2d3b 14e8 17be
000003b0: 0052 ee3d 8520 98bd 4746 883b 73cb d13c
000003c0: e801 083e adac 2abe 992a febc 6f1c 313d
000003d0: e753 a5bd d60a 923d 8c2c 013d 6c32 253c
000003e0: 9e76 6bbd 1c33 333d 8301 c7bd 7be0 c93d
000003f0: aa47 25be eb05 fa3c 9837 473d d393 833d
-4.7753365e-06 1.1762464e-06 4.75665e-06 3.8656626e-06 -3.615698e-06 -4.8994293e-06 -4.46467e-07 -1.0740931e-05
9.161256e-06 -1.4188917e-06 5.373765e-06 2.4170345e-06 -1.671254e-06 3.2538446e-06 5.7156353e-06 -0.013699151
-0.006651475 -0.006031824 0.015549744 -0.0678159 0.21736263 -0.00033774576 -0.029686265 0.031170845
-0.02990435 -0.063252285 0.0015140572 -0.04775596 0.095529154 -0.08377019 0.0900581 0.22084005
0.08317306 -0.2148814 0.24481297 -0.073485285 -0.04075192 0.06824384 0.05894452 0.23827694
0.14699101 0.20878622 -0.02090242 -0.22131531 0.080442846 0.1793976 0.2548291 0.029256003
-0.14483659 0.123582035 -0.12143426 -0.08291515 0.15622139 0.20437859 0.18097654 0.17323819
0.2441405 -0.008772392 0.004910289 0.069299154 0.12037335 0.15749693 0.1064895 -0.13899496
-0.038458463 -0.02895708 0.12184246 0.13415435 0.2519123 0.26963827 0.32145703 0.27448475
-0.0011142376 0.15284944 0.116040446 -0.01316805 -0.108192116 -0.11128242 0.15068185 -0.16322318
0.12816072 0.032716766 -0.12706965 0.0049212943 0.018178012 -0.18013784 0.013435359 -0.08004337
0.050785925 -0.03969104 -0.058534127 -0.12117743 0.16916515 -0.005518237 -0.07070557 0.010911823
-0.13541386 -0.0711592 -0.0013567646 0.058891706 0.0096355425 -0.030853974 0.05181603 0.103215426
-0.21314433 0.2255561 -0.28270167 -0.1890125 0.1648239 -0.0042807907 0.4694245 0.10855783
0.09605286 0.27620462 0.26413223 -0.11377411 -0.027095601 0.15923479 0.0070428527 -0.16514744
0.034503363 -0.0025116215 -0.11762747 0.07113652 0.16242903 -0.009492844 0.037510425 0.09419181
-0.08266105 -0.065921865 -0.08656612 0.2861557 0.10696426 0.00061116664 0.0826948 0.07266628
-0.06594165 -0.099977106 0.08121358 -0.1747734 0.087927125 0.16384798 -0.1255685 -0.095243916
-0.0024170268 0.06649331 -0.15177926 0.036284585 0.03969419 0.071854115 -0.017696805 -0.23962784
-0.0160145 -0.014676862 -0.084819175 -0.02838784 -0.1700009 -0.1222661 0.1460655 0.21319707
0.093528785 -0.08146012 -0.08732974 -0.031355634 -0.16728722 -0.16387501 -0.116389245 -0.08163005
0.106546715 0.037756614 0.33296856 0.108945 -0.015888419 -0.047164816 -0.019364461 -0.25200796
0.32012758 0.049021292 -0.046228547 0.01585878 -0.013947908 -0.10852307 0.0015908388 0.03972072
-0.07887507 0.2537651 0.084233485 0.059413396 0.049399003 -0.02802757 -0.12522538 0.3055602
-0.03289473 0.10908129 -0.0035111478 0.05190905 0.019786676 -0.096620396 0.04032075 0.15366074
0.08601348 -0.11062258 -0.25168127 0.11768935 0.05568122 -0.11810868 0.16082421 -0.13758425
-0.010902844 0.044797927 0.002383898 -0.04434368 -0.14958948 0.011834775 -0.18206589 -0.011432165
0.14542697 -0.2804771 -0.15061903 -0.069989644 -0.18879029 0.0063470774 -0.080166824 -0.13190328
0.03318986 0.06700631 -0.13323468 0.015061859 0.058981363 -0.118608706 0.116051055 0.08858374
0.05245817 -0.018095639 0.0026464106 -0.14834625 0.11636734 -0.074280776 0.0041587683 0.025609707
0.13281977 -0.16667433 -0.031026172 0.043240007 -0.08072644 0.07130973 0.031536624 0.010082822
-0.05748617 0.043749914 -0.09717085 0.098572694 -0.16140619 0.0305204 0.048637003 0.064246796

embeds.6.weight f4 [32, 11]
00000000: 76cf a436 4d18 cab4 e3fb f835 e3e9 de35
00000010: 984b 7136 c5de 0136 e719 7c35 cdd2 35b5
00000020: ae59 9bb6 e39b 0637 c2ad 6a34 b0bf 9fbd
00000030: 230b 72bd b577 14bd 88a4 00be ccea fabc
00000040: c8d7 713d 5a17 633b ff0c 1fbe efba 443e
00000050: 17d2 60bd 2294 5fbd 7bb3 1fbe d704 0c3e
00000060: 02ba 6b3a 55fe 19be 12a2 313d 30e5 2c3e
00000070: 6e4e 0a3d 12f1 fdbd 2d24 793e c768 0dbe
00000080: 702d b83b 2893 08bd d54e 863e 49db 143c
00000090: d35d a73d 0baa a83d 09e6 4abd 8583 dfba
000000a0: 6a72 513e ed28 bc3d 9332 c33c 23bb b93d
000000b0: 0d19 1fbe 96bd ec3d b698 143e 103e 18be
000000c0: 8deb 35be 981c 093e fadd d03c 0bb8 d4bd
000000d0: cf13 813d 8e7f 1cbe 5acf 67bd 9cfd 8e3d
000000e0: 8cc4 c83d bb73 ae3d 5860 7cbe e219 603e
000000f0: fbab 903d f87a f9b9 1b91 b03c 9065 bcbd
00000100: b9a3 87bd 67a3 923d 4dc9 88bc d078 1ebe
00000110: b73b 6dbc 21fd 913b 7552 23bd c6a9 683c
00000120: 99bf 4e3c a4ac 693d e2e8 a8bd fa67 05bd
00000130: a947 283e bdac a1bc b510 45be b744 35be
00000140: 85fa a83d 8754 0c3d c9df 1a3d aa7f 0abd
00000150: bf62 29bd d333 07be e235 e43c 7a66 2d3e
00000160: 0543 aa3d 180f 76bd 725e b33c 0e82 803d
00000170: 47ce e63d 1567 67be ecf9 1cbe c8b3 643d
00000180: 8918 b7bd da40 203e 174d e43a 8d72 1a3e
00000190: 6f67 723d d90b b5bd 35ae 043e 1cc2 333e
000001a0: 9198 c4bd b022 21bd 1593 0e3e d9ca 2fbe
000001b0: a764 fa3c eb69 3cbe e4cd babd 2841 8b3c
000001c0: 6c17 173d b11f 58be 0a40 62bd 3465 523d
000001d0: b8af 803d 1cf3 cabd 30a3 d1bc 62a0 3fbe
000001e0: c99e a7be fbcc 08be 014b af3c bea5 88bc
000001f0: 9f2f 0fbe a832 82bd 8958 273d 55c0 41bd
00000200: 50b1 fdbd e1d5 873e d0c5 78be ff62 52be
00000210: 0af6 8bbe 2f0c 98be 231b 843e 9414 4fbe
00000220: 730a 0dbe 3983 923e 44db 1c3e 7497 8c3d
00000230: 7831 92bd cb29 cdbc dba6 91be 862a 823d
00000240: 5234 563d 5f25 1c3d f743 32bc 3761 323e
00000250: 661a 01bd ea37 19bc 8783 16bd b8c3 c2bd
00000260: 87eb 6d3d bbaf 68bc 150f e03b a09f a9bd
00000270: 0253 623d bdde c7bd 62c0 eb3d 1482 c7bd
00000280: c173 0abe 2b23 01be 553a 173d 3314 12be
00000290: 8c89 9bbd 4048 f1bc 5e8c 93bd 30b7 bbbb
000002a0: 08a8 21be 9c87 bb3b 3f15 d33c b864 bebd
000002b0: b10b 52be 3ad1 13bc 9c83 7bbd 78d3 22bd
000002c0: 1f88 8ebd 92c4 ba3b 3ac8 c63d bf08 1fbc
000002d0: 1ef3 99bd 26e8 f63b 6566 b03d 9dcd e93b
000002e0: 04fe 45bd 1b0c dbbd cdc0 c5bd 559b c0bd
000002f0: 79be 703b d9ff a03c bd08 2bbe 3cb7 fabc
00000300: d1c7 683d 49e4 fa3d fbc6 7f3d a294 edbd
00000310: 1521 8abd 0600 17bd c6b8 86bd e08e 343c
00000320: 4c04 e93c e24b 1fbd aec2 7fbd ed9b 933c
00000330: 103e 143b 4fc9 013d 821d 823d d2b1 13be
00000340: b1fb 3dbd 1eb6 bbbd 2191 3bbd e9d1 033e
00000350: 7ec7 e53b 885b 1f3d 2765 1e39 8257 76bd
00000360: 87e8 18bd 9b98 383e a0ee a0bd 0f50 683b
00000370: a475 05bd 89b5 c93d 3f30 4fbc 01a5 23bb
00000380: f460 2a3d 0cf2 96bd 8f11 01be c541 3f3d
00000390: c412 b4bc 3fed 1c3e 58b6 97bc 1124 a3bc
000003a0: 4ba2 eebb 0cd1 643d b913 a0bd 7196 ac3c
000003b0: 5000 e5bc 0916 9bbd 80a7 853a c44b 033e
000003c0: 1d36 cebd 4e43 c0bd 3266 1bbe 3c90 f1bd
000003d0: a097 9d3a 728d 20be 75b6 9abd 1d5a a6bc
000003e0: aff5 483d de6c 4ebe 9c2f 3f3d 96b0 9fbd
000003f0: 5816 9bbd d918 4bbc b644 d9bc b1a7 7e3d
4.9117325e-06 -3.7643113e-07 1.8550749e-06 1.6608359e-06 3.59558e-06 1.9352167e-06 9.391501e-07 -6.773451e-07
-4.6298e-06 8.023318e-06 2.1856161e-07 -0.07800233 -0.059092652 -0.036246974 -0.12562764 -0.030629538
0.059043676 0.003465137 -0.15532301 0.19211935 -0.054887857 -0.05458463 -0.1559581 0.13673721
0.0008992256 -0.15038426 0.043367453 0.16884303 0.033766203 -0.12399496 0.24330206 -0.138095
0.005620651 -0.033343464 0.2623202 0.009085485 0.081721924 0.08235558 -0.049535785 -0.0017052746
0.20453802 0.091874935 0.023827827 0.090688966 -0.155369 0.11559598 0.1451138 -0.14867425
-0.17765637 0.13389814 0.025496472 -0.10386666 0.06302606 -0.15283033 -0.05659423 0.06981966
0.09803113 0.085181676 -0.24646127 0.21884874 0.07064053 -0.000475846 0.021553567 -0.09199059
-0.066230245 0.07160073 -0.01669755 -0.15475774 -0.014479569 0.004455224 -0.03987356 0.014200633
0.012618923 0.05704941 -0.08247544 -0.032569863 0.16433586 -0.019735688 -0.19244654 -0.17701994
0.08250908 0.0342603 0.037811074 -0.033813156 -0.041353937 -0.13203363 0.027857725 0.16933623
0.08313564 -0.06007299 0.021895621 0.06274806 0.11269813 -0.22597916 -0.15329713 0.055835515
-0.089402266 0.15649739 0.0017417994 0.1508276 0.059180673 -0.088401504 0.1295708 0.17554516
-0.09599412 -0.03933972 0.13923295 -0.17167224 0.030565573 -0.1839978 -0.09121302 0.016998842
0.03688757 -0.2110584 -0.055236854 0.051366046 0.06283516 -0.09909651 -0.02559051 -0.18713525
-0.3273833 -0.13359444 0.02139807 -0.016680595 -0.1398301 -0.06357318 0.040855918 -0.047302563
-0.12387335 0.26530364 -0.2429421 -0.20545577 -0.2733615 -0.29696795 0.25801954 -0.20222694
-0.13773517 0.2861574 0.15318018 0.06864825 -0.07138342 -0.025044343 -0.28447613 0.06355767
0.05229599 0.038121577 -0.010880462 0.17419897 -0.031519316 -0.00935171 -0.036746528 -0.09509987
0.058085945 -0.014202054 0.0068377354 -0.08282399 0.055254944 -0.09759281 0.115113035 -0.09741607
-0.13520719 -0.12611072 0.036920864 -0.14265518 -0.07594594 -0.029453397 -0.07204507 -0.0057286248
-0.15786755 0.005722953 0.025766967 -0.09296554 -0.20512272 -0.0090220515 -0.06140481 -0.039752454
-0.06959557 0.0056997025 0.09706159 -0.009706675 -0.07517074 0.0075349985 0.0861328 0.0071351067
-0.04833795 -0.10695668 -0.096559145 -0.09404627 0.0036734624 0.019653248 -0.16702552 -0.030604951
0.056831185 0.12250573 0.062445622 -0.11600615 -0.06744591 -0.036865257 -0.065782115 0.011020392
0.028444432 -0.038890727 -0.06244152 0.018018687 0.002262 0.031686123 0.063532844 -0.14423302
-0.04638261 -0.091655955 -0.045792703 0.12873043 0.0070123067 0.03890565 0.00015105736 -0.060142048
-0.03733113 0.18026964 -0.07858014 0.003544811 -0.032582894 0.09849078 -0.01264578 -0.0024970176
0.041596368 -0.073703855 -0.12604354 0.046693582 -0.021981604 0.15324877 -0.018519565 -0.019914659
-0.0072825304 0.055863425 -0.07816262 0.02106783 -0.02795425 -0.07572562 0.0010197014 0.12821871
-0.10068915 -0.09387837 -0.15175703 -0.11795089 0.0012023337 -0.15678957 -0.07554332 -0.020306641
0.049062427 -0.20158717 0.046676263 -0.07797353 -0.07572621 -0.012396061 -0.026522022 0.06217164

embeds.7.weight f4 [8, 5]
00000000: da96 b3b6 3c73 ab36 bf9b 1036 3713 c2b5
00000010: fa82 3c37 caa5 cf3c 6b46 b83d 6ec9 20bd
00000020: d3d1 a53c b4ed a6bd eda6 dbba bd1f b0bc
00000030: 3ebf a6bd 5c17 a4bd 575e 2fbd 9f2c 8a3e
00000040: ea2b 19bd f2f3 96bc 134f 68bd 91bb 623d
00000050: 648d 29bb d068 603d 9598 93bd 80bc c93c
00000060: 7664 a7bc 3f15 eabc 95f8 8e3b 5589 683d
00000070: c2df 003d 2166 053c e175 223d 7116 0abd
00000080: 1539 af3c 464f c7bd 6525 d4bc 4ab7 163c
00000090: feef 983d df3d 8bbd 9801 24bd 15c7 1c3c
-5.352177e-06 5.109612e-06 2.1548328e-06 -1.4459719e-06 1.1236169e-05 0.02534761 0.08997806 -0.0392546
0.020241654 -0.08150807 -0.0016758122 -0.021499509 -0.08141945 -0.08012268 -0.04281458 0.26987168
-0.037395395 -0.018426869 -0.056716036 0.05535466 -0.002587163 0.054787457 -0.07206837 0.024626017
-0.020433646 -0.028574584 0.0043631294 0.056771595 0.031463392 0.008142025 0.0396632 -0.033712808
0.021389524 -0.09731917 -0.025896737 0.009198973 0.0746765 -0.0679891 -0.040040582 0.009568949

embeds.8.weight f4 [3, 3]
00000000: 0a49 03b7 6d55 ae35 393a e8b6 8566 57bc
00000010: 637e 7c3a ebdb 163d ef6c 253d 1fdc 6f3d
00000020: b2aa bbbd
-7.825214e-06 1.2988872e-06 -6.920917e-06 -0.013147001 0.000963187 0.036830824 0.04038709 0.058559533
-0.09163417

embeds.9.weight f4 [3, 3]
00000000: 9808 bb36 5e32 f5b4 bffe 1d35 d843 2ebc
00000010: e153 64bc bfeb b73a 655f e53d fc75 cabd
00000020: a992 703d
5.5740347e-06 -4.5671453e-07 5.885776e-07 -0.010636292 -0.013936014 0.001403205 0.11199836 -0.09885785
0.058733616

embeds.10.weight f4 [3, 3]
00000000: 7cd9 6d35 4d22 d036 e566 d2b4 6902 603c
00000010: fb5b e73c 9703 a3bb d60a e6bd 5a14 d6bd
00000020: 4b4c f4b9
8.860586e-07 6.202876e-06 -3.9190414e-07 0.01367245 0.028242102 -0.004974793 -0.112325355 -0.104531005
-0.0004659615

embeds.11.weight f4 [3, 3]
00000000: a25e ccb6 c9fc 9f36 a42f 6e36 83b6 5bbd
00000010: 76c7 123d 5938 18bc 1728 9b3e acb2 38be
00000020: 3584 0e3e
-6.0906905e-06 4.7679973e-06 3.5492494e-06 -0.053640854 0.035834752 -0.009290778 0.30304024 -0.18036908
0.1391762

embeds.12.weight f4 [3, 3]
00000000: 11d0 4db6 261f ffb4 0489 a0b6 f376 413c
00000010: b424 67bb fd2a 2c3c 4fec 6e3e 28d9 babd
00000020: 6845 4cbe
-3.066849e-06 -4.7520115e-07 -4.7843223e-06 0.011808145 -0.003526968 0.010508296 0.23332332 -0.091234505
-0.19948351

embeds.13.weight f4 [3, 3]
00000000: 8103 0c37 6c1d 1136 2a07 15b6 001e d33b
00000010: b7c6 a93b 7fe9 62bb 5452 07bf 0263 17bf
00000020: 95c0 203f
8.345466e-06 2.162381e-06 -2.22069e-06 0.0064427853 0.0051811594 -0.0034624038 -0.5286 -0.5913545
0.62793857

embeds.14.weight f4 [3, 3]
00000000: 8e27 1f37 58d3 2536 a1e1 8236 b328 ce3a
00000010: 6502 3bbc 2ac4 22bc ab60 c23e 8fa9 63bf
00000020: 99d9 26bf
9.486348e-06 2.4709934e-06 3.9005686e-06 0.0015728682 -0.011414145 -0.0099344645 0.37964377 -0.889306
-0.6517578

embeds.15.weight f4 [3, 3]
00000000: 3b3b a536 5408 7c34 c631 dab5 e77e 74bc
00000010: 5f66 f53b 9938 28bc b347 25bf 59a6 363f
00000020: 1706 373f
4.9242785e-06 2.3472359e-07 -1.6256752e-06 -0.014922834 0.00748901 -0.0102674 -0.6456253 0.71347576
0.7149367

embeds.16.weight f4 [3, 3]
00000000: 1641 0237 f38f a436 e07b a8b6 9d23 b13c
00000010: 88cb cd3b 03a2 4e3d d200 16bf 41e7 363f
00000020: ad0c f03e
7.763758e-06 4.9043388e-06 -5.021211e-06 0.021623427 0.0062803663 0.050447475 -0.58595 0.71446615
0.4688467

embeds.17.weight f4 [3, 3]
00000000: d444 edb5 58de 9536 4305 4b36 9889 923b
00000010: f026 63bc 3465 77ba 5dab 6b3e f16a cabe
00000020: 38e5 39bf
-1.7677908e-06 4.4664303e-06 3.025242e-06 0.004471969 -0.013864264 -0.00094373827 0.23014589 -0.39534715
-0.72615385

embeds.18.weight f4 [102, 21]
00000000: daba 38b6 fe36 67b6 61d6 93b5 0815 3db6
00000010: 2e56 82b6 f902 0fb7 7f8f 06b6 bd2e 6836
00000020: 566e 9b36 2b6f 5036 7ddb c136 7a6e fbb5
00000030: 0faa 5736 0549 8d36 01d4 6436 4143 9636
00000040: 14db f4b6 35e2 5335 4b3d 3635 cadc a836
00000050: 394b aab6 f144 b5be 358e 3dbe 384b ce3e
00000060: 8617 30be 63cc 3d3d 46f1 45be a797 7b3e
00000070: 7fbf edbd bfd0 433e d436 363e 7b97 7b3e
00000080: 3265 75be 4fce 98be 006b 8bbe d3f9 72be
00000090: 95b0 d33d 83dc 5b3e e1ee 91be c8f4 d73d
000000a0: 08a4 853e d895 2bbd 2bc4 e5bd 6e97 403e
000000b0: 717b 0c3e c07a ffbd a4ea 36be e813 2fbd
000000c0: da14 0abd d797 d6bc cc70 debd ad3c dcbd
000000d0: e976 703d b086 843d edfb 5cbd f1c6 fd3c
000000e0: 6ff0 c8bd 97d4 5bbd 02b9 03be 14ed 01be
000000f0: 2cba e93d 6b6c 113e c55d ac3d 7328 83be
00000100: 1d28 2cbd 56bf 1b3e 50fd 30be 54a4 2bbe
00000110: 4334 9c3c 148c a63c f702 adbe 0132 03be
00000120: 6d4e a0be 9543 b7bd 5734 0dbd b805 e43c
00000130: 911c 003e ca9b dabd 0c9d 473e 4d01 8fbd
00000140: 6e7c 30be a050 a8bd 3344 8bbe 1770 e63b
00000150: 728a 0d3e fabc 803d 4213 cdbc 9404 843d
00000160: 6dc9 bd3d b4ba 223e c129 b7bd 1f46 8e3d
00000170: 1ada 90bd 1b34 303e 8a84 8ebd c6e9 39be
00000180: baf4 2dbe 5e69 a2be bcd9 f83d 8913 e3bd
00000190: 3993 adbd 7b0f 983e 84bb 78bb b585 163e
000001a0: 3355 193e d110 c23d 45e5 4a3e e85c 81bd
000001b0: c3f9 3f3a 6c21 5cbb d62d debb b4cf 10be
000001c0: caa9 b03d effa 22bd cc6d 2dbc 52b6 e23b
000001d0: 4a43 13be 7b32 eabd 820c 81bc 335f 10bd
000001e0: 8735 b93d 48dc 673d 4ef9 c73d 8e7d 043d
000001f0: 34e8 d73d e969 16bc 7005 003e a955 f73d
00000200: f99d 053c a311 61bb 529b c9bd 5869 78bd
00000210: 3275 6bbe fb39 6b3e c756 d83d 8562 b13c
00000220: 7528 51be 9249 e8bd 9927 babd b106 d53d
00000230: 03d9 07bd dbed df3d 2a41 de3b 32a9 b53c
00000240: e56f 2a3e 24a7 e03d 32da 623d c3bd 063e
00000250: 30cf e53d 056e adbd d348 57bd 3b5f c3bc
00000260: 2a33 63bc 4951 6dbd f494 f8bc 7cdb 1fbd
00000270: a7a7 1a3e ffe0 9c3b 20f3 b4bd 1435 c8bd
00000280: 59a7 a8bd 9c4a 533d 9cf6 fb3d 3f49 35bd
00000290: 2dd1 f73d 4dd8 8d3d 76eb 083e 0ecd 673d
000002a0: 1fbd 6cbe edd3 51be a29c 24bd 618f 993d
000002b0: 7c3a e0be 14bd 9b3d 549c 48bd 8785 bb3b
000002c0: fcd8 2e3e 6db6 143d d102 843e ce66 433e
000002d0: 5a8f c23c fca1 063d 8e7b 52be a65f cebe
000002e0: 9d77 aabe 68a0 1a3c 9857 21be 83c4 d63d
000002f0: 1f48 b73e 9f91 17be 32d5 49be c2a0 d83d
00000300: a90d 233d 9e73 e6bd 9e92 20be 4569 bf3d
00000310: 7d62 90be 30ea b6bd a4d2 c0bd c9a2 a4be
00000320: 2feb c63d 4bc6 6f3e ae28 223e 8ae3 88bd
00000330: 3684 013e 9c80 d1bd 199e f0bc 9928 5d3c
00000340: 45af ecbd 7e7c c4bd 9133 693d 3458 afbd
00000350: 87a1 0cbd ecf6 f8bb ea9b 403e 4f43 c1bd
00000360: 9c2f f73d 3488 673c 42c9 533d 33cf 4c3e
00000370: df32 bd3d e6a5 35bd 134c 11be 7b41 39be
00000380: 879a 133e 0a25 b33d 2b0a c23d e3aa e73d
00000390: 7746 e5bc 2313 853d 4d5f 803d 6d4c 3fbd
000003a0: 25aa a7bd bb31 87bd 4813 183e 2ca5 58be
000003b0: 9a56 133e 26c6 cfbd 0b41 48be 36be da3d
000003c0: 7b26 003d 9649 b13d ada2 88bd 1c6e 55be
000003d0: c132 19be 4a6d 29be 30ec 1ebe 4ab1 8d3c
000003e0: 2ddc 87bc 7d6a 54be 90ff 843e d7e3 90bc
000003f0: d045 afbd 6430 84be 515b 2d3e cf8a 773e
-2.7526899e-06 -3.4453692e-06 -1.1014746e-06 -2.8175436e-06 -3.8843345e-06 -8.524156e-06 -2.0051082e-06 3.45979e-06
4.6322048e-06 3.1059124e-06 5.7774e-06 -1.873311e-06 3.2136484e-06 4.210628e-06 3.409805e-06 4.4781777e-06
-7.2972707e-06 7.89328e-07 6.7889476e-07 5.0324934e-06 -5.075152e-06 -0.3540416 -0.18511279 0.40291762
-0.17196473 0.046337496 -0.1933032 0.2456957 -0.116087906 0.19122599 0.17794353 0.24569504
-0.23964384 -0.298449 -0.27230072 -0.23728113 0.10336415 0.21470837 -0.28502563 0.10544735
0.26101708 -0.04189095 -0.11219057 0.18807766 0.13718964 -0.124745846 -0.17862946 -0.042743593
-0.03371129 -0.02619545 -0.10861358 -0.107537605 0.05870715 0.06471002 -0.053951193 0.030978652
-0.09811484 -0.05366954 -0.12863544 -0.12688094 0.114124626 0.14201514 0.084163226 -0.25616798
-0.042030443 0.15209708 -0.17284131 -0.16761905 0.01906789 0.020330466 -0.33791324 -0.12812044
-0.31309834 -0.08948437 -0.034473743 0.027834758 0.12510897 -0.10674246 0.19493502 -0.0698267
-0.17234966 -0.08218503 -0.2720047 0.007032405 0.13822344 0.062860444 -0.025033597 0.06446186
0.092669345 0.15891534 -0.08943511 0.06946968 -0.070728496 0.17207377 -0.069588736 -0.18155584
-0.16987887 -0.31721014 0.121509045 -0.110877104 -0.08475346 0.2969931 -0.0037953565 0.14699443
0.14973907 0.09475864 0.19814022 -0.063165486 0.0007323289 -0.0033589257 -0.0067803664 -0.14141732
0.08626135 -0.03979009 -0.01058526 0.006918707 -0.14381137 -0.1143541 -0.015753035 -0.03524704
0.09043413 0.05660656 0.09764348 0.0323463 0.10542336 -0.009180524 0.12502074 0.12076885
0.008155339 -0.0034342788 -0.09844078 -0.06064734 -0.22993925 0.22971337 0.105634265 0.021653423
-0.2042559 -0.113421574 -0.09089584 0.10401667 -0.033165943 0.10934039 0.0067826705 0.022175405
0.16644247 0.109693795 0.05538387 0.13158326 0.112211585 -0.0846825 -0.052559685 -0.02384912
-0.013867179 -0.057938848 -0.030344464 -0.039027676 0.15103017 0.004787564 -0.08835435 -0.09775749
-0.08235044 0.051584825 0.123028964 -0.044259306 0.12100444 0.06926022 0.13371071 0.05659204
-0.23119019 -0.20491 -0.04018844 0.074980505 -0.4379462 0.07604423 -0.04897721 0.005722705
0.1707496 0.036306787 0.257834 0.19082186 0.023749996 0.032869324 -0.20554945 -0.4030735
-0.33294383 0.009437658 -0.1575607 0.104867004 0.35797212 -0.14801644 -0.19710234 0.10577537
0.03980795 -0.11252521 -0.1568093 0.093462504 -0.2820014 -0.089313865 -0.094151765 -0.32155445
0.097128265 0.23415487 0.1583583 -0.06684025 0.1264809 -0.102296084 -0.029372262 0.013498449
-0.115568675 -0.095940575 0.056933943 -0.08561745 -0.034333732 -0.0075977948 0.18809476 -0.09436666
0.12069628 0.014131594 0.051705606 0.20000915 0.092382185 -0.044347666 -0.14189176 -0.18091385
0.14414416 0.08747299 0.09474596 0.11311891 -0.027987702 0.06497791 0.06268177 -0.046703745
-0.08186749 -0.06601282 0.14851105 -0.21156758 0.14388505 -0.10145216 -0.19556062 0.10680811
0.031286698 0.086566135 -0.06671653 -0.20842785 -0.14960767 -0.16545597 -0.15519786 0.017296452
-0.01658448 -0.20743747 0.2597623 -0.017686768 -0.085582376 -0.2581817 0.16929366 0.24174045

embeds.19.weight f4 [46, 14]
00000000: 11bf dbb5 f12c 1336 79b1 6db5 f91d 07b7
00000010: ca11 4d35 67b9 6936 bf13 ecb6 8680 c834
00000020: dca2 9633 86e7 9936 9984 90b6 b77a cd36
00000030: d734 d5b6 1fb3 a436 3ac7 00be 6cd4 253d
00000040: d40b b23d e12a dbbe 80ed 973e 668b 7a3e
00000050: c904 80be 0d61 c93e 51ce bdbd b9e2 9a3e
00000060: 3271 c3be 8604 6abe 8e0b 2c3e ec39 babe
00000070: a416 99be c725 663e e928 4e3e 714d 94be
00000080: 251f 18be ce35 2a3f c696 313e 1e50 be3e
00000090: bb3d 963e dfe7 a33e 0c39 26be b732 bc3d
000000a0: 2c5d fc3e cb78 bdbd 8575 f03d 4a9a 8d3e
000000b0: f91f a0bd 5871 56be 5219 923e 7da7 c6bd
000000c0: b02c 2ebe 256b e5be 363a 80be d02f 863c
000000d0: 6f63 203e c305 073f 563f 113f 594f 3e3f
000000e0: 960e b7bc 1371 323e d645 3dbe c147 20bf
000000f0: cfdb 153d 1448 303e 6e4a 853d c985 ea3d
00000100: ddf4 e3bd badd 40be ec57 ba3c b9f9 1b3e
00000110: a657 493e 699e 38bd 54e4 423e 38bd ddbe
00000120: 9007 a83e e921 72be 6ecb ce3e 6bee 7fbe
00000130: d891 aebd 6ae2 4dbe ef4b 41bc 699e 8bbd
00000140: e55f 593e 5422 34bd d148 893e 57c6 fe3d
00000150: e5e8 1d3e d6cc 8e3d 7663 853e 73af 3f3e
00000160: c095 3b3e 779b 853e 1cf0 29bd 3a1b 9e3e
00000170: 42d7 813b f089 d73e ca26 8fbe cfe8 ac3e
00000180: 0b2c 1f3e afa1 03be 4e02 523d 0e05 45bf
00000190: 5db6 47bd 8816 55be 2305 2f3e ee83 783d
000001a0: f575 b7bc dd1b efbe 7df8 c53e 94fc 123f
000001b0: f77a 07bf ee76 85be 4888 a7be cd95 3cbc
000001c0: b228 153e afd4 4ebe 536d 563b 949e 22be
000001d0: 68ae 79bd 3fa5 463e c14d 04bd a6bc e83d
000001e0: 9c0a c1be 1c50 d13e 5fa3 fc3d 0205 fb3c
000001f0: 1ac0 5a3e 6f10 6a3e 775f 073f 26c3 9ebe
00000200: 183b 373e 67d9 81be 2d00 403e 2d0d bd3e
00000210: bb78 89be b329 a6be e5fb f6bc c63a 013e
00000220: e040 983e c12c 043f 79c2 cf3e f8cb 653f
00000230: 50ae 4cbd 4dd4 9c3e 1b92 203e c071 383e
00000240: 96d5 e73e 4954 2ebb 68b7 2abf 122b 0a3f
00000250: dd71 653e ace5 02bf 964f 3dbf d82a dc3e
00000260: 99e8 d23e c204 a4be 1846 5e3e 4281 473e
00000270: a21d 1d3c 95fd 1e3e 6a4f 703d a776 f33d
00000280: 36bd fe3e a7b9 243e fb36 0ebe 1b48 06be
00000290: 40c2 0bbd 2b92 033f 954d 19be 4c6b a8bc
000002a0: b309 353f 7052 583e 20f0 0abf c393 d5bc
000002b0: ac7b c83e 117e 093d 3cc7 f4bd 017d 333e
000002c0: 9a7b bf3c c207 33be c046 b5be 0fe0 553d
000002d0: d4bd 843d f383 0f3f 1aa6 463d eb3b 1a3e
000002e0: 32b6 71be fa2d 4fbe e025 19bd d527 303f
000002f0: abca 0dbf 2fb7 093e db70 ad3c 2a01 9abd
00000300: f78c fabd 4d0e 2cbd 333a 4bbe cc58 34bc
00000310: 0d8a 32be 223d e83e 04b8 173e 877e 9bbd
00000320: 2bf9 d3bc 231c e43b 717b 753d 0cb4 c53d
00000330: c592 ce3e 8377 02be 1d3a 4ebe 31ce 31bd
00000340: b56f 23be cf0d b8be 8f2e 1b3d a2a3 a1be
00000350: 99d5 73be 643b d03e 61d0 fc3d f6be b2be
00000360: eedf 02bf a8ba f7bd b776 dcbe 6b63 7e3e
00000370: f977 963d 244c a13d b762 5a3e af29 583e
00000380: 64b8 b53e 9ee8 5ebe d117 24be 6a20 623e
00000390: 2132 8bbe 815e d13c 45af a2be 5fc3 d2be
000003a0: cf1d 833e b8c5 d43e 9d56 26bf fdab 44bd
000003b0: b5cf 1dbe 59d9 df3e 71fa e23d 86af 94be
000003c0: c939 6ebf 885f 34bf 3307 cabb f854 043f
000003d0: 9c20 333d cd82 c43e ca3a 733e 4f90 01be
000003e0: 7ac5 67be d7e5 f43c 45a1 23be 4e19 da3d
000003f0: a298 2bbe 136e 293e 534c c7be ff80 843c
-1.6372379e-06 2.1930866e-06 -8.8547637e-07 -8.053606e-06 7.639434e-07 3.4827624e-06 -7.035647e-06 3.7346416e-07
7.014543e-08 4.586708e-06 -4.306971e-06 6.123762e-06 -6.354046e-06 4.9084333e-06 -0.12575999 0.040485784
0.08693662 -0.42806152 0.29673386 0.24467239 -0.2500365 0.39331856 -0.09267867 0.302511
-0.381723 -0.22853288 0.16801283 -0.36372316 -0.29900086 0.22475348 0.20132793 -0.28965333
-0.1485563 0.6648835 0.17342672 0.371705 0.29343972 0.3201284 -0.16232699 0.091893606
0.49289834 -0.09251555 0.11741165 0.27656776 -0.07818598 -0.20941675 0.28534943 -0.096999146
-0.17009234 -0.44808307 -0.2504441 0.01638022 0.15662931 0.52743167 0.5673727 0.74339825
-0.022345822 0.17425947 -0.18483672 -0.6260949 0.03658658 0.17214996 0.06508337 0.11451299
-0.11130688 -0.18834582 0.022747003 0.1523198 0.19662341 -0.045072947 0.19032413 -0.43308425
0.3281827 -0.23645748 0.4038958 -0.24993293 -0.08523911 -0.20105901 -0.011797889 -0.06817324
0.21227987 -0.04397805 0.26813367 0.12440174 0.15420873 0.06972663 0.26052445 0.18719272
0.18318844 0.26095173 -0.04148875 0.30880147 0.0039624283 0.42097425 -0.2795928 0.3377137
0.15544145 -0.12854646 0.05127173 -0.7696084 -0.0487579 -0.20809376 0.17091803 0.060672693
-0.022395113 -0.46700945 0.38666144 0.57416654 -0.52922004 -0.260673 -0.32721162 -0.011510325
0.14566305 -0.2019832 0.003271897 -0.15880805 -0.060957342 0.19398974 -0.032300714 0.11364107
-0.37703407 0.4088143 0.12335848 0.030642036 0.21362343 0.22857831 0.5288004 -0.3100826
0.17893636 -0.25361177 0.18750067 0.36924115 -0.26849923 -0.3245369 -0.03014941 0.12620077
0.29736996 0.5163079 0.40578058 0.89764357 -0.049970925 0.30630723 0.15680735 0.18012142
0.4528014 -0.002660053 -0.66686106 0.5397197 0.22406717 -0.511317 -0.73949564 0.43001437
0.41193083 -0.3203488 0.21706426 0.19482902 0.009589585 0.15526421 0.058669485 0.118878655
0.4975373 0.16086446 -0.13888161 -0.13113444 -0.034120798 0.5139491 -0.14971001 -0.020558976
0.70717925 0.21125197 -0.5427265 -0.026071435 0.39156854 0.033567492 -0.119520634 0.17528154
0.023374368 -0.17483428 -0.3540554 0.052215632 0.06481519 0.56060714 0.04849825 0.1506192
-0.23604658 -0.20232382 -0.037389636 0.6881078 -0.5538737 0.13448785 0.021171978 -0.07519753
-0.12233918 -0.042005826 -0.1984642 -0.011007499 -0.17435475 0.4535914 0.1481629 -0.075924926
-0.025875648 0.006961362 0.059932176 0.09653482 0.4034635 -0.12740903 -0.20139356 -0.04340953
-0.15960582 -0.35948035 0.0378862 -0.31570154 -0.2381195 0.4067031 0.123444326 -0.34911317
-0.5112294 -0.12096149 -0.43059322 0.24842612 0.07347102 0.07875851 0.21326719 0.21109651
0.3549224 -0.21768424 -0.1602471 0.22082677 -0.27186683 0.025557758 -0.31774345 -0.4116468
0.2560868 0.41557097 -0.6497591 -0.048015583 -0.15411265 0.4372051 0.11082924 -0.29040164
-0.93056923 -0.7045827 -0.006165409 0.5169215 0.04373227 0.38381043 0.23752895 -0.12652706
-0.22633925 0.029894752 -0.15979488 0.10649358 -0.16757444 0.16545896 -0.38925418 0.016174791

bn_cont.weight f4 [11]
00000000: 2268 e93e 18a0 973e 488b 853c fdf6 6f3d
00000010: 5df8 933c c233 683c a2c4 f9bd cfce c53e
00000020: ca82 b23e 8a08 4f3f 78c0 613d
0.4558726 0.2961433 0.016301766 0.058585156 0.018062765 0.014172496 -0.12195708 0.38634345
0.3486541 0.80872405 0.055115193

bn_cont.bias f4 [11]
00000000: 4ea1 a03e f46e f83e e42c 433f 5886 79bd
00000010: 60cd 55bf dbaf 48bf 8094 723c 7204 ac3e
00000020: f441 9f3c 8282 313f d89c 793c
0.31373066 0.4852215 0.7624037 -0.060919136 -0.835165 -0.78393334 0.014805913 0.33597142
0.019440629 0.69339764 0.015235148

bn_cont.running_mean f4 [11]
00000000: c5a7 f9bb 11d1 fcbc 9c1f 64bc c6e2 e13c
00000010: 771c 88bc 169d afbc a1a3 21bd 2ea2 393c
00000020: f6dd 3fbd 9387 cbbc 8821 84bd
-0.0076188766 -0.03086141 -0.013923552 0.027573954 -0.016615136 -0.02143721 -0.03946269 0.011330171
-0.046842538 -0.02484492 -0.06451708

bn_cont.running_var f4 [11]
00000000: dcc6 853f aa81 883f 96bf 853f f617 c63f
00000010: 6207 743f 79db 543f a093 553f 5744 883f
00000020: 3a07 753f 1a97 813f 93c5 e53f
1.0451312 1.066457 1.0449092 1.5476062 0.95323765 0.8314739 0.8342838 1.0645856
0.9571415 1.0124238 1.795092

layers.0.weight f4 [200, 142]
00000000: b919 313d e7ca c73e e166 bcbe 3bd8 f5bc
00000010: 4fba dd3c 398d efbd 36f7 bcbe 4b5b 07be
00000020: ee57 84be 82bf 1ebf dcc2 873f 2806 873d
00000030: e24e 2e3e 447d 11bf c4dd 1ebf 3f0a 003e
00000040: f238 1abe df88 193e 6172 6e3e 902c 82be
00000050: 6a2f 27bd 4f5e 0d3e eeea 9ebf 6092 a0be
00000060: 8291 9bbd 58eb d4bd 5c59 d93d 7bea 983d
00000070: da65 bc3e 7e86 8dbe 1631 a13e d1f2 563e
00000080: d90d 13bd cbec ac3d 625c 63be 760e e1be
00000090: 5284 0b3e 1f74 5c3d d267 bebe f423 663e
000000a0: 70c1 c53d dd76 37be 2ef5 6bbd 3896 3e3e
000000b0: a3f1 95be ef7b ec3d f417 153d f6ab 2dbe
000000c0: 6470 a2bd 8487 8c3d cdfd 38bd 9a83 533d
000000d0: 0ce8 aebd b8ca eb3d d8e8 80bd 07a2 7dbe
000000e0: 8320 b83e 6f4f ea3d d0ad 33be 6cf2 403e
000000f0: e9b4 2a3e a390 173e 8439 64be 5e3b d5bc
00000100: 1082 b53d 1522 0f3e 63d5 79be 356a 5c3e
00000110: c03a 1c3c 48ad 903c a389 bfbe 1967 643e
00000120: eb0a 61be 5cfc 133d 969e 9f3e 8373 c73e
00000130: 86a8 a8be 5bcb 273d bbb4 753e a08f b8be
00000140: 7e75 44be 768b 59be acde 89be 656e 8abe
00000150: 3a20 23be 6294 5fbe 5ec5 993e ebbc babd
00000160: 2779 833e 61a4 a73e 4c89 43be 52aa 09be
00000170: 1747 0cbe caa4 c2be cae3 043d 23a5 1abe
00000180: 43f5 a6bd 83c4 5e3d 617b 00bf 8c2b 2cbe
00000190: 0908 dc3d 21ff fdbe 8472 5a3e 392b 943b
000001a0: 7059 383e 9624 17bc 5fe6 83be f339 3e3f
000001b0: a1b0 743e 1cdc 9c3e 523b e43d 9435 b23e
000001c0: 49b2 193f 4cf4 303e e5c3 5b3e 7113 94be
000001d0: 7a14 8abe c400 64bf 03db 0d3f 2d0f 84be
000001e0: 4994 f2bb 975b 263e 9069 1b3e 35bf 183e
000001f0: 11cf 943e 4b81 12be 6de2 05be 2db8 18bd
00000200: 069c d93d 0c41 013f 8417 90bd 8942 fcbe
00000210: d9d9 15bf 2cbd 2ebd 63dc a5be adcd 543d
00000220: a99d c23d f851 0c3e 60f5 9a3e d9c1 073f
00000230: 43c0 833e dea0 193e 394a a73d c97e 55bd
00000240: 7664 4ebe 81e4 cbbd b7b5 aebd 66f3 f1bb
00000250: b371 c1be e390 d0be 16ff 153f 7a03 1d3f
00000260: 4e28 cebe 833a 5cbe cee1 9f3e 358e bd3e
00000270: bd88 89bd 23ad 253f 321d 1abf 113a 3d3e
00000280: 74d0 953e 7067 53be 9c98 4abf 5912 a33d
00000290: 97a8 b1bd cf23 923c 7ce0 d5be dc28 4bbd
000002a0: 816e 3b3d 39e1 da3e f89d 86be cd52 12be
000002b0: 33f2 5d3e 68ab 25be 0646 9abd 04fb fabd
000002c0: 4410 b4be ad4a 7cbd 5a60 ee3b 7620 81bc
000002d0: 270d 083e 3748 6cbe 3f18 f2bb 6de1 093f
000002e0: d95d a03d 85ae 263d ee3f b9be 87b4 453d
000002f0: 8691 53be 531d bebc 0816 afbc ed99 96bd
00000300: 20c2 98b9 fba1 7dbd aef4 e23d dba1 083e
00000310: dd3a 323e d7ba dabd 0a93 163e 20d3 243d
00000320: f196 83be 035c a53e 078d 46ba baa1 c3bd
00000330: 7c5f 9b3d a71e c6be 295e a23d 62fc a63d
00000340: 22cb 9b3d fe5e 16bf 8e68 ac3e e474 64be
00000350: 8983 3abe 3fda 963d 6d4d 833e 8415 f2bd
00000360: 78de 41be 153c 1cbd 973c 4f3e 7620 003d
00000370: cd55 9cbe 2393 b43d 9bc3 ddbd 29fa 003e
00000380: 32e2 65bd 93a7 d5bd 3d39 893d 5e4b e53d
00000390: 4a80 c73c 8724 c0bd 9549 7abe f2a1 693d
000003a0: b62f 953e 3b7c 983d cd7e a63d dfb0 a1ba
000003b0: 6e0a 16be c1a9 4ebe aba8 cebd f648 b7bd
000003c0: 2a2e a73e 81c3 c43e 616d e4bd ccda 0cbe
000003d0: cfaa 853e 9de9 23be b355 60be b6e7 173e
000003e0: 4d18 853e 16a9 c53e e0d1 ce3c 18a0 e83d
000003f0: 555a ecbc b18b b83d 745a cdbd d6e4 e63b
0.04323742 0.3902199 -0.3679724 -0.030010333 0.027066378 -0.11696858 -0.36907357 -0.13218419
-0.25848335 -0.6201097 1.0606341 0.06592971 0.17022279 -0.56831765 -0.6205714 0.12503909
-0.15060785 0.14993618 0.2328582 -0.25424623 -0.040816702 0.13805507 -1.2415445 -0.31361675
-0.07596113 -0.10396451 0.10612747 0.074665986 0.36796457 -0.27641672 0.31482762 0.20991065
-0.035901878 0.08443602 -0.2220321 -0.43956345 0.13624695 0.05382168 -0.37188584 0.22474653
0.09656036 -0.17916436 -0.05760687 0.18611991 -0.29285917 0.11547076 0.036399797 -0.16960129
-0.07931593 0.06861785 -0.04516392 0.051639177 -0.08540353 0.11513275 -0.062944114 -0.2476884
0.35962304 0.11440932 -0.17546773 0.18842477 0.16670574 0.14801268 -0.22287565 -0.026029285
0.08862698 0.13977845 -0.24397807 0.2152489 0.0095354915 0.017660752 -0.37409696 0.22304954
-0.21976821 0.03612934 0.3117568 0.38955316 -0.32941073 0.04096542 0.23994724 -0.36047077
-0.19185445 -0.21244606 -0.26927698 -0.2703735 -0.15930262 -0.21833947 0.30033392 -0.091180645
0.2567837 0.327426 -0.19095343 -0.13443878 -0.13698994 -0.3801635 0.0324438 -0.15102057
-0.08152249 0.054386627 -0.5018826 -0.16813487 0.1074372 -0.4960871 0.21332747 0.004521754
0.18002868 -0.009225031 -0.25761697 0.74307173 0.23895504 0.3063668 0.11144127 0.34806502
0.60037667 0.17280692 0.21461447 -0.28921083 -0.26968747 -0.8906367 0.5541231 -0.25792828
-0.007402931 0.16245876 0.15176988 0.1491669 0.2906423 -0.14307134 -0.13074656 -0.03728502
0.10625462 0.5048988 -0.07035735 -0.49269512 -0.58535534 -0.042660877 -0.32394704 0.05195396
0.095027275 0.13703144 0.3026533 0.53030163 0.25732622 0.15002772 0.08168454 -0.052122865
-0.2015551 -0.09955693 -0.08530753 -0.0073837517 -0.37782058 -0.4073554 0.58592355 0.6133343
-0.40265125 -0.21506695 0.31226963 0.37022558 -0.06715534 0.6471731 -0.602008 0.18479182
0.292606 -0.20644927 -0.79139113 0.07962484 -0.08674734 0.01783934 -0.4177283 -0.049599513
0.04575968 0.42749956 -0.26292396 -0.14289398 0.21674423 -0.16178668 -0.07532887 -0.12254909
-0.3516866 -0.061594654 0.0072746696 -0.015762549 0.13286267 -0.23074423 -0.0073881443 0.538596
0.078304 0.04069378 -0.36181587 0.048267867 -0.20660982 -0.023207342 -0.02137281 -0.07353578
-0.00029136334 -0.061922055 0.11081825 0.13342993 0.17405267 -0.10680168 0.14704528 0.040240407
-0.25701097 0.32296762 -0.00075741153 -0.09552331 0.075865716 -0.3869526 0.07928116 0.08153607
0.07607104 -0.58738697 0.3367352 -0.22310215 -0.18214239 0.07365846 0.2564501 -0.1182051
-0.18932521 -0.038143236 0.20237957 0.031280957 -0.3053421 0.088171266 -0.108283244 0.12595429
-0.05612392 -0.10432353 0.067003705 0.11196016 0.024353165 -0.09381967 -0.24442132 0.05703921
0.29137963 0.0744557 0.08129654 -0.0012336037 -0.14652416 -0.20181943 -0.100907646 -0.08949463
0.32652408 0.38430408 -0.11153675 -0.1375534 0.2610688 -0.16007085 -0.21907692 0.14834484
0.25995103 0.38605565 0.02524656 0.113586605 -0.028851667 0.09011019 -0.10027018 0.0070463223

layers.0.bias f4 [200]
00000000: 5c0b 6ebe 55a9 04bf 3800 cfbe d224 84bd
00000010: 1532 3fbe c6b4 f3be 20ff a9be 356d 1abe
00000020: 707d 22bf 9592 59be 207e 62be bf6f 5abe
00000030: b834 aabd fd33 82be 5b29 a7bc 8f01 bfbe
00000040: f647 06bf 1a19 58be 171c bdbe 0435 8dbd
00000050: 066b 91be 8f24 84bd 053b 4b3d 8056 78be
00000060: aef9 733e 30f5 c2be ba2c 5bbe f32a dabe
00000070: 7c85 3bbe ca6f 61be 1c1a 01bf 99a0 b7be
00000080: d7c9 e7be 4915 37be 8b25 9ebe 1fe3 f7bd
00000090: 6d36 c3be 3943 f8be 371e 8bbe f984 04bf
000000a0: 4d13 5d3e 5f35 57bc 1060 8ebe 642e 79be
000000b0: 3d26 e9bd b7c7 18bf e6bf e7be f614 1abe
000000c0: 0a8b 16bf 4c3a 01bf bca1 39be e523 993e
000000d0: 2ec9 03bf 2a92 1abf 319a 31be 4254 54be
000000e0: 73bb c9be b591 06be e645 e8be 7da4 f8be
000000f0: 1570 9dbe b251 03bf 1efc b0be 92a9 bebe
00000100: 0f5b bfbd fd46 7fbe 3eb8 fbbe 8d5c debe
00000110: 17bd 4fbc 50b9 19bf 5e16 1fbf 9342 1dbe
00000120: 81d3 c3be f493 e8bb 1e5a 60be 175a cebe
00000130: 758b 77bd f8f7 68be 64b3 a7bd e12b b7bd
00000140: fad3 e0be 9bf1 29be 45d8 ebbe 8fab acbe
00000150: a9f7 efbe c896 7fbe fc2e f3be 515f a1bd
00000160: 7a6e 5fbe 3596 efbe 03ed c4be a37f 15be
00000170: a89c 4ebe a044 703c 20ee bfbe 8fb0 07bf
00000180: d4a7 19bf a9da 8a3e ec1c 39be 6421 f9be
00000190: ffd6 6cbd 2d06 063f d277 bebe d906 17bf
000001a0: ac9e cebe 18f4 55be bca5 ecbe 4967 e8be
000001b0: de5f cdbe 3820 c6be 2d21 ae3d e987 1cbf
000001c0: 847d 0ebf 0d1b 86be f6d4 3fbe 5e60 f9bc
000001d0: c89b c2bd b7ce d6be 8dc3 25be d810 afbd
000001e0: cd8e 06bf 6028 09bf 233c 90be ac47 96be
000001f0: 70c7 31be c107 d8be adb9 7abe 4dd6 2ebe
00000200: 7069 eebe 9460 04be ff00 1bbd baec 88be
00000210: 88a0 d7be 41ce c0bd 4ee5 1d3e d353 b9be
00000220: 1ee8 03bf 4f5d ffbe 8aad 18bf fee3 0ebf
00000230: 0696 99bd 08e5 55be a852 b9bd daf6 8fbe
00000240: 816e c6be a7be a8be 5914 a5be 31eb a43e
00000250: 56bb 12bf 8ed0 40be 1cbb 62be 8290 30be
00000260: 72e3 d5be e145 24be 2569 54be 31ef 22bd
00000270: 0eac a7be 629f 80be 827e 9dbe 67ad 25bc
00000280: 3509 dfbe f8a2 b4be 2787 2fbf 64ab be3d
00000290: 6fe7 22bf 1a7d 98be 8a25 56bd 3337 9bbe
000002a0: 34a7 56be a898 d0be 7b15 8ebe 61f7 85be
000002b0: 850f 06bf a357 afbe 375f 1ebf 7996 c03d
000002c0: b7d4 c7bd fd01 37be d8f6 a0be 9dd1 f9bd
000002d0: 6b38 eebe ea55 0dbf eb8c cabd 5ffd a93a
000002e0: 2ab5 02bf 160a 25bf 9deb 9ebe 5eec e5be
000002f0: e06a e9bd 5f42 4cbe 574d 82be 705c d1be
00000300: b7f5 c9be a348 0abe 3832 09be 1aca 78be
00000310: 0700 b2bd 97f3 4fbd ae78 10bf 0186 9abe
-0.23246521 -0.5182088 -0.40429854 -0.064523354 -0.18671449 -0.47598857 -0.33202457 -0.15080722
-0.6347265 -0.21247323 -0.22118425 -0.2133169 -0.083108366 -0.2543029 -0.020405462 -0.37305877
-0.52453554 -0.21103325 -0.36935493 -0.068948776 -0.28401965 -0.064522855 0.049616832 -0.24251747
0.23825714 -0.38077688 -0.2140378 -0.42610893 -0.18312639 -0.220153 -0.50430465 -0.35864714
-0.4527118 -0.17879213 -0.30888018 -0.12103867 -0.3812746 -0.48488787 -0.2717149 -0.517654
0.21589394 -0.013135283 -0.27807665 -0.24334103 -0.113842465 -0.5967974 -0.45263594 -0.15047058
-0.58805907 -0.5047958 -0.18128103 0.29910198 -0.5147885 -0.6037928 -0.17343976 -0.20735267
-0.39400825 -0.1314152 -0.45365828 -0.48562995 -0.30749574 -0.5129653 -0.3456735 -0.37238747
-0.0934354 -0.24929424 -0.49164003 -0.43429986 -0.01267936 -0.6004839 -0.62143505 -0.15357427
-0.38247302 -0.0070977155 -0.21909377 -0.40303108 -0.06043573 -0.22750843 -0.08188513 -0.08943916
-0.43911725 -0.16596071 -0.46063438 -0.3372464 -0.46868637 -0.24959862 -0.47496784 -0.07879508
-0.21819487 -0.46794286 -0.38462076 -0.14599471 -0.20176947 0.014664799 -0.37486362 -0.5300378
-0.6002171 0.2711995 -0.18077439 -0.48658288 -0.057822224 0.52353173 -0.3720079 -0.58994824
-0.40355432 -0.20893896 -0.46220195 -0.453913 -0.40112203 -0.38696456 0.085024215 -0.6114488
-0.5566027 -0.26192513 -0.18733582 -0.03044146 -0.09502369 -0.41954586 -0.16187878 -0.085481346
-0.52561647 -0.5357723 -0.2817088 -0.29351556 -0.17361236 -0.42193416 -0.24484892 -0.17073937
-0.46564817 -0.12927467 -0.037842747 -0.26743108 -0.42114663 -0.0941434 0.15419504 -0.36196765
-0.5152606 -0.49875876 -0.596398 -0.5581664 -0.07499318 -0.2088815 -0.090489686 -0.2811802
-0.38756183 -0.32957956 -0.32242087 0.32210687 -0.573171 -0.18829557 -0.22141689 -0.17242625
-0.4177509 -0.16042282 -0.20743234 -0.039778892 -0.32748455 -0.251216 -0.3076058 -0.010112143
-0.43561712 -0.35280585 -0.685656 0.09310034 -0.6363439 -0.29782945 -0.052281894 -0.3031555
-0.2096222 -0.40741467 -0.27750763 -0.26165298 -0.5236743 -0.3424655 -0.61864036 0.094037004
-0.09757369 -0.17871852 -0.31438327 -0.12198184 -0.46527418 -0.5520922 -0.09890159 0.0012969187
-0.51057684 -0.64468515 -0.31039134 -0.44906896 -0.11397338 -0.19947194 -0.2544963 -0.40890837
-0.39445278 -0.13504271 -0.13398063 -0.24295846 -0.086914115 -0.050769415 -0.5643414 -0.30180362
