retail-case-study/models/deeper_best.pth (torch_old, 420688 bytes, 127 tensors)

embeds.0.weight f4 [3, 3]
-9.309339e-05 -3.4573386e-05 5.228756e-05 0.24778785 0.011322885 0.32966664 -0.6357101 -0.22540364
-0.63597506
00000000: 223b c3b8 e402 11b8 574f 5b38 19bc 7d3e
00000010: 9f83 393c 11ca a83e e6bd 22bf 36d0 66be
00000020: 43cf 22bf

embeds.1.weight f4 [4, 3]
-7.126512e-05 8.619038e-05 9.26984e-05 0.33858714 -0.49866208 -0.48605335 -1.8592008 1.8000925
1.4113945 0.91740996 -1.1032064 -0.68037784
00000000: 2c74 95b8 1cc1 b438 1367 c238 4b5b ad3e
00000010: a350 ffbe fcdb f8be 4bfa edbf 6e69 e63f
00000020: 93a8 b43f 61db 6a3f de35 8dbf 3e2d 2ebf

embeds.2.weight f4 [82, 19]
2.9901701e-05 -0.00013856315 6.560669e-06 -2.3939616e-05 -3.58652e-05 -8.967737e-05 4.733344e-05 -6.030709e-05
-2.8014301e-05 5.4081214e-05 2.645456e-05 -6.825031e-05 -0.00012450141 -4.479238e-05 -0.000107524735 6.9556754e-06
-4.9109653e-06 -4.201746e-06 3.497676e-05 0.3189333 -0.015655607 -0.46987152 -1.1654991 -1.6303535
1.0558591 -1.4164487 -1.0351948 0.17081206 -1.3210155 0.5490105 -0.12643854 1.0336981
-0.2951658 0.2785511 -2.5448627 1.0692952 -1.1721618 -1.2981826 1.9670008 0.69264317
-0.8331228 -1.1948634 -1.6744344 1.0288899 -1.5249283 0.8985264 -0.063842975 1.5403074
1.9841132 -0.6382728 1.6848586 0.946077 0.13057372 -0.921648 1.5827526 -1.8434422
0.29538867 0.25553638 -2.8521695 -1.0892771 -1.0737346 -0.07081152 -0.23089728 0.6420604
-0.7431298 -0.7226698 -0.66431725 1.3415152 2.1302586 1.1295722 -1.0837975 0.071832515
-0.35382366 0.41614813 -0.8471178 -0.732772 0.9411179 -0.98009306 -0.22295153 -0.19567415
-1.657139 1.5127677 -1.3379772 -0.28701 0.33115825 0.33121437 0.12983918 -1.2458873
1.3631295 0.38186362 -0.07204783 -1.0764334 0.590171 -0.58545744 0.27596107 0.3108717
-0.48388773 -1.4584469 -2.809594 -0.4427598 0.07461663 0.50513935 0.15303925 -1.925335
-0.34666806 1.5041043 0.2648574 0.2634425 -0.6954038 2.0764546 1.1219484 0.5178498
0.6336969 0.44577584 -0.49932453 -0.31785673 0.0731864 -1.091069 0.21798591 -0.4510811
-1.0070484 0.3974081 -0.21046732 0.30013824 -0.44313595 1.5208985 0.566067 -1.4808241
2.0843687 -2.0756602 -0.287325 0.8823791 -1.1823841 0.42751023 -0.35419446 -0.3135336
-2.8736594 -1.0931088 0.74829364 1.3735542 0.10485015 -1.042734 0.97362196 2.6558173
0.108131565 0.75539243 -0.42619017 2.0106945 2.5368955 1.2434697 0.2704018 -0.1285291
0.71303016 -0.4294046 -0.939023 -1.4178855 -2.4383435 1.8512434 -1.0617824 -0.44935626
0.28760925 0.6406926 1.0643911 -1.4229871 0.80288965 0.7114599 0.36573195 -1.3502861
1.3427191 -1.7295941 -0.5303451 0.96810776 -1.3764209 -0.416953 -1.5315003 0.14558363
-0.5222868 -0.21554182 1.095231 -3.1185377 1.4705607 -0.36967328 0.6519932 2.0590653
0.9299475 2.425644 -0.7151031 0.34486425 0.64098424 2.1292665 0.47642297 -1.482851
-1.6378868 -1.342582 -0.03706495 -0.24938132 0.0059480686 0.19925258 -1.8177991 0.110557705
1.8348033 0.75148433 0.9453968 -0.08865953 1.4040751 0.7042251 0.77372456 0.718383
1.2448143 -0.20796719 -1.0766284 -1.0481894 -2.3255975 0.040785428 0.18537629 1.0517187
-0.6590627 -1.8343806 -1.1017095 1.6360052 0.71393913 1.0639393 -0.4890499 1.1945782
1.0839993 0.7823876 -0.5458073 -0.24991594 -0.78237575 -1.0670304 -0.22243936 -0.30223754
0.7723803 -0.64236695 -0.158749 -1.0325887 -2.267162 -0.38883066 -1.6201392 2.4523582
-0.27884033 -1.5952251 3.6135085 -1.8999375 -0.6742223 0.8667748 -1.4654096 1.0719457
-0.111489065 -1.8685644 -0.92253906 -1.8886315 1.3412054 -1.1488832 0.03744763 0.27232432
00000000: 6ad5 fa37 434b 11b9 b823 dc36 efd1 c8b7
00000010: f76d 16b8 2c11 bcb8 e587 4638 3ff2 7cb8
00000020: 4100 ebb7 43d5 6238 bcea dd37 9b21 8fb8
00000030: 988c 02b9 74df 3bb8 e77e e1b8 cc64 e936
00000040: dfc8 a4b6 b9fc 8cb6 03b4 1238 3a4b a33e
00000050: 3040 80bc 0093 f0be 132f 95bf 6caf d0bf
00000060: 6426 873f 314e b5bf 4381 84bf 5be9 2e3e
00000070: 0917 a9bf f48b 0c3f 1b79 01be 3850 843f
00000080: f91f 97be 409e 8e3e 08df 22c0 aade 883f
00000090: 6609 96bf d92a a6bf afc6 fb3f 1051 313f
000000a0: 8947 55bf 49f1 98bf de53 d6bf aab2 833f
000000b0: da30 c3bf d305 663f 1bc0 82bd cb28 c53f
000000c0: 6cf7 fd3f d965 23bf 72a9 d73f 1a32 723f
000000d0: 1eb5 053e 20f1 6bbf a397 ca3f eaf5 ebbf
000000e0: 2f3d 973e aad5 823e f289 36c0 6f6d 8bbf
000000f0: 2370 89bf a105 91bd 5670 6cbe 125e 243f
00000100: c13d 3ebf e300 39bf b210 2abf c5b6 ab3f
00000110: 2856 0840 d295 903f e0b9 8abf ed1c 933d
00000120: 6028 b5be 5e11 d53e b6dc 58bf f296 3bbf
00000130: 1aed 703f 61e7 7abf 684d 64be ce5e 48be
00000140: 211d d4bf 5fa2 c13f d642 abbf faf2 92be
00000150: 938d a93e ee94 a93e 90f4 043e 3c79 9fbf
00000160: 077b ae3f a183 c33e d08d 93bd 92c8 89bf
00000170: 7215 173f 8ae0 15bf c54a 8d3e 932a 9f3e
00000180: 22c0 f7be 63ae babf 63d0 33c0 6ab1 e2be
00000190: 9bd0 983d d050 013f 52b6 1c3e 6171 f6bf
000001a0: 7a7e b1be 7d86 c03f 649b 873e efe1 863e
000001b0: fc05 32bf a2e4 0440 019c 8f3f ce91 043f
000001c0: f639 223f bb3c e43e 77a7 ffbe 1ebe a2be
000001d0: c0e2 953d 26a8 8bbf b337 5f3e 1af4 e6be
000001e0: f6e6 80bf 1379 cb3e bf84 57be b8ab 993e
000001f0: b7e2 e2be cdac c23f c4e9 103f a58b bdbf
00000200: 4c66 0540 9ed7 04c0 431c 93be 99e3 613f
00000210: 5d58 97bf 9fe2 da3e fa58 b5be 7a87 a0be
00000220: 09ea 37c0 fdea 8bbf 2c90 3f3f a0d0 af3f
00000230: adbb d63d 4f78 85bf 4a3f 793f e9f8 2940
00000240: 1574 dd3d 6661 413f 9935 dabe 38af 0040
00000250: 7f5c 2240 042a 9f3f 1b72 8a3e 229d 03be
00000260: 2589 363f ebda dbbe d063 70bf 467d b5bf
00000270: d20d 1cc0 8bf5 ec3f 7ce8 87bf 0612 e6be
00000280: 8541 933e 6e04 243f f83d 883f 7124 b6bf
00000290: 2d8a 4d3f 3c22 363f 3841 bb3e 2dd6 acbf
000002a0: 38de ab3f 5763 ddbf b2c4 07bf e9d5 773f
000002b0: 8f2e b0bf dd7a d5be 3408 c4bf e013 153e
000002c0: 96b4 05bf ffb6 5cbe 8830 8c3f 1f96 47c0
000002d0: 553b bc3f d145 bdbe 07e9 263f bac7 0340
000002e0: 0a11 6e3f c03d 1b40 ff10 37bf 0c92 b03e
000002f0: 8b17 243f e745 0840 b6ed f33e 10ce bdbf
00000300: 46a6 d1bf bad9 abbf 6bd1 17bd d15d 7fbe
00000310: 04e8 c23b de08 4c3e a4ad e8bf 146c e23d
00000320: d6da ea3f 4761 403f 8605 723f 2193 b5bd
00000330: bcb8 b33f 1948 343f d012 463f f3e7 373f
00000340: 1356 9f3f 5af5 54be f6ce 89bf 122b 86bf
00000350: 97d6 14c0 9f0e 273d 48d3 3d3e b89e 863f
00000360: 55b8 28bf fccc eabf d104 8dbf 9e68 d13f
00000370: b7c4 363f 2a2f 883f c064 fabe f0e7 983f
00000380: 7dc0 8a3f 8e4a 483f 07ba 0bbf f7e9 7fbe
00000390: c749 48bf 7494 88bf 25c7 63be e1be 9abe
000003a0: b7ba 453f 2972 24bf 198f 22be de2b 84bf
000003b0: 2f19 11c0 d014 c7be b960 cfbf 70f3 1c40
000003c0: 29c4 8ebe 5630 ccbf b943 6740 2731 f3bf
000003d0: d599 2cbf f4e4 5d3f 8b92 bbbf 8435 893f
000003e0: 6154 e4bd 1e2d efbf 852b 6cbf adbe f1bf
000003f0: 9eac ab3f 9b0e 93bf b062 193d 186e 8b3e

embeds.3.weight f4 [4, 3]
5.2799107e-05 -2.3424793e-05 1.8968161e-05 -3.0409746 3.2663124 3.4927049 0.025822641 -0.05368236
-0.033647247 -0.2238891 0.1460525 0.046210762
00000000: 9c74 5d38 5c80 c4b7 d11d 9f37 549f 42c0
00000010: 430b 5140 7a88 5f40 018a d33c 09e2 5bbd
00000020: b2d1 09bd 2f43 65be c98e 153e 7f47 3d3d

embeds.4.weight f4 [13, 7]
-2.0143439e-06 7.3580326e-05 -8.283588e-05 0.00010036047 0.00012393644 -1.4047916e-05 -7.2221433e-06 -0.33411157
-0.62313133 0.06354382 0.5454276 0.11282865 1.1602592 -1.0644981 -0.6958397 -0.26887304
-0.0035744873 0.19690324 -0.41193092 -0.8515505 -0.26248336 -0.86946505 -1.2514337 -0.38410747
0.2752189 0.7777397 0.7623985 -0.48065677 0.11297336 0.563337 1.1742283 0.16643368
0.32640687 0.6071984 0.6444984 0.40535614 0.14129841 -0.31099913 -0.09674594 -0.3647242
0.10867053 0.0766056 0.82023215 0.8094967 0.67472833 -0.6412174 0.5119032 -0.6887757
0.4062141 -0.01418991 0.524275 0.2237763 0.3919814 -0.09057079 -0.38689598 0.8694591
0.6979002 0.57175416 0.54856783 0.18648444 -0.62061614 -0.601618 1.4527215 -0.22353545
-0.60088795 -0.19050656 -0.2563716 0.58144873 0.3405094 -0.8471434 4.117971e-05 -0.660933
-0.052888524 -0.66927 -0.05162626 0.4936732 0.38027835 -0.30617207 -0.3750553 -0.44201285
-0.62356216 0.3733934 0.30260932 -0.6370396 -0.4246449 -0.91165954 -0.69123894 -0.6154992
-0.54561204 0.13831885 -0.60319996
00000000: 2a2e 07b6 234f 9a38 2db8 adb8 9e78 d238
00000010: eff4 0139 57af 6bb7 bd55 f2b6 ac10 abbe
00000020: 8985 1fbf 4323 823d 25a1 0b3f b512 e73d
00000030: 6083 943f 7941 88bf 8d22 32bf baa9 89be
00000040: f241 6abb 01a1 493e 9ce8 d2be 37ff 59bf
00000050: 3864 86be 4395 5ebf fb2e a0bf bca9 c4be
00000060: 7ee9 8c3e f319 473f 8c2c 433f a518 f6be
00000070: 945e e73d db36 103f 1d4d 963f 976d 2a3e
00000080: cd1e a73e 5b71 1b3f d9fd 243f d78a cf3e
00000090: 88b0 103e 473b 9fbe bc22 c6bd 21bd babe
000000a0: a88e de3d 66e3 9c3d bcfa 513f 2d3b 4f3f
000000b0: ffba 2c3f d326 24bf 170c 033f 9b53 30bf
000000c0: 4bfb cf3e cc7c 68bc e336 063f 9d25 653e
000000d0: c9b1 c83e 2e7d b9bd 3b17 c6be df94 5e3f
000000e0: 96a9 323f 7b5e 123f f16e 0c3f c7f5 3e3e
000000f0: b3e0 1ebf a303 1abf c7f2 b93f 7ae6 64be
00000100: cbd3 19bf 2714 43be 2343 83be d3d9 143f
00000110: 4057 ae3e 64de 58bf 60b8 2c38 e832 29bf
00000120: a3a1 58bd 4755 2bbf 0f76 53bd bcc2 fc3e
00000130: d8b3 c23e 96c2 9cbe 4007 c0be 824f e2be
00000140: c5a1 1fbf 6b2d bf3e 9cef 9a3e 0715 23bf
00000150: 0e6b d9be 8562 69bf 09f5 30bf 5b91 1dbf
00000160: 3bad 0bbf 75a3 0d3e 506b 1abf

embeds.5.weight f4 [53, 15]
1.940245e-05 4.0324754e-05 -9.5932555e-05 -1.6284494e-05 -2.7094016e-05 -6.463366e-05 0.0001209829 -3.7475605e-05
-2.7806464e-05 -5.0499493e-05 2.2320055e-05 -1.6965685e-05 2.7651568e-06 -6.964822e-06 1.2651532e-05 0.35227796
0.41129017 0.12355988 0.51983553 -0.27649978 -0.25949654 0.13152832 -0.093786456 0.17978358
-0.17039315 -0.5375999 -0.651653 -0.32956448 0.03452465 -0.11707861 -0.6612766 -0.6347714
0.8874066 0.03072464 0.7028589 -0.044656597 -0.38405976 -0.2747178 0.035903715 0.37752265
-0.8409625 0.38834667 0.7001769 0.17641766 0.6005876 0.3707584 -0.7581005 -1.3316345
0.1173158 1.4255012 0.41457444 0.20584694 0.108403444 -0.2875179 0.40432626 -0.9048073
-0.89322174 0.10209012 -0.16856435 0.40660074 0.032943532 -0.3800813 -0.25384542 0.80507183
0.725599 0.68300647 -0.35645282 -0.35898992 1.7416245 0.21891563 -0.21083552 -0.5897914
0.5545994 -0.23721284 0.69159406 -0.388983 0.037001878 -0.25532022 0.4722658 0.47257707
0.55592006 0.051148117 -0.20297493 -1.3188746 -0.07919712 -0.14229922 0.20999926 0.24828143
0.24118605 0.110443674 0.4892521 -0.06947305 0.47384104 -0.39341074 -0.50098634 -0.40101022
-0.18543531 0.20577157 0.86026275 0.28066832 -0.38736856 0.19228525 0.34647956 0.2317736
0.5644514 0.7703039 0.9210764 0.6213512 -0.8279061 -0.32740566 0.8079778 -0.20429124
0.37856477 -0.99515086 0.8235116 0.8143459 0.19250222 -0.20913996 -0.71264523 1.3931799
-0.2621681 -0.78910583 -0.9721511 2.3942025 -1.289783 0.35085556 -1.0942007 -0.79693663
-0.42821476 0.19558136 0.3016368 -1.4843282 0.78146386 0.28858748 -0.077663206 0.6814946
0.90187633 0.064128675 1.3088956 -0.040955964 -0.8219256 0.107955486 -0.11500247 -0.45449138
-0.6634769 1.4025276 -0.19112143 0.7198945 0.29282185 -0.2386567 0.45519698 0.15147589
-0.525232 -1.1483759 0.10256874 -0.20594431 1.1829437 0.7427777 0.41290754 -0.91459227
-0.49113607 -0.028302005 -0.35726026 -1.050334 0.38069662 1.3551685 0.28146756 -0.11498808
1.4027432 -0.8089102 0.5254287 -0.5408727 0.14952032 -1.3573645 -0.3449697 0.02138746
-0.65703607 0.53520197 -0.6943205 -0.40468058 -0.36787254 0.43260044 0.42871016 -0.2690351
0.16186045 -0.12606949 -0.81279504 0.18200685 -0.49260598 -0.4491932 0.4054501 0.10021981
0.32743853 0.2380142 -0.25215167 -0.134913 -0.106238574 -0.024624316 -0.64340186 -0.13524818
0.0039703324 0.014235228 0.14676042 0.58629733 -0.19703536 -0.1690763 0.25170064 -0.057714522
-0.20127852 0.33933607 0.7154602 -0.16954656 -0.17264135 0.67166966 -0.19200784 1.1921602
-0.2540034 0.7746271 -1.6260059 -0.5468915 0.5461452 1.0658581 0.91714066 0.46816957
-0.6037744 -0.30990437 0.015390321 -0.16142282 0.5143102 0.18774049 0.44687694 -0.31009793
0.83093137 -0.26795006 0.019874875 0.41531026 1.2566359 0.058142774 0.062326197 0.09515433
1.1372933 0.06717048 0.010942269 -0.42088312 0.053903013 -0.12946889 0.36409497 -0.128926
-0.09450558 -0.015986932 0.1714328 0.12112827 -0.37010404 -0.1371824 0.6123556 -0.31085977
00000000: 72c2 a237 6022 2938 662f c9b8 af9a 88b7
00000010: f547 e3b7 ef8b 87b8 33b8 fd38 202f 1db8
00000020: ed41 e9b7 6bcf 53b8 f43b bb37 8851 8eb7
00000030: 0891 3936 5eb3 e9b6 eb41 5437 c75d b43e
00000040: a094 d23e f60c fd3d f113 053f 6191 8dbe
00000050: bbdc 84be 5caf 063e 1d13 c0bd 3019 383e
00000060: 8b7b 2ebe 26a0 09bf bbd2 26bf adbc a8be
00000070: b869 0d3d e9c6 efbd 6c49 29bf 6180 22bf
00000080: 142d 633f 3db2 fb3c 90ee 333f d6e9 36bd
00000090: 7ba3 c4be d0a7 8cbe c60f 133d a64a c13e
000000a0: 5249 57bf 60d5 c63e cb3e 333f d5a6 343e
000000b0: 1cc0 193f 0cd4 bd3e e012 42bf 0073 aabf
000000c0: 4443 f03d d376 b63f 1a43 d43e 8ac9 523e
000000d0: a002 de3d 8c35 93be da03 cf3e 74a1 67bf
000000e0: 2eaa 64bf a014 d13d 229c 2cbe f92d d03e
000000f0: ccef 063d 049a c2be 07f8 81be 3019 4e3f
00000100: dbc0 393f 83d9 2e3f fc80 b6be 87cd b7be
00000110: 8ded de3f 6b2b 603e 44e5 57be 92fc 16bf
00000120: 3afa 0d3f ece7 72be 4f0c 313f c828 c7be
00000130: 488f 173d 55b9 82be d3cc f13e 9ff5 f13e
00000140: c750 0e3f b080 513d a9d8 4fbe e2d0 a8bf
00000150: 1a32 a2bd e3b6 11be 0c0a 573e 7d3d 7e3e
00000160: 7af9 763e 4b30 e23d 407f fa3e e347 8ebd
00000170: 4b9b f23e 226d c9be a440 00bf 3651 cdbe
00000180: c1e2 3dbe c8b5 523e 2e3a 5c3f c2b3 8f3e
00000190: 2c55 c6be 6de6 443e c565 b13e 0f56 6d3e
000001a0: e37f 103f a332 453f aacb 6b3f df10 1f3f
000001b0: a7f1 53bf b7a1 a7be a2d7 4e3f b931 51be
000001c0: 3ed3 c13e 35c2 7ebf a8d1 523f f978 503f
000001d0: 4d1f 453e c928 56be eb6f 36bf b853 b23f
000001e0: e63a 86be d702 4abf e5de 78bf 9d3a 1940
000001f0: 9c17 a5bf 57a3 b33e c50e 8cbf 0a04 4cbf
00000200: f73e dbbe 7b46 483e 2370 9a3e 77fe bdbf
00000210: 040e 483f bdc1 933e e30d 9fbd 6e76 2e3f
00000220: 5ee1 663f e555 833d e489 a73f 71c1 27bd
00000230: b769 52bf c417 dd3d 6a86 ebbd 18b3 e8be
00000240: 9fd9 29bf 0686 b33f 56b5 43be 024b 383f
00000250: bfec 953e 6c62 74be 940f e93e 7f1c 1b3e
00000260: 9b75 06bf fbfd 92bf 8f0f d23d 11e3 52be
00000270: b36a 973f ae26 3e3f 9e68 d33e b822 6abf
00000280: 3076 fbbe 9bd9 e7bc d1ea b6be 5871 86bf
00000290: abea c23e 2976 ad3f 841c 903e df7e ebbd
000002a0: 178d b33f bd14 4fbf 7f82 063f a276 0abf
000002b0: db1b 193e 1fbe adbf de9f b0be c134 af3c
000002c0: 8433 28bf ff02 093f fdbe 31bf 4b32 cfbe
000002d0: ca59 bcbe ce7d dd3e e67f db3e f8be 89be
000002e0: bfbe 253e 5c18 01be 5613 50bf 0160 3a3e
000002f0: da36 fcbe a7fc e5be 2897 cf3e 0b40 cd3d
00000300: 06a6 a73e ffb9 733e 061a 81be a226 0abe
00000310: 9c93 d9bd efb8 c9bc fcb5 24bf 807e 0abe
00000320: 9019 823b e03a 693c 5d48 163e 9517 163f
00000330: a3c3 49be 5622 2dbe e8de 803e 1066 6cbd
00000340: f51b 4ebe 75bd ad3e 6628 373f 9d9d 2dbe
00000350: e5c8 30be 8bf2 2b3f b49d 44be b598 983f
00000360: bc0c 82be f64d 463f f620 d0bf 1501 0cbf
00000370: 2cd0 0b3f 0a6e 883f bbc9 6a3f ecb3 ef3e
00000380: f690 1abf c9ab 9ebe af27 7c3c 064c 25be
00000390: d5a9 033f 0b3f 403e 0ecd e43e 28c5 9ebe
000003a0: ebb7 543f c030 89be a2d0 a23c 8ca3 d43e
000003b0: 72d9 a03f 1e27 6e3d c149 7f3d 46e0 c23d
000003c0: d492 913f ad90 893d 3447 333c fe7d d7be
000003d0: 68c9 5c3d 7e93 04be a86a ba3e 2d05 04be
000003e0: 248c c1bd 07f7 82bc 148c 2f3e 1912 f83d
000003f0: 477e bdbe 8b79 0cbe 56c3 1c3f 0329 9fbe

embeds.6.weight f4 [32, 11]
4.1643845e-05 7.354746e-05 -5.829329e-05 2.9983896e-05 8.398463e-05 -6.888456e-05 2.049047e-05 -2.8227638e-05
-9.476587e-06 0.00012817078 -7.492191e-05 -0.32345062 0.18870384 -1.1289829 0.16580066 0.16189854
1.3129294 0.29188323 -0.14621313 0.45239773 0.7190552 -0.064026885 -0.675805 0.0151576735
-0.04202242 -0.0021586427 0.22518209 0.73258114 0.66305745 -0.63676727 -0.057797737 -0.67600644
0.65931183 -0.22049811 0.059512172 -1.3859637 0.10138293 -0.23732796 -0.5189374 0.31001163
-0.20247187 0.23332188 0.7869344 -0.1172204 -0.5689195 -1.1875346 -0.40767732 0.06253232
-0.28756866 0.7369641 -0.086840086 -0.00844522 0.46936512 -0.36375865 0.118111625 1.0846485
0.75008124 0.32670394 0.39936242 -0.349379 -1.1977845 -1.0519712 0.22687347 1.0835656
0.76251084 -0.42684695 -0.80601686 -0.26933104 -0.2822201 -1.1408467 -0.23396792 -0.2680923
0.09287318 0.4438091 0.55926573 0.4003127 -0.7083229 0.076750495 0.43463272 0.09027576
0.18107204 -0.29097357 -0.17156787 -0.61134 0.7739618 1.1496075 -0.31177 0.0083321715
0.51863253 0.056111794 0.08778931 -0.09152387 -0.60672045 -0.43733007 -0.03522768 -0.12098232
0.38248459 0.3859948 -0.67643976 0.68934435 1.3367263 -0.42915127 0.8225751 -0.8385617
-1.1723623 0.19778685 0.5655282 -0.27364156 0.31540254 -0.9173741 0.098654956 -0.40131453
-0.2367896 -0.5946563 0.6402991 0.45161918 -0.524682 -1.2832278 -0.48622766 -0.455575
0.5437587 -0.6756207 0.26716268 -0.88897514 0.42773935 0.4561447 0.550114 0.17565794
-0.71767294 -0.48550045 -0.33643004 0.3701421 0.7751973 -1.0113468 -0.6868897 -0.18832335
0.3270739 0.113200255 -0.2395275 -0.5425375 -1.0298781 -0.74398607 0.30552468 0.6690918
0.36700624 0.0058822497 -0.4997792 0.39000705 -0.625182 -0.1313159 0.6868983 -0.26718
-0.032159444 0.36901957 -0.026632665 0.52670324 0.35406685 -0.031085156 -0.50308776 -0.096317396
0.48275203 0.32438338 0.5687652 0.14088146 -0.41232333 0.02259304 -0.35709807 0.47185606
0.5729722 -0.47153497 -0.60084677 0.25308084 0.47928122 -0.24913268 0.29294908 -0.7848881
0.9502701 0.051012512 -0.51655084 -0.29436624 -1.0259137 -0.13998796 -0.23369582 0.46429175
-0.20702252 -0.23912981 0.8231201 -0.06659632 0.4287036 0.38884354 0.5446091 0.099868335
0.023775822 0.04669783 -0.012867108 0.0792175 -0.662873 0.15692097 0.30748147 -0.38351387
0.18768302 -0.038792826 0.062576495 0.12632063 0.13939026 -0.86211985 -0.5269485 -0.65463966
0.7495547 -0.14045826 0.14842393 -0.75653416 0.16339593 -0.4173467 0.50344807 -0.19224988
-0.115558974 -0.443082 0.45436668 0.6202168 -0.29433918 -0.5704494 -0.15298654 -0.1327509
0.6102672 0.45542684 0.6864723 -0.119146846 -0.6408309 0.49108127 -0.18856207 -0.70605487
0.11625032 -0.1261087 -0.004982111 0.16038804 -0.033145346 0.45781794 -0.15956952 0.65805787
0.4771857 0.3278316 -0.28165078 -0.8934258 -0.17721754 0.101463564 -0.16039948 0.55617845
-0.14032497 -0.3836909 -0.43374962 -1.2222373 0.4269474 -0.06527945 0.37483355 -0.28843942
00000000: bdaa 2e38 7e3d 9a38 f27f 74b8 ed85 fb37
00000010: e820 b038 1e76 90b8 f3e2 ab37 64ca ecb7
00000020: a2fd 1eb7 9565 0639 651f 9db8 529b a5be
00000030: 943b 413e 8382 90bf a6c7 293e bbc8 253e
00000040: 120e a83f b871 953e e5b8 15be ada0 e73e
00000050: 0014 383f 8720 83bd 8e01 2dbf e457 783c
00000060: b31f 2cbd 0478 0dbb 2296 663e 708a 3b3f
00000070: 22be 293f 2e03 23bf 52bd 6cbd c20e 2dbf
00000080: a9c8 283f 42ca 61be 09c3 733d 4267 b1bf
00000090: dba1 cf3d 1a06 73be 15d9 04bf d8b9 9e3e
000000a0: c954 4fbe eeeb 6e3e 8874 493f 4011 f0bd
000000b0: b5a4 11bf 2201 98bf 15bb d0be f210 803d
000000c0: 333c 93be aea9 3c3f 37d9 b1bd d25d 0abc
000000d0: a050 f03e 933e babe 82e4 f13d c3d5 8a3f
000000e0: 5305 403f bd45 a73e 3b79 cc3e cee1 b2be
000000f0: 0151 99bf fea6 86bf 8551 683e 47b2 8a3f
00000100: e933 433f af8b dabe 1f57 4ebf c2e5 89be
00000110: 277f 90be 4407 92bf 4995 6fbe 6543 89be
00000120: 4b34 be3d f23a e33e 0a2c 0f3f c9f5 cc3e
00000130: a654 35bf 5d2f 9d3d 2e88 de3e 7fe2 b83d
00000140: f36a 393e 7dfa 94be 7daf 2fbe c780 1cbf
00000150: 5c22 463f 5726 933f 51a0 9fbe a983 083c
00000160: 1ac5 043f 7bd5 653d e2ca b33d de70 bbbd
00000170: 0852 1bbf bae9 dfbe e64a 10bd 94c5 f7bd
00000180: 05d5 c33e 1ca1 c53e 282b 2dbf df78 303f
00000190: d919 ab3f b7b9 dbbe 4894 523f fbab 56bf
000001a0: f80f 96bf a388 4a3e 75c6 103f bf1a 8cbe
000001b0: 717c a13e 07d9 6abf 9c0b ca3d 1979 cdbe
000001c0: f978 72be 653b 18bf a4ea 233f a13a e73e
000001d0: 8f51 06bf cf40 a4bf d5f2 f8be 2041 e9be
000001e0: c533 0b3f 7af5 2cbf 8cc9 883e e093 63bf
000001f0: a700 db3e cc8b e93e 45d4 0c3f addf 333e
00000200: 6ab9 37bf 8493 f8be 8f40 acbe 4483 bd3e
00000210: 5573 463f d073 81bf 01d8 2fbf d6d7 40be
00000220: 3b76 a73e 89d5 e73d b246 75be bde3 0abf
00000230: 0cd3 83bf df75 3ebf bb6d 9c3e 9a49 2b3f
00000240: 3ee8 bb3e e3bf c03b 0fe3 ffbe 01af c73e
00000250: ed0b 20bf ad77 06be 91d8 2f3f d1cb 88be
00000260: 9fb9 03bd 22f0 bc3e bf2c dabc 06d6 063f
00000270: 4048 b53e 4ca6 febc 5cca 00bf 0e42 c5bd
00000280: 462b f73e 9415 a63e 999a 113f 3b43 103e
00000290: 0b1c d3be 0a15 b93c 8fd5 b6be 1e97 f13e
000002a0: 4eae 123f 086d f1be 18d1 19bf d093 813e
000002b0: 5964 f53e a31c 7fbe 6cfd 953e 6dee 48bf
000002c0: e744 733f 7ff2 503d ad3c 04bf 2cb7 96be
000002d0: 2451 83bf 0159 0fbe f54d 6fbe a6b7 ed3e
000002e0: b6fd 53be 72de 74be 00b8 523f a763 88bd
000002f0: 0a7f db3e 8016 c73e 816b 0b3f c587 cc3d
00000300: 83c5 c23c 3946 3f3d 90d0 52bc c93c a23d
00000310: 0cb2 29bf e4af 203e 366e 9d3e ee5b c4be
00000320: fa2f 403e 3ae5 1ebd 1b28 803d 325a 013e
00000330: 52bc 0e3e e3b3 5cbf 19e6 06bf 7796 27bf
00000340: d1e2 3f3f 4ad4 0fbe 71fc 173e 39ac 41bf
00000350: 4351 273e 77ae d5be f9e1 003f 27dd 44be
00000360: 2faa ecbd a5db e2be c0a2 e83e 87c6 1e3f
00000370: a0b3 96be f908 12bf 81a8 1cbe daef 07be
00000380: 793a 1c3f b52d e93e a6bc 2f3f 4303 f4bd
00000390: 7e0d 24bf 016f fb3e 6a16 41be 03c0 34bf
000003a0: a614 ee3d a422 01be fa40 a3bb c33c 243e
000003b0: 6ac3 07bd 1d67 ea3e 3166 23be 7b76 283f
000003c0: af51 f43e 8bd9 a73e 8834 90be 8eb7 64bf
000003d0: 8478 35be 21cc cf3d c33f 24be b661 0e3f
000003e0: 59b1 0fbe 2273 c4be 6e14 debe 4672 9cbf
000003f0: da98 da3e 3bb1 85bd 2fea bf3e 55ae 93be

embeds.7.weight f4 [8, 5]
-3.360405e-05 3.0354722e-05 5.2227067e-05 -5.4813303e-05 7.312648e-05 -0.47492433 0.10834679 0.27028242
-0.22663295 -0.8239861 -0.20647529 -0.12506372 0.8049148 -0.46760938 -0.4514314 0.074545585
0.102216676 -0.41823134 0.0066137672 -0.76545435 -0.16905206 0.7701515 0.20950224 -0.03611707
0.1836571 -0.08161894 -0.106810175 0.55934083 -0.294291 0.24968822 -0.33420002 0.49637365
0.6294574 0.18624961 -0.9957777 0.28714058 -0.4185084 -0.41868475 0.018576654 0.0483119
00000000: 13f2 0cb8 45a2 fe37 630e 5b38 56e7 65b8
00000010: 7b5b 9938 4829 f3be ece4 dd3d 7562 8a3e
00000020: 7812 68be c1f0 52bf 426e 53be b410 00be
00000030: e50e 4e3f 7f6a efbe 0422 e7be 5bab 983d
00000040: fa56 d13d 6b22 d6be 4db8 d83b d1f4 43bf
00000050: fc1b 2dbe a628 453f c187 563e 7eef 13bd
00000060: 9b10 3c3e d527 a7bd 4bbf dabd f630 0f3f
00000070: 4fad 96be 45ae 7f3e 441c abbe b024 fe3e
00000080: 1f24 213f 38b8 3e3e 4aeb 7ebf 1704 933e
00000090: bc46 d6be d95d d6be 112e 983c b3e2 453d

embeds.8.weight f4 [3, 3]
4.1304625e-05 -6.1736732e-06 8.0092184e-05 0.01758188 -0.29895902 0.09556597 -0.026263371 0.29790494
0.48548594
00000000: 813e 2d38 7327 cfb6 2af7 a738 e007 903c
00000010: 2811 99be 17b8 c33d 4826 d7bc ff86 983e
00000020: 9d91 f83e

embeds.9.weight f4 [3, 3]
0.00012761282 8.0474274e-05 -1.9386642e-05 0.038435467 -0.079442404 0.14326207 -0.028725464 0.8628421
1.0124726
00000000: cecf 0539 4cc4 a838 7fa0 a2b7 826e 1d3d
00000010: b3b2 a2bd 4bb3 123e aa51 ebbc 38e3 5c3f
00000020: b498 813f

embeds.10.weight f4 [3, 3]
4.257373e-05 3.4746223e-05 3.997027e-06 -0.093812406 0.019433597 -0.15842246 -0.37681866 -0.25208202
0.02903135
00000000: 3291 3238 79bc 1138 331e 8636 b820 c0bd
00000010: 3533 9f3c 7f39 22be 60ee c0be e510 81be
00000020: 27d3 ed3c

embeds.11.weight f4 [3, 3]
4.690547e-05 8.386236e-05 2.7950582e-05 -0.18476737 0.30238202 0.22960317 -0.6527411 -0.13217747
-0.5590992
00000000: 5dbc 4438 43df af38 6b77 ea37 a833 3dbe
00000010: d1d1 9a3e 181d 6b3e 0a1a 27bf 8859 07be
00000020: 2021 0fbf

embeds.12.weight f4 [3, 3]
2.5978847e-05 8.064541e-05 8.008278e-05 0.30203006 -0.24199478 -0.116388656 -0.7804836 -0.033757884
1.207684
00000000: 26ed d937 2d20 a938 1df2 a738 afa3 9a3e
00000010: 7bcd 77be 2d5d eebd c6cd 47bf b545 0abd
00000020: 6495 9a3f

embeds.13.weight f4 [3, 3]
5.8827154e-05 -7.8799174e-05 -1.8551058e-05 -0.061471336 -0.10633568 -0.01743282 3.0409632 -1.5351725
2.5287342
00000000: 2dbd 7638 fc40 a5b8 189e 9bb7 5ec9 7bbd
00000010: 85c6 d9bd 46cf 8ebc 249f 4240 8880 c4bf
00000020: c8d6 2140

embeds.14.weight f4 [3, 3]
6.7454866e-06 -3.6967533e-05 3.7625072e-05 0.15577583 0.60088706 -0.08491046 2.6995976 2.5284
2.8726583
00000000: 4a57 e236 960d 1bb8 9dcf 1d38 b383 1f3e
00000010: bcd3 193f 89e5 adbd 35c6 2c40 4ed1 2140
00000020: a2d9 3740

embeds.15.weight f4 [3, 3]
4.1163963e-05 -3.5568783e-06 -1.2731313e-05 -0.11356339 -0.45992061 -0.015385025 -3.0859692 -3.268976
-1.9519897
00000000: 78a7 2c38 b4b2 6eb6 9398 55b7 ec93 e8bd
00000010: b77a ebbe 7911 7cbc 8580 45c0 e736 51c0
00000020: ccda f9bf

embeds.16.weight f4 [3, 3]
-6.658739e-05 -9.103075e-05 -4.517351e-05 0.08217817 0.015372867 -0.17446055 2.675795 -2.7956235
2.2454348
00000000: d5a4 8bb8 c3e7 beb8 b078 3db8 074d a83d
00000010: 7ade 7b3c c9a5 32be 3a40 2b40 7feb 32c0
00000020: 34b5 0f40

embeds.17.weight f4 [3, 3]
0.00010913741 -3.6897014e-05 4.552113e-05 0.0012897812 0.10651742 0.074059315 -3.4157398 -1.6628499
-1.8180412
00000000: b3e0 e438 dec1 1ab8 f1ed 3e38 e00d a93a
00000010: ce25 da3d 69ac 973d 7b9b 5ac0 44d8 d4bf
00000020: 93b5 e8bf

embeds.18.weight f4 [102, 21]
-0.000111204594 -6.5498054e-05 -9.48338e-05 6.596255e-05 5.1141484e-05 1.31510105e-05 -3.8554237e-05 -2.8678209e-05
-1.943783e-05 3.6710935e-05 -0.00013586722 6.5787295e-05 -0.00010702887 9.271326e-05 -1.8832174e-05 -1.9648382e-05
-0.00013865824 -5.7625744e-05 0.00010216176 2.2507762e-05 0.000121907826 -0.28507134 1.3342764 -0.17462091
2.6478558 0.49197602 2.133944 -0.1767719 -0.9047375 -0.50754887 -0.020385878 -1.1171991
1.8308781 0.6749855 -1.8406332 1.3106489 -0.5585203 -0.89287734 0.23059984 1.3996431
-1.6863033 0.903978 0.20399126 -0.08554071 -1.5138754 -0.052717894 0.9942611 0.6838284
-0.65658236 1.0037571 -1.0197966 -0.47729227 0.47191188 -1.1630033 0.10336235 0.21386369
-0.04784456 0.56937826 0.15662892 0.98889923 -0.65778255 0.33645934 -0.081445724 0.9265221
-0.31971082 -1.2212665 -0.5179832 0.5558694 0.6993611 0.7479671 0.08238402 -0.42924404
-0.3180025 0.11961707 -0.82232064 -0.90020925 0.124230236 0.31753042 0.043967318 0.04506905
-0.41963446 -0.5283432 0.18860824 0.61118627 0.7640758 0.4745152 -0.10321894 -0.4530453
0.6959052 -0.5972828 0.09894485 0.18708345 -0.29073024 -0.5698264 -0.5528128 0.1948294
0.95614284 -0.91611814 0.78901154 0.050216395 -0.89705485 0.40115988 0.6327599 0.33035165
-0.7295202 0.9932094 0.3647403 -0.13143939 0.4950781 -0.18022043 0.3296537 -0.30815703
0.20519386 -0.61569744 -0.14710031 0.43531898 1.3013171 0.25930253 -0.59309095 0.33270392
0.047290746 -0.3304168 0.7623002 -0.7671589 -0.0001323123 0.10214998 0.73673433 -0.24893454
-0.4132389 0.559405 0.5319567 -0.25072905 -0.5594771 -0.08802667 0.11430091 -0.036878385
-0.3985063 0.84531605 -0.9963956 0.19583976 0.7743113 -0.8250723 -0.3145762 0.7714943
-0.29623076 -0.17042035 0.24628133 -0.33917758 0.44943118 0.6293477 -0.05661419 -0.19320709
-0.23205931 -0.873631 -0.79692453 -0.39471462 -0.43745944 -0.01213829 1.0623626 0.18786329
0.6174454 0.8227851 0.28483978 -0.5757806 -0.15942198 -0.0048311315 -0.9002776 -0.71546
0.8832875 1.07962 0.49512026 -1.6608839 0.9473637 -0.15857556 -0.9117197 0.15460725
-0.27192298 0.65454036 -0.7431224 -0.9416551 0.7707862 -0.21313156 0.8701902 0.5511116
0.80634904 -0.77946645 0.08480043 1.0806029 -0.020354008 -0.12709685 -0.57031804 -0.6340113
0.3070406 -0.6004609 0.064436294 1.02081 -1.0264494 -0.21037014 -0.7065866 0.28804517
0.55485976 -0.32898983 0.2510508 0.4293953 0.5187132 1.2363694 0.09707645 -0.64851576
-0.2182085 0.067179926 -0.31534633 -1.2449342 -0.6007292 0.1741447 -1.0221761 -1.0623665
0.37398553 -1.0326807 0.14331464 -0.96071166 0.38010174 1.0843985 0.21026208 -1.0948243
0.30015972 0.021767443 -0.5575859 -0.8798993 0.12986712 -0.69307953 -0.15389661 0.9300688
1.4516715 0.14481255 -0.689461 0.07908128 0.0560307 -0.5884158 0.7111258 -0.22919555
0.93547434 -0.7429163 -1.109088 0.688513 0.40353945 -0.12915789 -0.45681268 -0.23128381
-0.5096124 0.9543585 0.11165713 -0.14889589 1.0854311 1.2986654 0.7472106 -0.46833155
00000000: 8336 e9b8 005c 89b8 82e1 c6b8 6055 8a38
00000010: c080 5638 29a3 5c37 4cb5 21b8 fc91 f0b7
00000020: 6c0e a3b7 11fa 1938 9477 0eb9 49f7 8938
00000030: b074 e0b8 0d6f c238 c9f9 9db7 94d2 a4b7
00000040: ca64 11b9 2cb3 71b8 ad3f d638 0dcf bc37
00000050: c4a8 ff38 dff4 91be 92c9 aa3f d3cf 32be
00000060: 7876 2940 48e4 fb3e 8a92 0840 b103 35be
00000070: e09c 67bf b9ee 01bf 4900 a7bc 6100 8fbf
00000080: 375a ea3f dacb 2c3f de99 ebbf 58c3 a73f
00000090: 30fb 0ebf 9c93 64bf 5d22 6c3e 8127 b33f
000000a0: c9d8 d7bf 1a6b 673f 16e3 503e f82f afbd
000000b0: abc6 c1bf b8ee 57bd e587 7e3f 610f 2f3f
000000c0: c815 28bf 1d7b 803f b288 82bf a75f f4be
000000d0: 6f9e f13e 4bdd 94bf a4af d33d 15ff 5a3e
000000e0: a8f8 43bd c6c2 113f 5563 203e 8028 7d3f
000000f0: 7064 28bf 6644 ac3e 04cd a6bd 8d30 6d3f
00000100: 23b1 a3be 7652 9cbf 8c9a 04bf 754d 0e3f
00000110: 5409 333f c67a 3f3f f4b8 a83d e0c5 dbbe
00000120: 39d1 a2be cbf9 f43d 9b83 52bf 1d74 66bf
00000130: 6c6c fe3d 5993 a23e 1317 343d 539a 383d
00000140: 54da d6be 8041 07bf 8522 413e b476 1c3f
00000150: 799a 433f a8f3 f23e 7464 d3bd 8ef5 e7be
00000160: d826 323f 87e7 18bf 99a3 ca3d ce92 3f3e
00000170: 98da 94be 25e0 11bf 2485 0dbf 5c81 473e
00000180: c7c5 743f b886 6abf a9fc 493f b5af 4d3d
00000190: 63a5 65bf d464 cd3e 8efc 213f da23 a93e
000001a0: d6c1 3abf f942 7e3f 3ebf ba3e 0c98 06be
000001b0: e07a fd3e b48b 38be 5fc8 a83e c2c6 9dbe
000001c0: 571e 523e 599e 1dbf 77a1 16be 21e2 de3e
000001d0: 8f91 a63f 4dc3 843e cfd4 17bf 2b58 aa3e
000001e0: f1b3 413d 642c a9be 1b26 433f 8764 44bf
000001f0: 50bd 0ab9 0234 d13d 9f9a 3c3f b2e8 7ebe
00000200: 0d94 d3be 2b35 0f3f 502e 083f 8f5f 80be
00000210: e439 0fbf 5447 b4bd 9816 ea3d ca0d 17bd
00000220: 0509 ccbe a266 583f c813 7fbf 388a 483e
00000230: 4439 463f f037 53bf 2210 a1be a780 453f
00000240: 8fab 97be ac82 2ebe 2c31 7c3e afa8 adbe
00000250: d81b e63e ee1c 213f 48e4 67bd 14d8 45be
00000260: f5a0 6dbe 48a6 5fbf 3f03 4cbf 0918 cabe
00000270: affa dfbe aedf 46bc 7ffb 873f 3c5f 403e
00000280: e710 1e3f 0ba2 523f 85d6 913e 5b66 13bf
00000290: 843f 23be 784e 9ebb 9878 66bf 6328 37bf
000002a0: 211f 623f fd30 8a3f 6780 fd3e d897 d4bf
000002b0: 6d86 723f a261 22be 7666 69bf 5d51 1e3e
000002c0: 7d39 8bbe f58f 273f 453d 3ebf 4f10 71bf
000002d0: 3f52 453f 293f 5abe c9c4 5e3f a615 0d3f
000002e0: e46c 4e3f 1d8b 47bf d9ab ad3d 3251 8a3f
000002f0: 73bd a6bc ad25 02be 5d00 12bf 914e 22bf
00000300: 6d34 9d3e ceb7 19bf 2df7 833d e7a9 823f
00000310: b262 83bf 456b 57be dce2 34bf a87a 933e
00000320: 4a0b 0e3f 5b71 a8be bb89 803e b3d9 db3e
00000330: 63ca 043f 5a41 9e3f 05d0 c63d 2105 26bf
00000340: 0d72 5fbe a195 893d 1375 a1be 015a 9fbf
00000350: 64c9 19bf fd52 323e abd6 82bf a0fb 87bf
00000360: 087b bf3e e22e 84bf 13c1 123e 33f1 75bf
00000370: b29c c23e 92cd 8a3f f14e 573e 3423 8cbf
00000380: 89ae 993e a351 b23c f3bd 0ebf 1541 61bf
00000390: e3fb 043e a96d 31bf 1397 1dbe fd18 6e3f
000003a0: 5fd0 b93f be49 143e 8480 30bf 5ef5 a13d
000003b0: 7380 653d 6ba2 16bf 570c 363f 3db2 6abe
000003c0: 3f7b 6f3f c32f 3ebf 98f6 8dbf 6342 303f
000003d0: b99c ce3e f741 04be 5ae3 e9be aad5 6cbe
000003e0: f575 02bf d750 743f 7eac e43d 2a78 18be
000003f0: 68ef 8a3f ab3a a63f 3249 3f3f 27c9 efbe

embeds.19.weight f4 [46, 14]
-1.3095304e-05 5.614501e-06 -9.907536e-05 -2.1301359e-05 8.203795e-05 5.079042e-05 0.00011333896 2.6773e-05
3.814765e-05 2.1983748e-05 -2.2341917e-05 1.0533508e-05 5.9934067e-05 -5.9608803e-05 -0.7481356 0.2750577
-0.44868132 0.82172817 0.07464744 0.0848154 -0.9513447 0.16377294 0.4290978 -0.8454688
1.1396022 0.8038178 -1.8352082 0.7455189 -0.43422437 0.96452594 -0.71382135 1.306007
0.06402601 -0.41558653 -1.3158106 0.30066437 0.14721222 0.3474417 -0.9845435 0.14753373
-1.5531932 1.7616504 -0.64054996 -1.0897467 -0.32773405 -0.9516329 -1.6770335 0.45888317
1.9038184 -1.7263916 0.04512831 2.6351848 -0.17739259 1.6371902 -0.34884453 -1.2584317
0.036999397 1.3482616 0.043962788 1.512142 0.43959254 0.07537747 -1.4932541 0.14075384
1.1891935 0.021765474 -1.2588496 0.11128856 -2.288856 0.35123813 0.56210655 -1.2229408
0.44289452 -2.4937074 -1.2499229 0.67995745 0.79509926 -1.0373238 0.550561 0.23314045
0.9842108 2.291706 -1.5982928 -1.3658301 -0.2899823 0.79368186 1.2492723 0.32630867
0.24791162 -0.06560123 0.57407856 0.35156986 -0.16732465 1.2252886 -0.22251177 0.80023855
-0.44579077 1.2231375 1.3236378 0.27988902 1.259782 -1.1682161 -1.2599255 -1.249345
-0.8245881 -0.2024093 -1.1419417 -0.28581578 2.265561 -0.49843216 0.6451284 -0.47600138
-0.61595726 -0.1546701 0.9425347 -0.15036552 -1.0817815 0.6969284 -0.07328071 -0.9500614
0.5157704 0.50066257 0.84065574 -1.7669715 -0.18205936 -0.60971737 0.87235755 -0.5353795
-0.14710206 -0.8293103 -1.8565935 1.0643283 1.3387247 -1.9824843 1.1609774 1.6126555
0.3251011 0.11906118 -0.5763329 -0.59745866 -2.6767461 1.7126589 0.74479806 2.0781076
1.3469503 -0.8327255 1.3023646 0.79486483 -1.1161064 0.8309019 -1.9525795 2.2164953
-1.735674 1.8665599 -0.7773705 -0.41735995 0.55779094 0.50723493 0.026298322 0.25308517
0.8877305 -0.19748892 -1.2907009 1.3375672 -0.9098228 0.54209095 0.37970543 0.3747231
-0.73793554 2.4079974 2.8434918 0.5132606 -1.0747999 -1.7395573 1.3472321 -1.3290684
0.8956978 1.540204 -1.2895771 1.0165243 0.054368697 -0.7252896 -1.6284934 1.8021294
2.0889068 0.53854954 0.48220444 0.085228555 -1.2963102 0.8114579 0.516774 -0.18600371
0.63907456 -0.3514896 -0.27192026 0.7006676 0.24891749 0.61275166 -0.21513197 1.0498931
0.77619296 -1.4193889 -0.8641567 1.3463236 -0.24496765 -1.7198353 0.62838286 1.651435
-0.7414708 0.2929957 -1.3135942 -0.60332745 -0.62094843 -0.42508614 -0.54041713 1.3195728
1.1083504 -1.4756635 -1.2964112 1.9161545 -1.2147553 0.50424063 0.9519896 0.17141457
-0.20261185 0.6541484 0.90073514 0.11882685 -1.7710032 -0.22603507 -0.54600567 -0.96562874
-0.9876833 1.2985303 -0.15296473 -1.5361934 1.298732 0.26270977 -0.96961546 0.27483436
1.8147393 0.29592696 -0.1841301 -0.45734236 -1.517369 -0.3355553 2.321814 -0.516542
0.3838423 -0.28050524 -0.6797234 0.13345873 -1.0624169 0.6353672 -0.18232007 0.64960253
00000000: e7b3 5bb7 3264 bc36 aec6 cfb8 52b0 b2b7
00000010: ca0b ac38 cc07 5538 64b0 ed38 9496 e037
00000020: ba00 2038 bd69 b837 e76a bbb7 13b9 3037
00000030: b761 7b38 7704 7ab8 d185 3fbf 5dd4 8c3e
00000040: 8fb9 e5be c75c 523f c2e0 983d b2b3 ad3d
00000050: 548b 73bf 18b4 273e b5b2 db3e a570 58bf
00000060: 7cde 913f 01c7 4d3f 1ae8 eabf 54da 3e3f
00000070: a852 debe 2ceb 763f ffbc 36bf 3d2b a73f
00000080: 1220 833d c2c7 d4be 7b6c a8bf aef0 993e
00000090: cdbe 163e e1e3 b13e 0b0b 7cbf 1513 173e
000000a0: 09cf c6bf c37d e13f 15fb 23bf d27c 8bbf
000000b0: c2cc a7be 379e 73bf 09a9 d6bf bcf2 ea3e
000000c0: 52b0 f33f 66fa dcbf 76d8 383d dea6 2840
000000d0: 67a6 35be 738f d13f c09b b2be 4a14 a1bf
000000e0: ae8c 173d d693 ac3f 5312 343d de8d c13f
000000f0: 4612 e13e 815f 9a3d f322 bfbf c621 103e
00000100: 7e37 983f 824d b23c fc21 a1bf 42eb e33d
00000110: 9e7c 12c0 7cd5 b33e 37e6 0f3f 5389 9cbf
00000120: 12c3 e23e e798 1fc0 79fd 9fbf b111 2e3f
00000130: a08b 4b3f 07c7 84bf 91f1 0c3f 5fbc 6e3e
00000140: 3df5 7b3f 50ab 1240 dc94 ccbf 85d3 aebf
00000150: 8f78 94be bc2e 4b3f 28e8 9f3f ee11 a73e
00000160: 8bdc 7d3e f059 86bd d0f6 123f f700 b43e
00000170: 2757 2bbe 42d6 9c3f 20da 63be 6fdc 4c3f
00000180: b03e e4be c58f 9c3f f76c a93f 9d4d 8f3e
00000190: 8940 a13f 1b88 95bf 3d45 a1bf 89ea 9fbf
000001a0: 3518 53bf 6244 4fbe 252b 92bf 7256 92be
000001b0: f4fe 1040 8032 ffbe 2327 253f 74b6 f3be
000001c0: 60af 1dbf d761 1ebe f449 713f 6bf9 19be
000001d0: d177 8abf e669 323f 3214 96bd 3937 73bf
000001e0: 8709 043f 6c2b 003f 3735 573f 1f2c e2bf
000001f0: c56d 3abe 7016 1cbf d352 5f3f a20e 09bf
00000200: eca1 16be ae4d 54bf dba4 edbf e93b 883f
00000210: 555b ab3f 0cc2 fdbf e89a 943f 7f6b ce3f
00000220: a773 a63e 59d6 f33d 8e8a 13bf 0df3 18bf
00000230: cf4f 2bc0 6838 db3f 16ab 3e3f b7ff 0440
00000240: de68 ac3f 802d 55bf e2b3 a63f 437c 4b3f
00000250: 93dc 8ebf fdb5 543f 20ee f9bf 0fdb 0d40
00000260: 912a debf 6feb ee3f c101 47bf 34b0 d5be
00000270: 63cb 0e3f 26da 013f 946f d73c 6194 813e
00000280: 4e42 633f 893a 4abe b035 a5bf 6735 ab3f
00000290: 26ea 68bf 79c6 0a3f c068 c23e b5db bf3e
000002a0: 58e9 3cbf a11c 1a40 c5fb 3540 0c65 033f
000002b0: 0b93 89bf d0a9 debf 1a72 ac3f ea1e aabf
000002c0: 734c 653f 6825 c53f dd10 a5bf 781d 823f
000002d0: b6b1 5e3d 94ac 39bf 7972 d0bf 2dac e63f
000002e0: a6b0 0540 62de 093f 80e3 f63e 4f8c ae3d
000002f0: 7eed a5bf b4bb 4f3f 4d4b 043f c277 3ebe
00000300: 649a 233f 72f6 b3be 2239 8bbe f45e 333f
00000310: 3ae4 7e3e 4bdd 1c3f 8e4b 5cbe e662 863f
00000320: 95b4 463f 89ae b5bf 6039 5dbf 5554 ac3f
00000330: cdd8 7abe 9023 dcbf b3dd 203f 3962 d33f
00000340: 08d1 3dbf 8803 963e db23 a8bf ab73 1abf
00000350: 7af6 1ebf e4a4 d9be c758 0abf c3e7 a83f
00000360: 6dde 8d3f 8be2 bcbf cdf0 a5bf 8d44 f53f
00000370: 1a7d 9bbf ea15 013f 97b5 733f 4d87 2f3e
00000380: 7b79 4fbe 4576 273f 9496 663f 7e5b f33d
00000390: 3cb0 e2bf bd75 67be 07c7 0bbf 7233 77bf
000003a0: d0d8 7cbf 3e36 a63f c9a2 1cbe fca1 c4bf
000003b0: da3c a63f e581 863e b838 78bf 17b7 8c3e
000003c0: 6149 e83f bd83 973e 9a8c 3cbe c728 eabe
000003d0: 2639 c2bf e7cd abbe 9a98 1440 193c 04bf
000003e0: fa86 c43e 629e 8fbe 5a02 2ebf 68a9 083e
000003f0: 47fd 87bf 6da7 223f 1db2 3abe 5a4c 263f

bn_cont.weight f4 [11]
1.8851659 1.2091699 0.25564054 -0.14032662 0.31215385 -0.6282557 0.19647703 0.8327006
1.0210283 2.9257576 0.061490994
00000000: 1e4d f13f 14c6 9a3f 51e3 823e c8b1 0fbe
00000010: a1d2 9f3e 5ed5 20bf 4631 493e de2b 553f
00000020: 0eb1 823f 9d3f 3b40 fbdd 7b3d

bn_cont.bias f4 [11]
-0.5402241 0.2989164 2.1617935 0.2452339 -0.28326485 -1.4365079 -0.38920742 -0.16854702
-0.087215155 0.5176373 2.1073859
00000000: 204c 0abf 920b 993e d35a 0a40 981e 7b3e
00000010: 1708 91be 7edf b7bf 3246 c7be 9797 2cbe
00000020: dc9d b2bd e183 043f 69df 0640

bn_cont.running_mean f4 [11]
0.012460759 0.048251424 0.039506163 -0.022701707 -0.056312375 0.0675821 0.06658393 -0.016539231
0.004591817 -0.063125804 0.0164128
00000000: 3628 4c3c 49a3 453d 37d1 213d eef8 b9bc
00000010: cea7 66bd 7c68 8a3d 285d 883d 487d 87bc
00000020: f476 963b 1a48 81bd 2374 863c

bn_cont.running_var f4 [11]
1.0217048 0.99231875 1.2056775 0.7667065 0.3247295 1.8170962 1.5510554 0.9854253
0.99177635 0.9915352 0.92248815
00000000: 39c7 823f 9a08 7e3f a453 9a3f e146 443f
00000010: f242 a63e 9c96 e83f fc88 c63f d544 7c3f
00000020: 0ee5 7d3f 40d5 7d3f 2f28 6c3f

layers.0.weight f4 [100, 142]
2.2683554 0.44598734 1.8689159 -0.57531226 0.9791061 0.46570894 -0.8779202 2.799418
-0.082769945 2.832491 1.7316912 0.19454189 2.6435738 0.53505695 0.6639922 -1.8354483
-3.548153 -1.0268053 -2.4487088 -0.09468982 -3.2003047 -0.82066226 -0.07356993 0.6140912
-0.87491804 0.7886908 -1.8443321 -0.48094743 -0.09052366 -0.22263095 0.29411834 -0.98842907
1.0134492 -0.35025585 0.51749724 -1.1550483 0.70154023 0.76644176 -0.4940009 -0.6053321
0.6671307 0.17381248 1.4072572 -0.078173175 -0.3055734 1.3284705 0.73487335 -0.36155725
-0.61523825 -0.032951765 0.43799976 -0.45671466 0.36767417 -0.41601995 -0.08145134 -0.17681877
-0.1296541 0.54165983 0.20165314 -0.8134743 -0.11454347 -0.76231515 -0.8456964 1.6322867
-0.39853442 -0.33912894 -0.30807477 -0.4029061 -0.12984538 -1.4239588 0.014289849 -0.29943627
0.64698505 0.047167897 -0.5751472 1.428964 0.6268639 -0.5369108 1.3042318 2.0665197
-0.9922757 0.36240622 0.8925474 -0.59256876 -0.05426601 -0.28075844 0.009149173 -1.0313381
-0.3733354 -0.044026315 -0.6019734 1.0216801 0.64534885 -0.049437713 0.38523623 0.17927678
-0.7081635 -1.0914795 0.21781781 -0.11067648 0.5617091 0.98749167 0.39474845 0.75512224
0.6826296 0.35133818 -0.7461068 0.83833015 -0.81936806 0.24626736 0.21399449 0.54903513
0.8662789 0.5333197 0.1737229 0.88375455 0.4980252 -1.2508737 0.40550268 0.4541983
-0.07432347 -0.563869 0.32972035 0.23749074 -1.7926913 -1.1787268 1.9224426 -0.054829232
1.027965 -0.9715453 0.44644782 0.3808796 -1.8126005 -0.038952664 0.30988187 -0.017283227
0.08056378 -0.10168028 1.5235895 -1.9899515 0.22357474 -0.00077685295 -1.0829318 -0.34789297
0.4388521 1.0767868 -1.553778 -1.3235312 0.32627177 1.7933942 -0.28073573 0.6503692
-0.08071802 2.302885 0.69825363 -0.74625456 -0.92172784 -1.7600484 -2.0226598 -1.2685348
-0.57329535 0.92820305 0.8992139 3.755049 0.107902706 3.474631 2.1389635 1.5846019
0.3059425 0.47114748 -0.50515395 -0.86234957 -1.1446797 -0.30649278 -0.6976738 -0.744871
0.004107073 0.3194404 0.66800386 0.23640856 -0.3512568 0.51760185 0.33411115 0.8540347
0.586873 -0.36645383 1.329153 0.28314832 0.109744176 0.45283774 -1.3949188 0.26906937
0.032300916 -0.73713416 0.7393192 -0.9768669 0.6260678 0.02488348 -0.03421989 -1.6595922
0.46456933 -0.4208395 -0.090731755 0.30675578 -0.83409226 -0.117631584 -0.3292463 0.9920086
0.79504836 0.11686248 -0.74908847 1.1869668 0.9204606 -0.1864027 0.061736196 -0.6787005
-0.8559399 0.101339936 -0.3482824 -0.33754528 -0.09094337 -0.048492625 0.16184781 0.04535459
0.6693283 0.14665057 -0.06685727 0.3934725 0.61513466 1.0300429 1.0302714 1.2587395
0.6750921 -0.58967644 -0.59589416 -0.88203627 -0.20111075 1.3681582 0.63587683 1.2466023
0.10789486 0.1817162 -0.066241466 -0.20861265 -0.10267884 0.10995032 0.07583514 0.9549255
-0.35049936 -0.94565254 0.13945052 0.7940277 -0.79183245 -0.7111872 -0.59223425 0.39370927
00000000: bc2c 1140 7458 e43e a338 ef3f aa47 13bf
00000010: b3a6 7a3f 6771 ee3e 61bf 60bf aa29 3340
00000020: 4a83 a9bd 8847 3540 0fa8 dd3f fd35 473e
00000030: 5030 2940 7ef9 083f 65fb 293f f8ef eabf
00000040: f014 63c0 5b6e 83bf a5b7 1cc0 bdec c1bd
00000050: cbd1 4cc0 ec16 52bf d5ab 96bd 1535 1d3f
00000060: a1fa 5fbf a4e7 493f 1313 ecbf be3e f6be
00000070: 7864 b9bd 5ef9 63be ae96 963e b009 7dbf
00000080: b4b8 813f bc54 b3be b37a 043f 9fd8 93bf
00000090: 2498 333f 8735 443f b0ed fcbe 0bf7 1abf
000000a0: 14c9 2a3f e6fb 313e 0121 b43f 4219 a0bd
000000b0: 1e74 9cbe 520b aa3f a920 3c3f 081e b9be
000000c0: 4180 1dbf 6ef8 06bd 8141 e03e 81d6 e9be
000000d0: ca3f bc3e 9100 d5be f6cf a6bd fb0f 35be
000000e0: 0bc4 04be 38aa 0a3f 297e 4e3e da3f 50bf
000000f0: c495 eabd 1627 43bf 8f7f 58bf c5ee d03f
00000100: b40c ccbe 4fa2 adbe fabb 9dbe b549 cebe
00000110: 30f6 04be 4844 b6bf f91f 6a3c b64f 99be
00000120: d0a0 253f 2033 413d d93c 13bf 4be8 b63f
00000130: 277a 203f fc72 09bf 11f1 a63f dc41 0440
00000140: c805 7ebf 4f8d b93e fd7d 643f 96b2 17bf
00000150: 0946 5ebd 92bf 8fbe 6ae6 153c e302 84bf
00000160: d125 bfbe f054 34bd ee1a 1abf 6ac6 823f
00000170: 9535 253f 337f 4abd af3d c53e 5594 373e
00000180: 344a 35bf 9ab5 8bbf a20b 5f3e 5aaa e2bd
00000190: 2bcc 0f3f 41cc 7c3f 781c ca3e b14f 413f
000001a0: d0c0 2e3f 99e2 b33e db00 3fbf ce9c 563f
000001b0: 1bc2 51bf 832d 7c3e 5f21 5b3e 918d 0c3f
000001c0: 74c4 5d3f a487 083f 6ae4 313e bd3d 623f
000001d0: 29fd fe3e a11c a0bf 0c9e cf3e ae8c e83e
000001e0: e736 98bd b859 10bf 1bd1 a83e c630 733e
000001f0: e976 e5bf 85e0 96bf 9912 f63f 9e94 60bd
00000200: 5b94 833f 31b7 78bf cf94 e43e a702 c33e
00000210: 4b03 e8bf d48c 1fbd d6a8 9e3e 8e95 8dbc
00000220: a0fe a43d c03d d0bd fb04 c33f bbb6 febf
00000230: c7f0 643e b8a5 4bba 829d 8abf 071f b2be
00000240: 39b1 e03e 26d4 893f 33e2 c6bf 7869 a9bf
00000250: 180d a73e f18d e53f 98bc 8fbe 997e 263f
00000260: 7d4f a5bd 7862 1340 c0c0 323f 8a0a 3fbf
00000270: 5bf6 6bbf 4449 e1bf 4273 01c0 595f a2bf
00000280: 7cc3 12bf b79e 6d3f e232 663f b952 7040
00000290: 18fc dc3d 5b60 5e40 c7e4 0840 3cd4 ca3f
000002a0: 7fa4 9c3e 3e3a f13e c551 01bf f1c2 5cbf
000002b0: dd84 92bf 9fec 9cbe c09a 32bf deaf 3ebf
000002c0: a094 863b b18d a33e 4d02 2b3f 1615 723e
000002d0: eed7 b3be 8e81 043f 9e10 ab3e 05a2 5a3f
000002e0: 4f3d 163f d69f bbbe af21 aa3f d1f8 903e
000002f0: 8ec1 e03d 59da e73e b38c b2bf 76c3 893e
00000300: f74d 043d d3b4 3cbf 0644 3d3f f313 7abf
00000310: fb45 203f 71d8 cb3c 282a 0cbd 846d d4bf
00000320: 08dc ed3e 4678 d7be 92d1 b9bd 180f 9d3e
00000330: 1287 55bf d4e8 f0bd f992 a8be 47f4 7d3f
00000340: 4a88 4b3f 9955 ef3d 43c4 3fbf 87ee 973f
00000350: 4ea3 6b3f 59e0 3ebe 18df 7c3d 51bf 2dbf
00000360: e11e 5bbf 508b cf3d 1252 b2be bcd2 acbe
00000370: 8440 babd 34a0 46bd 6fbb 253e bcc5 393d
00000380: 1959 2b3f 912b 163e 77ec 88bd 3a75 c93e
00000390: 7779 1d3f 72d8 833f efdf 833f 601e a13f
000003a0: d6d2 2c3f 09f5 16bf 858c 18bf 21cd 61bf
000003b0: faef 4dbe cf1f af3f d3c8 223f aa90 9f3f
000003c0: fbf7 dc3d d013 3a3e 9ba9 87bd 8e9e 55be
000003d0: 4949 d2bd a22d e13d 744f 9b3d ff75 743f
000003e0: a774 b3be 4916 72bf 1ecc 0e3e 6645 4b3f
000003f0: 88b5 4abf 5d10 36bf aa9c 17bf 4394 c93e

layers.0.bias f4 [100]
-0.11630589 -1.1507113 -1.4892049 -1.4741845 -1.6336308 -1.6682787 -0.5464486 -1.8177423
-1.5040886 -1.6405028 -1.88608 -1.5603215 -0.062797 -0.82333064 -2.4902155 -1.40828
-0.64473474 -2.7446017 -1.6397902 -1.4683781 0.310285 -0.0059965802 -0.5311903 -1.8919166
1.0788321 -1.5926157 0.23221897 -0.15360546 -0.73948157 -0.55676246 1.5518582 -0.6736651
-2.3951259 -1.2588302 -1.0630233 -2.4300997 0.23745401 -1.6513907 -0.68366396 -1.3362658
-0.96949637 -1.1621233 -0.4375824 1.3097289 -0.17424656 0.2541519 1.7395269 0.3158758
1.0625981 -0.58599764 -1.730296 -2.2391853 -0.7519248 -1.1390998 -0.5436488 -1.2063355
-1.2979522 -1.1622623 0.39565894 -0.9416449 -0.29632932 -1.2964125 -0.019501317 -1.6630121
0.21079321 -2.5381033 -0.49243322 -0.4750055 0.16949323 -1.4556308 -0.99400175 -1.3716062
-2.4211144 -2.2067013 -0.6530949 0.7305148 -0.61625737 -2.2561162 -0.9041304 -0.04318366
-1.308651 0.9519604 -1.5919116 0.6423614 -0.4086358 -1.2228779 -1.5863216 -2.1564457
-0.35543942 0.11547752 -0.8459296 -1.099144 -0.57697296 -0.43656713 -1.2765125 -1.4502962
0.99505144 -1.9080065 -3.1655602 -1.8048362
00000000: c831 eebd 824a 93bf 449e bebf 14b2 bcbf
00000010: d01a d1bf 288a d5bf 0ee4 0bbf c8ab e8bf
00000020: fa85 c0bf fffb d1bf 126b f1bf 9db8 c7bf
00000030: b79b 80bd ccc5 52bf b15f 1fc0 8542 b4bf
00000040: 560d 25bf 8ea7 2fc0 a5e4 d1bf d0f3 bbbf
00000050: addd 9e3e f67e c4bb 16fc 07bf 532a f2bf
00000060: 2c17 8a3f d5da cbbf cfca 6d3e c04a 1dbe
00000070: aa4e 3dbf fc87 0ebf 4aa3 c63f 5175 2cbf
00000080: be49 19c0 5921 a1bf 2611 88bf c186 1bc0
00000090: 2527 733e c560 d3bf 9a04 2fbf c20a abbf
000000a0: ea30 78bf 75c0 94bf cd0a e0be 32a5 a73f
000000b0: b16d 32be 3320 823e d1a8 de3f 79ba a13e
000000c0: 3703 883f f103 16bf 577a ddbf d04e 0fc0
000000d0: 257e 40bf 06ce 91bf 912c 0bbf 3469 9abf
000000e0: 4c23 a6bf 03c5 94bf cf93 ca3e a40f 71bf
000000f0: 7ab8 97be d8f0 a5bf 3ac1 9fbc 95dd d4bf
00000100: 2dda 573e 4970 22c0 3520 fcbe ec33 f3be
00000110: a28f 2d3e 1c52 babf e676 7ebf cb90 afbf
00000120: 8af3 1ac0 983a 0dc0 3a31 27bf 0503 3b3f
00000130: 0bc3 1dbf 3564 10c0 1775 67bf 59e1 30bd
00000140: e081 a7bf adb3 733f c2c3 cbbf cc71 243f
00000150: b638 d1be 4387 9cbf 960c cbbf 3503 0ac0
00000160: 28fc b5be 7a7f ec3d d88e 58bf c0b0 8cbf
00000170: 80b4 13bf ba85 dfbe c364 a3bf 4ea3 b9bf
00000180: b1bb 7e3f 8f39 f4bf 8a98 4ac0 df04 e7bf

layers.2.weight f4 [100]
1.1771697 0.7000529 0.19657075 1.0972838 0.5514266 1.2269145 -0.28890482 0.061475158
0.8035533 0.98089963 -0.018589146 1.7284966 4.768651 1.7537051 0.44818044 0.6484356
3.1527035 0.6774898 0.01542854 1.6428299 -0.15836929 0.913678 0.7349319 0.9790764
2.6570115 0.853425 0.2627676 0.7570644 0.6603111 1.0493554 2.56492 0.47847694
-0.34717193 0.98240805 0.05427886 0.18325178 1.1768502 0.65692776 -0.5547436 0.4110146
1.2776347 1.3779197 1.086685 1.1057804 0.6873739 -0.0056941416 1.8417596 0.26621044
3.0725367 0.35284626 0.037486296 1.0158852 1.057448 0.60687906 -0.168211 1.3051548
-0.59616375 1.4651563 1.1467147 0.41128892 0.093951166 1.4873885 -0.30987728 0.17330137
0.14775926 0.7234241 -0.31264535 0.6416535 0.53838307 0.60377717 2.6116014 0.40644258
0.8662708 1.3788297 0.81350857 0.019654939 0.27937612 0.95890135 0.34203315 1.5653299
1.0168897 0.8123248 0.8227833 -0.048182182 0.43288597 2.0344303 1.4621308 0.5109011
0.75407004 1.5422555 3.1581206 -0.9331823 2.2015655 0.92602324 1.0247138 -0.33529705
0.09334515 -0.3139879 1.3919877 1.0359409
00000000: 7fad 963f ab36 333f d849 493e cc73 8c3f
00000010: 4b2a 0d3f 890b 9d3f 55eb 93be 60cd 7b3d
00000020: abb5 4d3f 3d1c 7b3f 4448 98bc 603f dd3f
00000030: ca98 9840 6979 e03f e877 e53e e0ff 253f
00000040: e5c5 4940 f96f 2d3f fdc7 7c3c 4048 d23f
00000050: 8f2b 22be cde6 693f 7f24 3c3f c0a4 7a3f
00000060: 7a0c 2a40 107a 5a3f 7a89 863e f9ce 413f
00000070: 260a 293f 4751 863f a627 2440 eefa f43e
00000080: 85c0 b1be 187f 7b3f 8353 5e3d 5ba6 3b3e
00000090: 07a3 963f 6b2c 283f ad03 0ebf 8170 d23e
000000a0: 8989 a33f ac5f b03f 7e18 8b3f 368a 8d3f
000000b0: bcf7 2f3f ec95 babb c7be eb3f bc4c 883e
000000c0: 71a4 4440 44a8 b43e 3b8b 193d 8708 823f
000000d0: 755a 873f 6d5c 1b3f 813f 2cbe 500f a73f
000000e0: 309e 18bf 3e8a bb3f 8cc7 923f 7694 d23e
000000f0: 7869 c03d bf62 be3f 3ca8 9ebe ea75 313e
00000100: 344e 173e 5232 393f 0d13 a0be 6743 243f
00000110: 79d3 093f 2491 1a3f 7a24 2740 3e19 d03e
00000120: ecc3 5d3f 7e7d b03f 1942 503f 6503 a13c
00000130: 630a 8f3e 8f7a 753f f81e af3e bb5c c83f
00000140: 7129 823f 85f4 4f3f eda1 523f ae5a 45bd
00000150: 3ba3 dd3e 1b34 0240 1a27 bb3f 6aca 023f
00000160: bc0a 413f a168 c53f a61e 4a40 09e5 6ebf
00000170: 73e6 0c40 dc0f 6d3f d229 833f 0eac abbe
00000180: be2b bf3d 06c3 a0be a72c b23f b699 843f
