retail-case-study/models/fast.pth (torch_old, 322831 bytes, 99 tensors)

embeds.0.weight f4 [3, 3]
0	0xb9d618eb	-0.00040835826
1	0xb8e6969b	-0.00010995307
2	0xba1a0c43	-0.0005876461
3	0x3c976599	0.018481063
4	0x3e27fdd4	0.16405421
5	0x3e5b4148	0.21411622
6	0xbdc5213d	-0.0962548
7	0xbe8c701c	-0.27429283
8	0x3f0bffd4	0.5468724

embeds.1.weight f4 [4, 3]
0	0x39306dc9	0.00016825566
1	0x3a5cc91c	0.00084223016
2	0xba09b5c1	-0.00052532187
3	0x3ed2842d	0.41116467
4	0x3ec4a3cf	0.38406226
5	0x3ea3c307	0.31984732
6	0xc00d55a5	-2.2083523
7	0xc010e45d	-2.2639382
8	0xbff47870	-1.9099255
9	0x3fb49fa2	1.4111216
10	0x3fc021e0	1.5010338
11	0x3f6c167b	0.922218

embeds.2.weight f4 [82, 19]
0	0xbab3f012	-0.0013728163
1	0xb8e04eca	-0.00010695828
2	0xba195a1a	-0.0005849913
3	0x3a06e99e	0.0005146506
4	0xbac19148	-0.0014768029
5	0x3ada7aed	0.0016668715
6	0x3820a447	3.8299968e-05
7	0xb97cec60	-0.0002412065
8	0x3a92dbd5	0.0011204431
9	0x38971056	7.203284e-05
10	0x393c3a3f	0.00017950776
11	0xba0f92c5	-0.00054768875
12	0x3a8dfb2f	0.0010832305
13	0xb9b05b6a	-0.00033637445
14	0x3a87b39e	0.0010353213
15	0xb99ea802	-0.00030261284
16	0xb9fc5a3f	-0.00048132424
17	0x3a9b88c0	0.0011866316
18	0xba22475f	-0.00061904447
19	0xbf4844e7	-0.78230137
20	0x3f24b03c	0.6433141
21	0x3dac7696	0.08421056
22	0xbee5ac67	-0.44858095
23	0x3e2762db	0.16346304
24	0x3f01d26b	0.507117
25	0xbe361051	-0.17779662
26	0xbedeb303	-0.4349595
27	0x3dd63cc0	0.10460806
28	0x3f591b2b	0.8480708
29	0x3f70f090	0.9411707
30	0x3f695b21	0.91154677
31	0xbeedb381	-0.46426013
32	0xbe44b13d	-0.19208236
33	0x3eeae788	0.4587977
34	0x3fcd9e33	1.6063904
35	0x3f7a7845	0.97839767
36	0x401d8ea6	2.4618316
37	0xbf56f1df	-0.83962816
38	0xbec0be77	-0.37645313
39	0x3fb6c3f4	1.427855
40	0x3f528552	0.8223468
41	0xbfee86d6	-1.8634899
42	0x3f9bed71	1.2181836
43	0x3fbca819	1.4738799
44	0xbd77395e	-0.060357444
45	0x3f6b93c5	0.92022353
46	0x3fb75ca5	1.4325148
47	0x3fce50a8	1.6118364
48	0x402275d7	2.5384424
49	0xbfae1803	-1.3601078
50	0xbf79b200	-0.9753723
51	0xbefefb90	-0.49801302
52	0x3fbd12d4	1.4771371
53	0x3ef1d687	0.47233984
54	0x3fef5d3f	1.8700331
55	0x3fb32b0c	1.3997512
56	0xc020f22d	-2.5147812
57	0xbf07957d	-0.52962476
58	0xbf5ab59a	-0.8543335
59	0xbef027c0	-0.46905327
60	0xbcc4ad98	-0.024008557
61	0x3c901ee6	0.017592859
62	0x3e9050c0	0.28186607
63	0x402d81c6	2.7110457
64	0x401796d2	2.3685803
65	0xbf271d1d	-0.652788
66	0x3f9f5c0d	1.2449967
67	0x3f325470	0.6966009
68	0xbeaeb107	-0.34119436
69	0xbf2282db	-0.6348092
70	0xbe099f92	-0.13439777
71	0x401236df	2.284599
72	0xbd56fde4	-0.052488223
73	0x3ea755a4	0.32682526
74	0x3f8c37fe	1.0954587
75	0xbee7df95	-0.45287767
76	0xbfcb9d8b	-1.5907453
77	0xbd0d54f5	-0.03450485
78	0x3ee7b6f9	0.45256785
79	0xbf9290bd	-1.1450421
80	0x3f8765b6	1.0577915
81	0x3f0b182f	0.54333776
82	0x3edec5f0	0.4351039
83	0x3f165feb	0.5874011
84	0x3f8b1e27	1.0868577
85	0x3f42aeae	0.7604779
86	0x3fc622b9	1.5479347
87	0x3f4ee706	0.80821264
88	0xbfde0efe	-1.7348325
89	0xbf9dbdc9	-1.2323543
90	0x3f39e08c	0.72608256
91	0x3f741398	0.953424
92	0x3fbaad2c	1.4584098
93	0x4008bba4	2.1364527
94	0xc01ff9ba	-2.499617
95	0xbf8cba8d	-1.0994431
96	0x3ea2bf6f	0.31786677
97	0x3f35dc1f	0.71039003
98	0xbf11c41f	-0.5693988
99	0x3e55dbec	0.20884675
100	0x3ec0fe70	0.3769412
101	0x4004f6af	2.0775564
102	0x3fb13cb0	1.3846645
103	0x3e903bdf	0.28170678
104	0x3fe9c8dc	1.8264422
105	0x3efabbb9	0.48971346
106	0xbfb05496	-1.3775814
107	0xbea83dee	-0.3285975
108	0x3e873606	0.26408404
109	0x4050e827	3.2641695
110	0xbfbbff2b	-1.4687246
111	0x3f8cc349	1.0997096
112	0x3ebdf6b5	0.37102285
113	0xbf3add7a	-0.72994196
114	0x3efc2c57	0.4925258
115	0xbf0ad0b3	-0.542247
116	0xbf23489a	-0.63782656
117	0x3e805797	0.25066826
118	0xbf827802	-1.0192873
119	0xbf195328	-0.5989251
120	0x3e9ff2d7	0.3123996
121	0x3d8bf81b	0.06834432
122	0xbdd46464	-0.103707105
123	0x3e31e867	0.1737381
124	0x3f2fef6f	0.6872472
125	0xbea41ba1	-0.3205233
126	0x3fa934da	1.3219254
127	0x3f8cc3db	1.099727
128	0x3d0fa98c	0.035073802
129	0xbfc1bb8e	-1.5135362
130	0x3f032b57	0.51238006
131	0x3f93d122	1.1548197
132	0x3f908749	1.1291286
133	0x3cbcf85e	0.02306765
134	0x3f2819ad	0.6566418
135	0xbdc1ba87	-0.094594054
136	0xbe94a321	-0.29030707
137	0x3f0887c7	0.5333218
138	0x3f2873cd	0.658017
139	0x400e67bf	2.2250822
140	0x4010c85c	2.262229
141	0x3f88428a	1.0645306
142	0x3ff464cf	1.9093264
143	0xbf0b63ac	-0.5444896
144	0xbf7b127e	-0.9807509
145	0x3f06adb9	0.5260883
146	0xbe1a2a5a	-0.15055218
147	0x4026d794	2.6069078
148	0xbfaeaf06	-1.3647163
149	0x3fb786d9	1.4338027
150	0xbf41980c	-0.7562263
151	0xbe9eee74	-0.310413
152	0xbf928a07	-1.1448373
153	0x3facd537	1.3502568
154	0x3f6476ae	0.8924359
155	0xbfd71f77	-1.6806477
156	0x3f7b901f	0.98266786
157	0x3f53cfb5	0.8273881
158	0x3e9469ea	0.28987056
159	0x3e98d59d	0.29850474
160	0x3f563d66	0.83687437
161	0x3fa3d633	1.2799743
162	0x3fe396fb	1.778045
163	0x3c1992b4	0.009373356
164	0xbf628287	-0.8848042
165	0x3e847c5c	0.2587613
166	0x3f447bce	0.7675141
167	0x3f268516	0.65046823
168	0x3f5accdc	0.8546884
169	0x403c08be	2.9380336
170	0xbfe3c794	-1.7795281
171	0x3f048971	0.5177222
172	0xbf549346	-0.8303722
173	0xbf3537b3	-0.70788115
174	0x3ee72f68	0.45153356
175	0xbe813870	-0.2523837
176	0x3e108a7c	0.14115328
177	0x3fb7e8a4	1.4367871
178	0x40512639	3.267958
179	0x3f82c087	1.0215005
180	0x400d2f38	2.206007
181	0x405b6151	3.4278147
182	0xbf229432	-0.6350738
183	0x3fde595b	1.7371019
184	0x3f7b7ca1	0.98237044
185	0x3f8957d0	1.0729923
186	0xbfd42c9b	-1.6576113
187	0x4028fe93	2.640538
188	0xbeba75d8	-0.36418033
189	0x3f9b9fb0	1.2158108
190	0xbede2de7	-0.43394396
191	0x3eedc140	0.464365
192	0xbdeb4184	-0.114871055
193	0xbe655b32	-0.2239807
194	0x3f0ac3dc	0.5420511
195	0x3e9db7fd	0.30804434
196	0x40153298	2.331213
197	0x404d4ce1	3.2078173
198	0x3edb8876	0.4287755
199	0x4026e60f	2.6077917
200	0x400ec7a8	2.230936
201	0xbef8c593	-0.48588237
202	0xbe55771d	-0.2084622
203	0x3c005a7f	0.007834076
204	0x4001c1e3	2.027459
205	0xc0272b9d	-2.612037
206	0x3fa218bf	1.2663802
207	0x3f8971f1	1.0737897
208	0xbe920e70	-0.2852664
209	0xbf7aff8c	-0.98046184
210	0xbe8bae2a	-0.27281314
211	0x3f1d15ab	0.6136119
212	0xbefe5ad1	-0.49678662
213	0xbe79d414	-0.24397308
214	0x3eee9842	0.46600538
215	0x408ee67a	4.4656343
216	0x4034844f	2.8205755
217	0xbd0ad404	-0.0338936
218	0x3ff7ee74	1.9369645
219	0x3fce9938	1.6140509
220	0xbe1cd072	-0.1531389
221	0xbf06628d	-0.52494127
222	0xbdd8b5d0	-0.10581553
223	0x3fe8bedd	1.8183247
224	0xbf8cf783	-1.1013035
225	0x3d8279f5	0.06370918
226	0x3f31f823	0.6951925
227	0xbf51d149	-0.8195997
228	0x3ede7f9c	0.43456733
229	0xc0620a38	-3.5318737
230	0xbf8f4d38	-1.119544
231	0x3f63ba68	0.8895631
232	0xbf80a5e9	-1.0050632
233	0xbf772e3a	-0.9655491
234	0x3f2f2abd	0.6842459
235	0x3fa36fc4	1.2768483
236	0xbeda935b	-0.42690548
237	0x3f2c7eea	0.67381155
238	0x3ff54b39	1.9163581
239	0x3f9621e4	1.1729093
240	0x3bbf7afa	0.0058435174
241	0x3f7645ba	0.96200144
242	0x3efc7b3e	0.49312776
243	0x3df17b29	0.11791069
244	0x3f663150	0.89918995
245	0x40453c4e	3.0818057
246	0x3fdcfd45	1.7264792
247	0xbece0f77	-0.40246174
248	0x3f3fc619	0.7491165
249	0x3f2a383e	0.6649207
250	0xbfa2e93e	-1.272743
251	0x3f982372	1.1885817
252	0x3fdb9f3e	1.7157972
253	0x3ee66b68	0.4500382
254	0x3c2de335	0.010613252
255	0x3f89d95a	1.0769455

embeds.3.weight f4 [4, 3]
0	0xba299142	-0.00064684835
1	0xba2be80b	-0.00065577094
2	0xb9863d19	-0.00025603993
3	0x3fc84d24	1.5648541
4	0xc03b4677	-2.9261758
5	0x4065ccfc	3.5906363
6	0xbe79c311	-0.24390818
7	0x3dcad78b	0.09904393
8	0xbf1611d7	-0.5862097
9	0x3cefd7e2	0.029277746
10	0xbd854094	-0.06506458
11	0x3d9115ba	0.07084222

embeds.4.weight f4 [13, 7]
0	0x391bfaac	0.00014875334
1	0x39ea9787	0.00044744855
2	0xb9edf3d7	-0.00045385837
3	0xbaac9a7c	-0.0013168599
4	0x3ac4a5a1	0.0015002975
5	0x39aaa887	0.0003255049
6	0x3ad78093	0.0016441516
7	0xbeff0d73	-0.49814948
8	0x3f063e08	0.524384
9	0xbe8549db	-0.2603291
10	0x3ebb8294	0.3662306
11	0xbe3db8c7	-0.18527518
12	0x3eb39f36	0.35082406
13	0xbe5db091	-0.21649386
14	0x3e307586	0.17232332
15	0x3eb247fc	0.34820545
16	0xbe8369ff	-0.25666806
17	0x3ed0c5ab	0.4077581
18	0xbeef8315	-0.46779695
19	0xbe83e7ee	-0.25762886
20	0xbdb43d34	-0.08800736
21	0xbe24f764	-0.16109997
22	0xbf17adf2	-0.59249794
23	0xbe57455a	-0.2102255
24	0x3d24ebf0	0.04026407
25	0x3ef152a1	0.47133353
26	0xbeff355b	-0.49845394
27	0xbf451fb3	-0.77001494
28	0xbe982245	-0.29713646
29	0xbeabb944	-0.33539784
30	0xbe81fc5f	-0.25387856
31	0x3ec76ed5	0.38951746
32	0xbe5aed58	-0.21379602
33	0x3e2210f5	0.15826781
34	0xbe1f6764	-0.15566784
35	0xbef16115	-0.4714438
36	0xbe9c255f	-0.30497262
37	0x3f15e861	0.5855771
38	0xbf9c1ea3	-1.219685
39	0xbf3fb34f	-0.7488298
40	0x3f8ae799	1.0851928
41	0x3f6ec4bf	0.9326896
42	0xbfa12ffe	-1.2592771
43	0x3f001b09	0.5004125
44	0xbe90ac32	-0.28256375
45	0xbec96c8e	-0.39340633
46	0xbfad0b22	-1.3519022
47	0x3dd48f9d	0.103789546
48	0x3f3cb13b	0.7370793
49	0xbd002b82	-0.031291492
50	0xbefe1d46	-0.4963171
51	0x3e8ad768	0.27117467
52	0xbf73414a	-0.950215
53	0xbf76038a	-0.9609915
54	0x3f620751	0.88292414
55	0x3e7f1821	0.24911548
56	0xbe3580ae	-0.17724869
57	0x3ecb96cc	0.39763486
58	0x3eb04514	0.34427702
59	0x3e50167f	0.20321082
60	0xbf1b0575	-0.605552
61	0x3e73fa92	0.23826054
62	0x3df807c4	0.12110856
63	0x3eed5676	0.46355027
64	0x3cabc6ae	0.020968761
65	0x3f552b45	0.8326915
66	0x3e9589d5	0.2920672
67	0x3f8421a8	1.0322771
68	0xbf001119	-0.5002609
69	0xbf53d3ea	-0.8274523
70	0xbe2aaea7	-0.16668187
71	0xbeedecf7	-0.46469852
72	0x3f0bdaae	0.54630554
73	0x3ebd6b90	0.36996126
74	0x3f57f062	0.8435117
75	0xbf2144fa	-0.62995875
76	0xbf8c0921	-1.0940286
77	0x3eb4a756	0.35283917
78	0xbe9e81dc	-0.3095845
79	0x3f3b35b5	0.73128825
80	0x3e941ea6	0.28929633
81	0x3ef0a98c	0.47004354
82	0xbe0939b4	-0.13400918
83	0xbec0c12e	-0.37647384
84	0x3e880868	0.26568913
85	0x3ea19266	0.31557006
86	0xbd70f194	-0.058824137
87	0x3e831ad7	0.25606415
88	0x3f654321	0.89555556
89	0xbf412019	-0.754396
90	0xbf02af81	-0.5104905

embeds.5.weight f4 [53, 15]
0	0xb946670a	-0.00018921137
1	0x3a0fb932	0.00054826133
2	0xb970a4c8	-0.0002294957
3	0x3a0c1231	0.0005343287
4	0xba5a7f44	-0.0008335004
5	0x3a0c0c79	0.0005342435
6	0xba2e2004	-0.0006642344
7	0x3a84e306	0.0010138459
8	0xba0ea53c	-0.0005441492
9	0xbaeb3408	-0.0017944584
10	0x3ac6f493	0.001517909
11	0xb8b30a3a	-8.53729e-05
12	0xba89e67c	-0.001052096
13	0xbafd2691	-0.0019313862
14	0x39855e06	0.0002543779
15	0x3ef822f2	0.4846416
16	0xbe147e94	-0.1450141
17	0xbbdc42f4	-0.0067218486
18	0xbf3ef8a9	-0.74598175
19	0x3e138f32	0.14410093
20	0x3edaae04	0.42710888
21	0xbe79418b	-0.24341409
22	0x3ee0369e	0.4379167
23	0x3eb6deec	0.3571695
24	0x3e3fee2a	0.18743196
25	0xbc912c87	-0.017721428
26	0xbf430816	-0.76184213
27	0xbf5fb331	-0.873828
28	0x3ec3f887	0.3827555
29	0xbef563c3	-0.47927675
30	0x3eecb6e7	0.46233293
31	0x3da9737c	0.0827398
32	0x3e598950	0.21243787
33	0x3dc32cb5	0.095300116
34	0x3eb4e76c	0.3533281
35	0x3f147442	0.57989895
36	0x3f1d6ff1	0.61498934
37	0xbf1d9f6d	-0.6157139
38	0x3e19526b	0.14972846
39	0x3fda5334	1.7056642
40	0x3f5f06fb	0.87120026
41	0x3ed59d61	0.41721633
42	0x3ec14d42	0.37754256
43	0x3ecea399	0.4035919
44	0x3e967a1f	0.29390046
45	0x3f6a5262	0.91531956
46	0xbf2d3c03	-0.67669696
47	0xbed44e70	-0.41466093
48	0xbef4fde7	-0.47849962
49	0xbfbbcc43	-1.4671711
50	0x3fa0286b	1.2512335
51	0x3f4ca442	0.7993814
52	0x3f195842	0.59900296
53	0xbe512784	-0.2042523
54	0x3f6f9ba9	0.93596894
55	0x3f0c58cf	0.5482301
56	0x3e6d9532	0.23201445
57	0xbeff000c	-0.49804723
58	0xbe83fea5	-0.25780216
59	0x3ed34428	0.41262937
60	0xbe9dca0e	-0.30818218
61	0xbf7a3b98	-0.9774718
62	0xbf8f1bed	-1.1180397
63	0xbf91cc38	-1.1390448
64	0x3f9d481e	1.2287633
65	0x3e964489	0.29349163
66	0x3ef1ff31	0.47265008
67	0xbf97114f	-1.1802157
68	0xbe9c614c	-0.30542982
69	0x3e7283c9	0.23683085
70	0x3dd56165	0.10418967
71	0x3f3bc098	0.7334075
72	0xbeb913ac	-0.3614782
73	0xbe161fe0	-0.14660597
74	0xbfa0b353	-1.2554725
75	0xbe59f9a7	-0.21286641
76	0xbf5cf2ce	-0.8630799
77	0x3d4ca2f2	0.049960084
78	0x3e485133	0.19562225
79	0x3e63cb3d	0.22245498
80	0xbf5f6d92	-0.87276566
81	0xbe9e15bd	-0.3087596
82	0x3f5c47f8	0.86047316
83	0xbe00b03b	-0.12567227
84	0x3ec6ed8b	0.38853106
85	0xbe2f80b2	-0.17138937
86	0x3e450b70	0.19242644
87	0xbf4eba34	-0.80752873
88	0xbf7c5011	-0.9855967
89	0xbf445c89	-0.767037
90	0x3ec12ab7	0.377279
91	0xbc1abfb7	-0.009445122
92	0x3f2937c5	0.6610072
93	0xbeb79800	-0.35858154
94	0xbe9703d3	-0.29495105
95	0x3f4a781d	0.7908953
96	0xbf163903	-0.5868074
97	0xbf0274cb	-0.5095946
98	0xbd8a6d51	-0.06759132
99	0xbee81769	-0.4533036
100	0xbee19746	-0.44060725
101	0xbe52ac1e	-0.2057347
102	0x3db0d778	0.086348474
103	0x3ea1f0d3	0.31629047
104	0x3ee0f2c4	0.43935215
105	0xbf402562	-0.7505704
106	0x3f89a0fe	1.0752256
107	0xbf23d183	-0.63991565
108	0x3baacae2	0.005212174
109	0xbe3a367e	-0.1818485
110	0xbe6a3997	-0.22873531
111	0xbf92dade	-1.1473043
112	0xbee253d5	-0.44204584
113	0xbeb0782c	-0.34466684
114	0x3ea72ab7	0.32649776
115	0xbec23d1e	-0.37937254
116	0x3fa6c3a2	1.3028452
117	0xbee5810b	-0.44825014
118	0xbc5c598e	-0.013449086
119	0x3d9369ee	0.07197939
120	0x3f18c22d	0.5967129
121	0xbe926717	-0.28594276
122	0xbf46c276	-0.77640474
123	0xbf5d4f4c	-0.8644912
124	0xbeb73aa7	-0.35786936
125	0x3f0a7e56	0.54099023
126	0x3f435ec6	0.7631649
127	0x3f9bcc86	1.2171791
128	0xbf9ecb8a	-1.2405865
129	0xbcdf8f57	-0.02729003
130	0xbe874d4a	-0.26426154
131	0xbe908d45	-0.2823278
132	0xbe651d6d	-0.22374506
133	0x3e863eff	0.26219937
134	0xbf1fbbb2	-0.62395775
135	0xbeebd056	-0.46057385
136	0xbfa7224a	-1.3057339
137	0xbf216819	-0.63049465
138	0xbe32fc0c	-0.17478961
139	0x3f1e18e0	0.61756706
140	0xbe5ba3bd	-0.2144918
141	0x3ec51190	0.38489962
142	0x3e8dddaf	0.27708194
143	0x3f833870	1.0251598
144	0x3f4d2961	0.80141264
145	0x3f3696eb	0.7132403
146	0xbf2718c7	-0.6527218
147	0x3d8b40be	0.06799458
148	0xbf06dc5e	-0.52680004
149	0xbf0509ca	-0.5196806
150	0xbe6d25b0	-0.23158908
151	0x3f36ba96	0.7137846
152	0x3f9df539	1.2340461
153	0x3e4cb568	0.19991076
154	0x3daa7545	0.08323149
155	0xbe9acef9	-0.30236033
156	0x3e9ce086	0.30640048
157	0x3f05da6f	0.5228643
158	0xbf367d24	-0.712847
159	0xbe87abfa	-0.26498395
160	0xbdf4564c	-0.11930522
161	0xbeb5c62e	-0.35502762
162	0x3c4905d4	0.012269456
163	0x3ed2aa97	0.41145775
164	0x3dd66c46	0.1046987
165	0xbf8d4ccf	-1.1039065
166	0xbf0aca8d	-0.5421532
167	0x3e017f31	0.12646176
168	0xbf1bc704	-0.6085055
169	0x3f455c75	0.77094203
170	0x3f322c6f	0.6959905
171	0xbe306dfc	-0.17229456
172	0xbed97292	-0.42470223
173	0xbe010493	-0.12599401
174	0x3ed5e0ff	0.4177322
175	0x3e9c7223	0.3055583
176	0x3cd4dca9	0.025984125
177	0x3ec053e4	0.37564003
178	0xbe48479a	-0.19558564
179	0xbed7d5e1	-0.42155364
180	0xbe937ac8	-0.28804612
181	0xbf62f677	-0.88657326
182	0x3eb203c1	0.3476849
183	0xbf62db9c	-0.8861635
184	0x3e9b6b46	0.3035528
185	0x3ee6f9e1	0.45112517
186	0xbe00a848	-0.12564194
187	0xbf016d2c	-0.5055721
188	0xbe18bb98	-0.14915311
189	0x3f68b43c	0.90900016
190	0xbf88e998	-1.0696287
191	0x3eaf442e	0.34231704
192	0xbf5eb691	-0.86997324
193	0xbdbd383d	-0.09239242
194	0x3dadf7df	0.08494543
195	0xbece46b1	-0.40288308
196	0x3dcb42c3	0.09924843
197	0xbdbdbf4c	-0.092650026
198	0x3d2a2a3d	0.041544188
199	0x3ef3f3f4	0.4764706
200	0x3dabf93c	0.08397147
201	0x3ef2b72f	0.47405383
202	0x3e4409ea	0.19144407
203	0x3e3a0359	0.1816534
204	0xbe835e51	-0.25657895
205	0x3ee5679d	0.44805613
206	0xbea919f2	-0.33027607
207	0xbed39005	-0.41320816
208	0xbe816c7e	-0.25278085
209	0x3e624c70	0.22099471
210	0xbfa0ac7e	-1.255264
211	0x3d816c53	0.06319489
212	0xbc301266	-0.010746574
213	0x3fb029bb	1.3762735
214	0xbf3e5bce	-0.7435883
215	0xbf84a094	-1.0361505
216	0xbf27274c	-0.6529434
217	0x3f164c20	0.5870991
218	0x3e26c23b	0.1628503
219	0xbf0892cc	-0.53348994
220	0xbef2bce2	-0.4740973
221	0xbf243703	-0.6414644
222	0xbedd1076	-0.4317662
223	0x3da2901e	0.079376444
224	0xbea5c8fa	-0.32379895
225	0xbeacba56	-0.33735913
226	0x3da4ded7	0.08050316
227	0xbd79723b	-0.060899954
228	0x3e945d22	0.28977305
229	0xbe3c8dbc	-0.18413442
230	0x3f0e12f1	0.5549765
231	0x3f21cbc8	0.6320157
232	0xbe6b1ef5	-0.22961028
233	0x3d1ca976	0.038247548
234	0x3e8a18b8	0.26971984
235	0xbf1cce35	-0.61252147
236	0x3ed3f857	0.41400406
237	0xbe346936	-0.1761826
238	0xbdeee085	-0.116639175
239	0xbee1b471	-0.44082978
240	0xbe93cf90	-0.28869295
241	0xbf41b3c4	-0.75664926
242	0xbf750b26	-0.95720136
243	0xbf839e5f	-1.0282706
244	0x3f24ed11	0.64424235
245	0x3dd2f07c	0.10299775
246	0xbef2b561	-0.47404006
247	0xbd8f954e	-0.070108995
248	0xbebc705b	-0.3680447
249	0xbdb1ae45	-0.086758174
250	0xbf4240aa	-0.7587992
251	0x3d8f82cb	0.07007369
252	0xbf453804	-0.770386
253	0xbfbe12ce	-1.4849489
254	0xbf9af1f5	-1.210509
255	0x3ddc12eb	0.10745796

embeds.6.weight f4 [32, 11]
0	0xba2c6086	-0.00065756624
1	0x3ab59771	0.0013854337
2	0x3a05e5dd	0.00051077997
3	0xba776a74	-0.0009438165
4	0x3a1eff50	0.0006065266
5	0xb8b3b8a8	-8.56978e-05
6	0xba427c15	-0.00074190024
7	0x39d87e2a	0.0004129273
8	0xb9b97b8b	-0.00035377996
9	0xb81ed1f6	-3.7865677e-05
10	0x38121cf3	3.4836074e-05
11	0xbe33616f	-0.17517637
12	0x3fbbbf2e	1.4667718
13	0xbed83a57	-0.4223201
14	0x3efdca00	0.49568176
15	0x3f1bbd89	0.6083608
16	0xbe30ccf2	-0.1726568
17	0x3f550411	0.8320933
18	0x3daf6a5f	0.085652106
19	0x3da217fa	0.079147294
20	0xbe95c1db	-0.29249462
21	0x3e802ac9	0.25032642
22	0x3d96e3e1	0.07367683
23	0x3f086c16	0.53289926
24	0xbf07666c	-0.5289066
25	0x3f617afd	0.8807829
26	0x3f151ec4	0.5825007
27	0x3c9231d1	0.01784602
28	0x3d2667b5	0.040626246
29	0x3dc0c3b2	0.09412326
30	0x3f81e28e	1.0147264
31	0xbf03b563	-0.5144865
32	0x3f2f6a17	0.68521255
33	0xbec81fb9	-0.39086702
34	0xbf5b9cf4	-0.85786366
35	0xbf009ac5	-0.5023616
36	0xbf3756ea	-0.71616995
37	0xbe021dd0	-0.12706685
38	0xbde4a3f1	-0.11164082
39	0x3f49daa0	0.7884922
40	0xbe7ddc19	-0.24790992
41	0xbf328a65	-0.69742423
42	0x3eb2fd1b	0.3495873
43	0xbda620e3	-0.081117414
44	0x3f0f6d03	0.56025714
45	0x3dbd0f70	0.0923146
46	0x3ecc9e38	0.3996446
47	0x3fadbd7e	1.3573453
48	0x3f145839	0.5794712
49	0x3f5ee291	0.8706446
50	0xbf8716cd	-1.0553833
51	0xbfa5c05f	-1.2949332
52	0x3f0fca4c	0.56168056
53	0x3ed41deb	0.41429076
54	0xbe7332d3	-0.23749857
55	0xbe6ae258	-0.22937906
56	0xbf5d462b	-0.8643519
57	0xbe63dce9	-0.2225224
58	0x3e381748	0.17977631
59	0xbecc10df	-0.39856622
60	0xbf8ea569	-1.1144229
61	0x3ea7af27	0.32750818
62	0xbdbb6e05	-0.09151844
63	0x3f26c8be	0.6515006
64	0x3ee17d16	0.44040745
65	0xbe757bce	-0.23973009
66	0xbf6f74a4	-0.93537354
67	0xbe570c03	-0.21000676
68	0xbec3bdd2	-0.3823076
69	0xbc78be14	-0.015182037
70	0x3e072f7b	0.13201706
71	0xbf5e2ef7	-0.8679041
72	0x3f02dbc3	0.5111658
73	0xbda873a6	-0.08225183
74	0x3dc569f3	0.09639349
75	0x3eda3022	0.42614847
76	0xbe9f14ac	-0.3107046
77	0xbfa91332	-1.3208983
78	0xbf026c90	-0.50946903
79	0xbe5dba54	-0.2165311
80	0xbf89da4a	-1.0769742
81	0xbefb51a6	-0.4908573
82	0x3e42ad49	0.19011416
83	0x3fb564c1	1.4171373
84	0x3f83d847	1.0300378
85	0xbf134844	-0.57532144
86	0xbf4d5cd9	-0.802198
87	0xbe523f6e	-0.20532009
88	0xbe5c4a11	-0.21512629
89	0xbf2f2dab	-0.6842906
90	0xbf6039b5	-0.87588054
91	0xbf12d35b	-0.5735375
92	0x3f026806	0.5093998
93	0xbf3ad9f0	-0.72988796
94	0x3e97f720	0.2968073
95	0x3f2a40c5	0.6650508
96	0xbf87eb26	-1.0618637
97	0x3ee61dd5	0.44944635
98	0x3e8b4e8c	0.27208364
99	0x3ef7c290	0.48390627
100	0xbf25764a	-0.6463362
101	0xbe19d811	-0.15023829
102	0xbf5088d2	-0.8145877
103	0xbf18ee89	-0.59738976
104	0x3e95f0f1	0.29285386
105	0xbe861a72	-0.2619205
106	0x3f3b351d	0.7312792
107	0xbe8a30c7	-0.2699034
108	0x3e9b4388	0.3032496
109	0xbead2562	-0.33817583
110	0x3f8fda97	1.1238583
111	0x3eb8c82b	0.36090216
112	0x3f8fc9d5	1.1233469
113	0x3f3a6636	0.7281221
114	0x3f28dcde	0.65962017
115	0x3f8d1c22	1.102421
116	0xbf3c0c09	-0.73455864
117	0xbf6dc238	-0.9287448
118	0x3da16c14	0.078819424
119	0xbf2b6748	-0.6695447
120	0x3f99c862	1.2014277
121	0x3f7e37b3	0.9930374
122	0x3eff7775	0.49895826
123	0xbea8db96	-0.3298003
124	0x3f95dc6b	1.1707891
125	0xbed57abb	-0.41695198
126	0x3e491099	0.19635238
127	0xbec4ff35	-0.38475958
128	0xbe844c6d	-0.25839558
129	0xbeea6fc8	-0.45788407
130	0x3e27a588	0.16371739
131	0x3f3b2a7a	0.7311169
132	0x3f09293c	0.53578544
133	0x3e8e7689	0.2782481
134	0xba82373c	-0.0009934674
135	0x3f241416	0.6409315
136	0xbed19674	-0.409351
137	0x3e3f228f	0.18665527
138	0x3f4fd1dd	0.811796
139	0xbeb424d7	-0.35184357
140	0xbed6a9ae	-0.4192633
141	0x3f02b5f8	0.5105891
142	0x3f3ac27d	0.72953016
143	0xbf338583	-0.701256
144	0x3d750c56	0.059826218
145	0x3eae4968	0.3404038
146	0x3f15b8e9	0.58485276
147	0x3d7c24d3	0.061558556
148	0x3fa3be09	1.2792369
149	0xbe106dc6	-0.14104375
150	0xbe811f24	-0.2521907
151	0x3f67ce15	0.9054883
152	0x3edd1be8	0.43185353
153	0x3de07dca	0.10961492
154	0x3e6c299d	0.23062749
155	0x3e59b540	0.21260548
156	0xbe2f48a0	-0.17117548
157	0xbe9e97a1	-0.3097506
158	0x3e78d111	0.24298503
159	0xbe946523	-0.2898341
160	0xbe923dc2	-0.28562742
161	0xbd0e420e	-0.034730963
162	0x3e2c9f74	0.16857702
163	0xbee087aa	-0.43853503
164	0x3ea6502c	0.3248304
165	0x3f1f467f	0.62216944
166	0x3f8e9f33	1.1142334
167	0x3f508749	0.8145643
168	0x3eb00fc2	0.34387022
169	0xbe606e16	-0.21916994
170	0x3e72d122	0.2371259
171	0xbf1a9ff9	-0.6040035
172	0xbf2acacd	-0.667157
173	0x3f032f43	0.5124399
174	0xbf34ad4d	-0.70576936
175	0x3eddb454	0.43301642
176	0x3e83ab30	0.25716543
177	0xbcd2cdef	-0.025732962
178	0xbeac230c	-0.3362049
179	0x3dc31c86	0.09526925
180	0xbf02a6f4	-0.51036
181	0x3ea39afd	0.31954184
182	0x3f287445	0.65802413
183	0xbf453a04	-0.7704165
184	0xbf1f92b5	-0.6233323
185	0x3d4894d9	0.048970077
186	0x3f90d006	1.1313484
187	0xbec3709d	-0.38171855
188	0xbd85c352	-0.06531395
189	0xbe640545	-0.22267635
190	0x3f2d5ce7	0.6771988
191	0x3dc621b5	0.09674398
192	0x3e599a2c	0.21250218
193	0x3f3d62d2	0.7397891
194	0xbdb7778c	-0.08958349
195	0xbea9658c	-0.33085287
196	0x3d6e297e	0.05814504
197	0x3f54352a	0.8289362
198	0x3e9867d8	0.29766726
199	0x3d0fedf8	0.035139054
200	0x3e8e1b60	0.2775526
201	0x3f5f63e3	0.8726179
202	0xbec93656	-0.39299268
203	0x3ea8e2c3	0.32985505
204	0x3ecb1ea4	0.39671814
205	0xbea14d6a	-0.31504375
206	0x3e96cf83	0.29455194
207	0xbe8db5f9	-0.27677897
208	0x3f1c6297	0.61087936
209	0x3e827299	0.25478056
210	0x3e81b8ee	0.25336403
211	0x3ccb2476	0.02479766
212	0x3f0a39f3	0.53994673
213	0xbf7b1b93	-0.9808895
214	0x3ed5ab62	0.41732317
215	0xbf0115cf	-0.504239
216	0xbda7936e	-0.08182417
217	0x3f233abf	0.63761514
218	0xbe4f4d92	-0.20244434
219	0x3f8fa962	1.1223567
220	0xbf85138a	-1.0396588
221	0xbeead0d8	-0.4586246
222	0x3e39de96	0.18151316
223	0x3daffc6c	0.085930675
224	0x3ec964fe	0.39334863
225	0x3f023027	0.50854725
226	0x3f3e7724	0.74400544
227	0xbeae387e	-0.34027475
228	0x3ec55c37	0.38546917
229	0xbf118472	-0.5684272
230	0xbec79add	-0.3898534
231	0xbee1d62f	-0.44108722
232	0xbecc3e71	-0.3989139
233	0xbe384842	-0.17996314
234	0x3d7511eb	0.05983154
235	0x3f00c6ed	0.50303537
236	0xbf5317ad	-0.82458
237	0x3f887b0c	1.0662551
238	0xbf571ea8	-0.8403115
239	0xbdbcf02e	-0.09225498
240	0x3f572e1c	0.8405473
241	0x3ea0034a	0.3125251
242	0x3f1d66c3	0.61484927
243	0x3f842d3f	1.0326308
244	0x3c85c2da	0.016328264
245	0x3f205c2d	0.6264065
246	0x3f122c37	0.57098716
247	0xbf38e5c1	-0.72225577
248	0xbf14c1f4	-0.5810845
249	0x3ef0c48f	0.47024962
250	0x3e858c00	0.26083374
251	0xbec47367	-0.38369295
252	0x3f6ea36c	0.9321811
253	0xbefdd1ae	-0.49574035
254	0x3d90a7c6	0.0706325
255	0x3d1d5898	0.038414568

embeds.7.weight f4 [8, 5]
0	0x3ad57486	0.0016285337
1	0x3a0e9f0a	0.0005440569
2	0xba232b8c	-0.00062244455
3	0xb9961c61	-0.00028631373
4	0xb98ddd3e	-0.00027058454
5	0xbe2380ce	-0.15967104
6	0xbeafb6af	-0.34319064
7	0x3eaa26a9	0.3323262
8	0xbea69414	-0.3253485
9	0xbd53a9c2	-0.051675566
10	0xbf3896a1	-0.7210484
11	0x3edaddc0	0.42747307
12	0x3f5e3003	0.8679201
13	0xbee3f7e1	-0.44525054
14	0x3e3af4df	0.18257473
15	0xbf6246f2	-0.88389504
16	0x3eba2d0f	0.36362502
17	0x3eb3d7d6	0.35125607
18	0x3e6ea50b	0.23305146
19	0xbdc787e4	-0.09742716
20	0x3e3b38ff	0.18283461
21	0x3cd958fd	0.02653169
22	0xbf0e04d3	-0.5547611
23	0x3f067b10	0.5253153
24	0xbe83b3ee	-0.25723213
25	0x3e9582d0	0.29201365
26	0xbe1158d8	-0.14194047
27	0xbeb4bdb9	-0.35300997
28	0x3f1b8555	0.60750324
29	0x3d31fd3e	0.0434544
30	0x3db30e92	0.087430134
31	0x3f110bec	0.56658816
32	0x3f455235	0.7707856
33	0xbe907057	-0.28210708
34	0x3f4a05c8	0.7891507
35	0x3e7843a6	0.24244556
36	0x3b53330c	0.0032226471
37	0xbeef0580	-0.46683884
38	0x3f463f31	0.7744017
39	0x3eab1798	0.33416438

embeds.8.weight f4 [3, 3]
0	0xba9a52f4	-0.001177399
1	0x39ff1285	0.00048651188
2	0xba92ef16	-0.0011210169
3	0x3d54313a	0.05180476
4	0x3e2f789f	0.17135857
5	0x3e852aeb	0.26009306
6	0xbdb190ac	-0.08670172
7	0x3e25e9bd	0.16202445
8	0xbe081c88	-0.13292134

embeds.9.weight f4 [3, 3]
0	0xba89e3e3	-0.0010520186
1	0xba02c2ad	-0.00049881154
2	0xba6867ac	-0.0008865546
3	0x3e9ab0b1	0.3021293
4	0x3e0a9f4d	0.13537331
5	0x3e22d8ee	0.15903065
6	0xbf013369	-0.5046907
7	0x3f407b0d	0.7518776
8	0xbf51661e	-0.81796443

embeds.10.weight f4 [3, 3]
0	0xbacf92d4	-0.0015836605
1	0x3a935416	0.001124027
2	0x388707c0	6.438745e-05
3	0x3cfb0fc8	0.030647174
4	0x3db57d60	0.08861804
5	0xbdeefa40	-0.11668825
6	0x3f02395b	0.5086877
7	0xbf1facbd	-0.6237295
8	0xbd1e7340	-0.03868413

embeds.11.weight f4 [3, 3]
0	0xb981fdd5	-0.00024793917
1	0xb909644a	-0.00013102699
2	0xba3d9b07	-0.00072328787
3	0xbe792983	-0.24332242
4	0x3e6906d7	0.22756515
5	0x3dc1cd16	0.09462945
6	0x3f936051	1.1513768
7	0x3f437b40	0.7635994
8	0x3f7e0034	0.9921906

embeds.12.weight f4 [3, 3]
0	0x3ac315f7	0.0014883865
1	0xba71716e	-0.0009210323
2	0xba575554	-0.0008214314
3	0xbda73aec	-0.08165535
4	0x3e37e338	0.17957771
5	0x3e5c4528	0.21510756
6	0xbf35917a	-0.70925105
7	0xbede180c	-0.4337772
8	0xbe01112d	-0.12604208

embeds.13.weight f4 [3, 3]
0	0xbaa6ed71	-0.0012735558
1	0xba192d78	-0.0005843262
2	0x3a8c243c	0.0010691951
3	0x3e471d27	0.19444714
4	0xbe5ff1e7	-0.21869622
5	0x3e81c89d	0.25348368
6	0x3fea1ca3	1.8289989
7	0xbfaf9452	-1.3717139
8	0x4024e045	2.5761883

embeds.14.weight f4 [3, 3]
0	0x3845263c	4.700407e-05
1	0xb9b72848	-0.00034934492
2	0x3a8251e6	0.000994262
3	0xbdb6c96c	-0.08925137
4	0xbe527ca0	-0.20555353
5	0xbd9014e9	-0.07035238
6	0xbfe665e4	-1.7999845
7	0xc07efffd	-3.9843743
8	0xbfe24f25	-1.7680403

embeds.15.weight f4 [3, 3]
0	0x3aab32b4	0.0013061375
1	0x384878b7	4.779614e-05
2	0x39d213ee	0.0004006917
3	0x3b97db52	0.0046342993
4	0xbdc3847e	-0.09546755
5	0xbebf0a78	-0.37312675
6	0x406315f1	3.5482142
7	0xbfb7cd0c	-1.435945
8	0x3fad432a	1.3536122

embeds.16.weight f4 [3, 3]
0	0x3ab5648f	0.0013839173
1	0x3ac8ed28	0.0015329467
2	0xb9ee68b7	-0.00045472916
3	0x3dfc340b	0.12314614
4	0xbe8d4f0f	-0.2759938
5	0x3d097e67	0.033567812
6	0xbe6d3c4b	-0.23167531
7	0xc0043681	-2.0658267
8	0xbfcdd8aa	-1.6081746

embeds.17.weight f4 [3, 3]
0	0x388b9586	6.6558874e-05
1	0xba94d5a8	-0.0011355178
2	0xb7eb4f57	-2.8051129e-05
3	0xbe68b1b3	-0.22724037
4	0x3db7a73f	0.089674465
5	0xbe131f01	-0.14367296
6	0x3fa3faeb	1.2810949
7	0xc04fd939	-3.2476332
8	0xbfa792de	-1.3091695

embeds.18.weight f4 [102, 21]
0	0x3994ab87	0.00028356558
1	0x3a90f6c1	0.0011059867
2	0xb94c2c96	-0.00019471566
3	0x39fda28a	0.0004837702
4	0xb8b6b4c0	-8.7121036e-05
5	0x39629d71	0.00021611691
6	0xba103a1c	-0.0005501823
7	0x3a675514	0.00088246283
8	0xba9c08b8	-0.0011904454
9	0xbaf894b5	-0.0018965217
10	0x39ac1c44	0.00032827456
11	0x3a428d8e	0.0007421606
12	0xba984001	-0.0011615754
13	0xba834a6d	-0.0010016687
14	0xba87b15d	-0.0010352541
15	0x3ad12ebd	0.0015959364
16	0xb897c2d3	-7.23653e-05
17	0xba3a0820	-0.00070965476
18	0xb8d59a7c	-0.000101854064
19	0x3aa2d065	0.0012421726
20	0xb92724c5	-0.00015940059
21	0xbfe37838	-1.7771063
22	0x3f69be80	0.91306305
23	0xbf3609af	-0.71108526
24	0x3faa3c8c	1.3299727
25	0xbfa5011d	-1.2890965
26	0x3facf3a0	1.3511848
27	0x3f2bdd37	0.6713442
28	0x3fa90221	1.3203775
29	0x3fd6b743	1.6774677
30	0x3e543023	0.20721488
31	0x3f41e2f8	0.7573695
32	0xbec14f30	-0.37755728
33	0x3f716d8f	0.943078
34	0x3ee64a54	0.44978583
35	0xbe84993b	-0.25898156
36	0xbe9af3a5	-0.3026401
37	0xbd259aba	-0.040430762
38	0x3f190b23	0.5978262
39	0x3fa665a4	1.2999768
40	0xbfedaa6d	-1.8567635
41	0xbe0052cb	-0.12531583
42	0xbf949714	-1.1608605
43	0xbdb8b60c	-0.09019098
44	0x3f5e19f9	0.8675838
45	0x3e28559c	0.16438907
46	0xbf8acbbd	-1.0843426
47	0x3ee0f9c5	0.4394056
48	0x3f142267	0.57864994
49	0x3f0a9555	0.5413411
50	0xbdc004a0	-0.09375882
51	0x3ef535b9	0.4789255
52	0xbf7edffa	-0.9956051
53	0xbf096ace	-0.53678596
54	0xbe3de477	-0.18544184
55	0xbe00cca6	-0.12578067
56	0xbe9d2bad	-0.30697384
57	0x3fa8f3c4	1.3199391
58	0x3df278e6	0.11839466
59	0x3de733e5	0.11289195
60	0xbd702c4c	-0.058635995
61	0xbe0a40e5	-0.13501318
62	0xbee2315f	-0.44178292
63	0xbf26dc76	-0.65180147
64	0xbf8ac64a	-1.0841763
65	0xbe9c839d	-0.30569163
66	0xbee2b6e2	-0.44280154
67	0xbf85ad9a	-1.0443604
68	0xbe26be24	-0.1628347
69	0xbeb88b48	-0.36043763
70	0x3f81f8e7	1.0154084
71	0x3f6d7ec8	0.9277158
72	0x3d97536b	0.073889576
73	0xbecba251	-0.39772275
74	0xbeb417d4	-0.3517443
75	0xbecf1654	-0.40446723
76	0xbea0ff84	-0.31444943
77	0x3e12e471	0.14344956
78	0x3faac59a	1.3341553
79	0x3edcf99c	0.43159187
80	0x3f1cf61d	0.6131304
81	0x3f0d879e	0.5528506
82	0x3f08ea65	0.5348266
83	0x3e9c5821	0.30535987
84	0x3f888bac	1.0667624
85	0x3e31c849	0.17361559
86	0xbe7c6143	-0.24646477
87	0x3f59e28b	0.851113
88	0xbe1b1d37	-0.15147863
89	0xbefb2d90	-0.490582
90	0x3e5b3738	0.21407783
91	0xbf64c0f4	-0.89356923
92	0xbf60b011	-0.87768656
93	0xbfa819bb	-1.3132852
94	0x3f8dd87d	1.1081692
95	0x3f56d3dc	0.8391702
96	0xbf3d9872	-0.7406074
97	0x3eb02e2f	0.34410235
98	0x3cf7b621	0.030238213
99	0xbf4f354d	-0.80940706
100	0xbfaad971	-1.3347608
101	0xbef1f17c	-0.4725455
102	0x3e85f6ed	0.26164952
103	0xbf3f16a5	-0.7464393
104	0xbf6a7b87	-0.9159474
105	0x3ed8c0d5	0.4233462
106	0x3f866c7d	1.0501858
107	0xbe3957a6	-0.18099841
108	0xbf48782e	-0.7830838
109	0xbef8b45d	-0.48575106
110	0x3e7aa52e	0.24477074
111	0x3e898711	0.2686086
112	0x3ebe4f71	0.37169984
113	0xbea19667	-0.3156006
114	0x3f10fcf2	0.56635964
115	0x3e29a47b	0.1656665
116	0x3f6d484b	0.92688435
117	0x3f6e2c22	0.9303609
118	0x3fca22be	1.5791852
119	0x3e384ef8	0.17998874
120	0x3edae818	0.42755198
121	0xbd1de3ee	-0.03854745
122	0x3e89d52e	0.26920456
123	0xbe3f8196	-0.18701777
124	0x3efb520d	0.49086037
125	0x3e913fb5	0.28368917
126	0x3bbfa7a5	0.005848842
127	0x3f0c5568	0.5481782
128	0xbc5cdb85	-0.013480072
129	0xbfdd6c30	-1.7298641
130	0xbf21658f	-0.6304559
131	0xbf404889	-0.7511068
132	0x3ef5e4ef	0.48026225
133	0x3f0b7d96	0.54488504
134	0x3e98a647	0.2981436
135	0x3f3f8c15	0.74823123
136	0xbeed28b7	-0.46320125
137	0x3d142877	0.036171403
138	0x3f814ff4	1.0102525
139	0x3f475abc	0.77872825
140	0x3f0ffe3f	0.56247324
141	0xbf4f8693	-0.8106472
142	0x3f64d8af	0.8939313
143	0x3e843316	0.25820225
144	0x3eb5f4c4	0.35538304
145	0x3f177980	0.5916977
146	0x3f61e52e	0.88240325
147	0x3ea707d4	0.3262316
148	0x3dce9705	0.100873984
149	0xbf3b9b80	-0.7328415
150	0xbe711d4c	-0.23546332
151	0xbf7bff5f	-0.9843654
152	0xbdbfc126	-0.09363012
153	0xbe919d3d	-0.28440276
154	0xbf908122	-1.1289408
155	0xbe1e1a17	-0.1543964
156	0x3eb2e286	0.3493845
157	0x3f9cb39a	1.224231
158	0xbf0912da	-0.5354439
159	0x3e78f830	0.24313426
160	0x3ea0c658	0.31401324
161	0x3dab8562	0.0837505
162	0xbea0a012	-0.31372124
163	0xbf1473dd	-0.57989293
164	0xbf221226	-0.6330894
165	0x3e54192a	0.20712724
166	0x3e7d1574	0.24715215
167	0xbf348615	-0.7051709
168	0x3dcf6026	0.10125761
169	0x3f0350f3	0.51295394
170	0xbe63990c	-0.22226351
171	0x3f5a1533	0.851886
172	0x3ee15744	0.4401189
173	0x3ec702d4	0.38869345
174	0xbe900125	-0.28125873
175	0x3e8f1354	0.27944434
176	0xbc8dfb80	-0.017331839
177	0xbf1f53b5	-0.622371
178	0x3e939881	0.2882729
179	0x3dc4d298	0.0961048
180	0xbfd2cde7	-1.6469086
181	0x3eec494c	0.4614967
182	0xbfbffc43	-1.4998859
183	0x3ebc633d	0.36794463
184	0xbe95a776	-0.29229325
185	0xbf107f4d	-0.56444246
186	0xbfa0d180	-1.2563934
187	0xbf47642b	-0.7788722
188	0xbf14f5c2	-0.58187497
189	0xbfd186ed	-1.6369301
190	0xbf2258cb	-0.6341674
191	0xbcd7c292	-0.026337896
192	0xbf0ed293	-0.5579006
193	0x3b37d0fc	0.0028048148
194	0x3e9b3b66	0.30318755
195	0xbf4a6746	-0.7906383
196	0x3e28949d	0.16462941
197	0x3e9cb6ae	0.30608124
198	0xbf1dc27f	-0.616249
199	0xbf7889c6	-0.97085226
200	0xbeb815d2	-0.35954148
201	0x3ea52913	0.322579
202	0xbf6c3bb9	-0.9227863
203	0x3f51bd84	0.819298
204	0xbeccbe2e	-0.39988846
205	0xbf0f8124	-0.5605643
206	0xbe832731	-0.25615838
207	0x3f574778	0.8409343
208	0x3f8fa6a8	1.1222734
209	0x3f9cd562	1.2252619
210	0xbe903281	-0.2816353
211	0x3d45f248	0.04832676
212	0xbec1c115	-0.37842622
213	0xbded2b32	-0.115805045
214	0xbf7812af	-0.9690351
215	0x3f0b6a74	0.5445931
216	0xbb9a14dc	-0.0047021937
217	0x3f7a652a	0.97810614
218	0x3ee9e0cb	0.45679316
219	0x3f617236	0.880649
220	0x3e0b3d36	0.13597569
221	0x3ddf8a87	0.10915094
222	0x3f9547ab	1.1662496
223	0xbe067915	-0.13132127
224	0x3f953474	1.1656632
225	0xbdb7e99c	-0.08980104
226	0xbf86916a	-1.0513127
227	0x3f837437	1.0269841
228	0x3fcf316f	1.6186961
229	0xbee8c565	-0.454631
230	0xbdda182d	-0.106491424
231	0xbf2dc617	-0.67880386
232	0x3ee8593c	0.4538058
233	0x3f292291	0.6606837
234	0x3ea0f529	0.31437042
235	0x3f47345f	0.77814287
236	0xbf343e08	-0.7040715
237	0xbf0fcc1f	-0.5617084
238	0x3ecc7fb3	0.39941177
239	0xbe0b0ec9	-0.13579859
240	0x3e8400d8	0.25781894
241	0x3e6a1670	0.22860122
242	0xbd0f9edb	-0.035063606
243	0xbe83cb47	-0.25741026
244	0x3e9f4d82	0.3111382
245	0xbea3445a	-0.31888086
246	0xbf4edd0a	-0.8080603
247	0xbfb726b1	-1.4308683
248	0xbf6f425e	-0.93460643
249	0x3d9ae996	0.07564084
250	0xbf40e247	-0.7534527
251	0xbeac2129	-0.3361905
252	0xbdac5661	-0.08414913
253	0xbeb554d8	-0.35416293
254	0x3f8ed468	1.1158571
255	0x3eea00d1	0.45703748

embeds.19.weight f4 [46, 14]
0	0xbab2cbef	-0.0013641099
1	0xba59f42b	-0.0008314277
2	0xb94e9470	-0.00019700988
3	0xb75d19c0	-1.3178622e-05
4	0x3a2b803f	0.00065422425
5	0x3a93595d	0.0011241842
6	0x3aedc480	0.0018140227
7	0x3a35f8f7	0.00069417007
8	0x3afcee20	0.0019297041
9	0xb8fb6d72	-0.000119889984
10	0xba06eb20	-0.00051467307
11	0x3a97e084	0.0011587297
12	0x387e4925	6.062644e-05
13	0xbae678b0	-0.0017583575
14	0x3ff328e4	1.8996854
15	0x3faedfc3	1.3662037
16	0x3edc5cf2	0.43039662
17	0x3f77ea4a	0.9684187
18	0x3e885ba3	0.26632413
19	0x3fa238da	1.26736
20	0x3f7e2e0a	0.99289
21	0xbf2a4104	-0.66505456
22	0xbf80fc60	-1.0077019
23	0x3f13d768	0.5775056
24	0x3f5636dd	0.83677465
25	0xbe96f644	-0.2948476
26	0x3f0ae0fe	0.5424956
27	0xbf5017c7	-0.8128628
28	0x3fc556f1	1.5417157
29	0x3f34177d	0.7034834
30	0xbed35876	-0.41278428
31	0x3e79695c	0.24356598
32	0x3f18c8ef	0.596816
33	0x3d234aa4	0.039866105
34	0x3f79df87	0.976067
35	0xbf3f61e4	-0.74758744
36	0xbf9d28d5	-1.2278086
37	0x3f03d2b2	0.5149337
38	0x3f3bd692	0.73374283
39	0xbf8c0839	-1.0940009
40	0xbd59c2dd	-0.05316435
41	0xbf441af8	-0.7660365
42	0x3f89a2bb	1.0752786
43	0xc007f742	-2.1244664
44	0xbfb47d16	-1.4100673
45	0xbf496f3f	-0.78685373
46	0xc0350653	-2.828511
47	0xbebe233d	-0.3713626
48	0x3e45004c	0.19238394
49	0x3f3e0660	0.7422848
50	0x3f0384d1	0.51374537
51	0xbf81faac	-1.0154624
52	0xbe99ca25	-0.30037037
53	0xbe134462	-0.14381555
54	0x3c81dca0	0.015852273
55	0x3efed6dd	0.49773303
56	0x3fef99e7	1.8718842
57	0x3e8b4688	0.2720225
58	0x3de49e9c	0.11163065
59	0x3e8cc414	0.27493346
60	0xbf0831dd	-0.53201085
61	0x3d04940a	0.032367744
62	0x3fc52608	1.5402231
63	0xbead6b1e	-0.33870786
64	0xbfbb40fc	-1.4629207
65	0x3f47f2dc	0.7810495
66	0x3f69f205	0.9138492
67	0xbe684ffa	-0.22686759
68	0x3f15b6fe	0.5848235
69	0xbfda1687	-1.7038125
70	0x3f405f0c	0.7514503
71	0xbf262d18	-0.6491256
72	0x3ed6c96b	0.41950545
73	0xbec24cd1	-0.3794923
74	0xbfa0ae54	-1.2553201
75	0x3f45d588	0.7727895
76	0xc0217b5e	-2.5231547
77	0x3fbafb8b	1.4608015
78	0xbf0cde6c	-0.5502689
79	0xbffafdb7	-1.9608678
80	0xbf2cce7c	-0.6750257
81	0x3f03fa57	0.51553863
82	0x3f41e63c	0.75741935
83	0x3f27d39f	0.65557283
84	0x3f0edf68	0.5580964
85	0x3fa04900	1.2522278
86	0xbdd5d0cd	-0.10440216
87	0x3d52ee7e	0.051496975
88	0x3f56d957	0.83925384
89	0xbe39620f	-0.18103813
90	0x3f0eac1c	0.5573137
91	0xbf816bf8	-1.0111074
92	0x3f08ce19	0.5343948
93	0xbed9c552	-0.42533356
94	0x3ca29d2f	0.019850342
95	0xbf46817e	-0.7754134
96	0x3e11e0c1	0.14245893
97	0xbf130740	-0.5743294
98	0xbcf070b6	-0.02935062
99	0x40222041	2.5332186
100	0xbd82621c	-0.06366369
101	0xbeed00c3	-0.46289644
102	0x3f454ca6	0.7707008
103	0x3faa8cd8	1.3324232
104	0xbfa3d209	-1.2798473
105	0x3fec42fb	1.8457941
106	0xbf891a3c	-1.0711131
107	0xbfff56b4	-1.9948335
108	0xbd76673b	-0.060157042
109	0xbebbd917	-0.36689064
110	0x3bc1766c	0.0059040096
111	0xbf69ba9b	-0.9130036
112	0x3f3d99c1	0.74062735
113	0x3f835a73	1.0261978
114	0xbe77deae	-0.2420604
115	0xbecea4b9	-0.40360048
116	0xbe83e089	-0.25757244
117	0xbef554ae	-0.47916168
118	0xbdce8730	-0.10084379
119	0xbcd43ad2	-0.025906954
120	0x3d9243fc	0.07141873
121	0x3d8a5071	0.06753624
122	0xbcedb901	-0.02901888
123	0x3eac41ef	0.33644053
124	0xbf2ffd32	-0.6874572
125	0x3e79b711	0.2438624
126	0x3ffb5c95	1.9637629
127	0xbec2b289	-0.38026837
128	0x3f808bfd	1.0042721
129	0xbea864b4	-0.3288933
130	0xbff4fc18	-1.9139433
131	0xbfde92d2	-1.7388556
132	0xbf94f4a7	-1.1637162
133	0x3f7728df	0.9654674
134	0x3e456414	0.19276458
135	0xbff106c9	-1.8830196
136	0xbfd4865c	-1.6603503
137	0x3e53ae08	0.20671856
138	0xbffa9a80	-1.95784
139	0xbfd73ec9	-1.6816036
140	0x3fb15a70	1.3855724
141	0xbf8d7291	-1.1050588
142	0xc0139cb6	-2.3064399
143	0x400e0dc0	2.2195892
144	0x3f13036d	0.574271
145	0x3fc0ad6c	1.5052924
146	0x3f9f50b2	1.2446501
147	0xc01064fc	-2.2561636
148	0x3fec14b0	1.8443813
149	0x40009a7d	2.0094292
150	0xbfa42252	-1.2822974
151	0xc00480b6	-2.070356
152	0x400a7c39	2.163832
153	0xbfdfa31b	-1.7471651
154	0xbe9cc805	-0.30621353
155	0xbf22963c	-0.6351049
156	0xbf1aff56	-0.6054586
157	0xbf235885	-0.63806945
158	0x3ebcf761	0.36907485
159	0x3f27b81b	0.655153
160	0x3e82fac1	0.25581935
161	0xbbf8e3f5	-0.007595534
162	0x3fe74af2	1.8069746
163	0x3f3fd34b	0.7493178
164	0xbf1be49d	-0.6089571
165	0xbe1844e0	-0.14870024
166	0x3f21b9af	0.63173956
167	0x3f05c32f	0.5225095
168	0x3ffff94a	1.9997952
169	0xbf7dd541	-0.99153525
170	0xbfc43381	-1.5328218
171	0x3f8360d0	1.026392
172	0xbff89089	-1.9419109
173	0x3d619fb9	0.055083964
174	0x3f55ba6e	0.83487594
175	0xbf789458	-0.97101355
176	0x3fa86e3c	1.3158641
177	0x3e9acf31	0.302362
178	0xbfcab19b	-1.5835451
179	0xbf517055	-0.8181203
180	0x3ecb4060	0.39697552
181	0xbfaff876	-1.3747699
182	0x3fd9d4ee	1.7018106
183	0x3f3e4180	0.74318695
184	0xbf4a0fc6	-0.7893032
185	0xbe0c9976	-0.13730416
186	0xbefa27d7	-0.4885852
187	0xbf640e60	-0.89084435
188	0x3fcb1e5f	1.5868644
189	0xbf64c0f2	-0.8935691
190	0xbf8c0f10	-1.0942097
191	0x3e86d987	0.26337835
192	0x3eea8892	0.4580732
193	0xbf112aec	-0.5670612
194	0x3d8c625a	0.068546966
195	0xbe99f502	-0.3006974
196	0xbf429e8f	-0.7602319
197	0x3c9dbb51	0.019254358
198	0xbe396e4a	-0.18108478
199	0x3e0e442d	0.13893194
200	0x3f34ec7a	0.70673335
201	0x3fd62bda	1.6732132
202	0x3f6df1b1	0.92946917
203	0x3e8c6730	0.27422476
204	0xbf79f0b1	-0.9763289
205	0x3f9a93af	1.207632
206	0x3f86fe84	1.0546422
207	0xbf62d643	-0.8860819
208	0x3f2c95d9	0.6741615
209	0xbea09e91	-0.31370977
210	0x3dff0cf8	0.124536455
211	0x3ed1c403	0.40969858
212	0xbf0a290c	-0.5396888
213	0xbf34f665	-0.7068847
214	0xbfc0bb25	-1.5057112
215	0xbebc4837	-0.36773846
216	0xbf9479c4	-1.159966
217	0x3f889a6f	1.0672129
218	0x3fd0be2a	1.6308033
219	0xbfe5a342	-1.7940447
220	0xbf9db36f	-1.2320384
221	0xbf0c48c0	-0.5479851
222	0xbfea782f	-1.8317927
223	0xbfb52762	-1.4152644
224	0x3d147ae8	0.036250025
225	0x3f920844	1.1408772
226	0xbf27bc53	-0.65521735
227	0xbfa4247a	-1.2823632
228	0xbe89499a	-0.26813966
229	0x3e177149	0.14789309
230	0xbe74e53c	-0.23915571
231	0x3f3f4d0b	0.74726933
232	0x3ec092d1	0.37612012
233	0xbfc01ca2	-1.5008738
234	0xbf369b85	-0.71331054
235	0xbf7ff0ed	-0.99977
236	0xbfe4680a	-1.784425
237	0xbfd93c93	-1.6971611
238	0x3f06d383	0.5266649
239	0x3fb266e3	1.3937649
240	0xbfd171fa	-1.6362908
241	0x3fb0fef1	1.3827802
242	0xbfb08f71	-1.3793775
243	0xbe03fb05	-0.12888725
244	0x3f8734f9	1.0563041
245	0xbf875efd	-1.0575863
246	0xbfa3364f	-1.2750949
247	0x3e026b90	0.12736344
248	0xbf9ca0d5	-1.2236582
249	0x3f039c7d	0.5141066
250	0xbd1b0479	-0.037846062
251	0xbf45eb4a	-0.7731215
252	0x3e46ae88	0.19402516
253	0xbf06fcb9	-0.52729374
254	0xbff25a74	-1.8933854
255	0x3f9012c5	1.1255728

bn_cont.weight f4 [11]
0	0x3fc5ce68	1.5453615
1	0x3f24892c	0.6427181
2	0x3f062470	0.5239935
3	0x3e074d4a	0.13213077
4	0x3f1b4435	0.6065095
5	0x3f79b7e8	0.97546244
6	0xbf269db3	-0.6508438
7	0x3f0f89c6	0.560696
8	0x3ec4172c	0.3829893
9	0x403d5196	2.9581046
10	0x3f0c5210	0.5481272

bn_cont.bias f4 [11]
0	0xbead2b30	-0.33822012
1	0x3e811577	0.2521169
2	0xbfa5a613	-1.2941307
3	0xbfb714b6	-1.4303195
4	0x3f59db3c	0.8510015
5	0x3faa8b6f	1.3323802
6	0x3c665a63	0.014059636
7	0xbee09236	-0.4386155
8	0xbf104af0	-0.56364346
9	0x3f617d5c	0.8808191
10	0xbfa9dbb6	-1.3270175

bn_cont.running_mean f4 [11]
0	0xbc8127ae	-0.015765991
1	0x3d3daf81	0.04630995
2	0xbbab2987	-0.0052234563
3	0xbca4f9c9	-0.020138638
4	0xbc74ed23	-0.014949116
5	0x3b10db37	0.0022103318
6	0xbbe078db	-0.0068503446
7	0xbc65cd8c	-0.014026057
8	0x3c23c6a8	0.009996094
9	0x3b95dc74	0.004573399
10	0x3c7a78fc	0.015287634

bn_cont.running_var f4 [11]
0	0x3f84be86	1.0370643
1	0x3f7eaef5	0.99485713
2	0x3f5ea6c5	0.8697322
3	0x3f2f9e79	0.68601185
4	0x3f7e49fc	0.9933164
5	0x3f60e692	0.8785182
6	0x3f699716	0.91246164
7	0x3f7834c1	0.96955496
8	0x3f6bfe7c	0.9218519
9	0x3f7dbcd0	0.9911623
10	0x3f53769e	0.8260287

layers.0.weight f4 [100, 142]
0	0xbf2ea687	-0.6822285
1	0xbea21db6	-0.31663293
2	0xbe927c1b	-0.2861031
3	0x408632a1	4.1936803
4	0x4088d9c2	4.276582
5	0x4086f74a	4.2176867
6	0xbe0a0900	-0.13479996
7	0xbec9527b	-0.3932074
8	0xbea9318d	-0.33045617
9	0xbf2336db	-0.6375558
10	0x3faafce7	1.335843
11	0x3f37c2c0	0.7178154
12	0xbf0c64e4	-0.54841447
13	0xbddb1d76	-0.106989786
14	0xbdbcb6f9	-0.09214587
15	0xbf9d2019	-1.227542
16	0xbf642346	-0.89116323
17	0x3fd3aa86	1.6536415
18	0xbf8b4f0f	-1.0883502
19	0xbfbfe5cb	-1.4992002
20	0xbf79be3c	-0.975559
21	0x3faf6649	1.370309
22	0x3e7f8956	0.24954733
23	0xc0283670	-2.6283226
24	0xbe611e30	-0.21984172
25	0xbd279f26	-0.04092326
26	0xbea269e3	-0.3172141
27	0xbedf6b38	-0.4363649
28	0xbf43cc52	-0.76483643
29	0x3ed36085	0.41284576
30	0xbdc658f7	-0.096849374
31	0xbf89a61b	-1.0753816
32	0xbf6fc919	-0.93666226
33	0x3c84a602	0.01619244
34	0x3e85e96c	0.2615465
35	0xbd23a4b2	-0.039951988
36	0x3eaf46d2	0.3423372
37	0x3f1ab7ed	0.604369
38	0x3f83db74	1.0301347
39	0xbd18fb15	-0.037348825
40	0xbd94cb9d	-0.07265399
41	0xbe6ab6fa	-0.22921363
42	0x3f36aae9	0.7135454
43	0xbdee954d	-0.116495706
44	0x3f0a9fa6	0.54149854
45	0x3f1d3412	0.6140758
46	0xbd8be784	-0.068312675
47	0xbdb5becc	-0.08874282
48	0x3e87599d	0.26435557
49	0x3f580431	0.84381396
50	0xbe85e03a	-0.26147634
51	0x3eee3a76	0.46528977
52	0xbdfe3ced	-0.124139644
53	0xbb99f2dc	-0.0046981405
54	0x3f2c0ec5	0.67210037
55	0xbf9d2fda	-1.2280228
56	0x3ddd19d0	0.10795939
57	0x3f3132f6	0.69218385
58	0x3ed74cfc	0.42050922
59	0xbe993c60	-0.29928875
60	0xbeae271e	-0.3401422
61	0xbf0c45c5	-0.5479396
62	0xbe788dcf	-0.24272846
63	0x3f630311	0.88676554
64	0xbf719307	-0.9436497
65	0x3e10205d	0.14074846
66	0x3f10bebc	0.5654104
67	0x3e642457	0.22279488
68	0xbea26248	-0.31715608
69	0xbe6df2ba	-0.23237124
70	0x3ddd3e8a	0.10802944
71	0xbdb1c0e5	-0.0867937
72	0xbfa44946	-1.2834861
73	0x3f393aa3	0.723551
74	0x3e9efc3d	0.31051818
75	0xbf167d1a	-0.5878464
76	0x3efc791d	0.49311152
77	0x3f8d08c9	1.1018306
78	0xbe84dd26	-0.25949973
79	0x3ee562dd	0.4480199
80	0x3f2744a9	0.6533914
81	0xbf80a0a3	-1.0049022
82	0xbebbf5fa	-0.36711103
83	0xbe9b4b41	-0.30330852
84	0xbdddbacc	-0.10826644
85	0xbf0dfd37	-0.554645
86	0xbece791d	-0.40326777
87	0xbec7f267	-0.39052126
88	0x3f8ffc61	1.1248895
89	0x3e97d54e	0.29654926
90	0xbd86d767	-0.065840535
91	0xbf47ef64	-0.78099656
92	0xbf9816dc	-1.1881976
93	0x3e833b93	0.2563139
94	0x3dbdb88e	0.09263717
95	0xbf1cb3f3	-0.6121208
96	0xbedd77f6	-0.43255585
97	0xbcbef520	-0.023310244
98	0x3da5c5ad	0.08094344
99	0xbe3887d1	-0.1802056
100	0xbefbf8ee	-0.49213356
101	0x3e1a67e5	0.15078695
102	0xbea065ea	-0.31327754
103	0x3e6593fd	0.22419734
104	0x3f5e8f9f	0.869379
105	0x3ebca817	0.36846992
106	0x3d0aa4dd	0.033848632
107	0xbf746728	-0.95469904
108	0x3e7c1c94	0.24620277
109	0x3e89c350	0.26906824
110	0x3e993a5b	0.29927334
111	0x3e72ec7b	0.23723023
112	0x3f3403f0	0.7031851
113	0x3d349a94	0.04409273
114	0xbeb164c5	-0.34647194
115	0x3f08ffca	0.53515303
116	0x3ec5929d	0.3858842
117	0x4015d276	2.3409705
118	0x3f90800c	1.1289077
119	0x3fefe2b0	1.8741055
120	0xbd4db14a	-0.050217904
121	0x3fab8b82	1.340195
122	0xbc648f04	-0.013950113
123	0x3ece856c	0.40336168
124	0xbfc959d5	-1.573054
125	0x3e3dee87	0.18548022
126	0x3f4c3e3d	0.7978247
127	0x3fc18409	1.5118419
128	0x3ef78cf2	0.4834972
129	0xbf8624fd	-1.0480038
130	0x3f7b6636	0.98202837
131	0x3e8688e7	0.26276323
132	0xbfc4d9c0	-1.5378952
133	0x3f189b38	0.59611845
134	0x3f25aead	0.6471966
135	0xbd886800	-0.066604614
136	0xbe0a0b5e	-0.13480899
137	0x3f0bd726	0.54625165
138	0x3fecd0a0	1.8501167
139	0x3f507851	0.8143359
140	0xbe7d4742	-0.24734214
141	0x3adb9850	0.0016753767
142	0x40000adf	2.0006635
143	0xbe38e98f	-0.18057846
144	0xbee4e571	-0.447063
145	0x3ed316f0	0.41228437
146	0x3d9a472d	0.07533107
147	0x3e7d7540	0.24751759
148	0xc00772f8	-2.1163921
149	0x3f6295cc	0.8850982
150	0x3fea7cc0	1.8319321
151	0x3f7a7d15	0.9784711
152	0x3f136ae1	0.5758496
153	0x3f0d3429	0.55157715
154	0xbfc84dc3	-1.5648731
155	0x3f4bf2f6	0.79667604
156	0x3f822f20	1.0170631
157	0x3f61d9be	0.88222873
158	0x400d8ade	2.2116008
159	0xbf5c86d0	-0.8614321
160	0xc050f649	-3.265032
161	0xc05e2c0c	-3.4714384
162	0x3f81b84e	1.013437
163	0xbf2f47c3	-0.68468875
164	0xbeb6e7fd	-0.35723868
165	0x3f92fc64	1.1483274
166	0xc0089275	-2.133939
167	0x3f9c3910	1.2204914
168	0xbfc35edb	-1.5263323
169	0x3f98ca62	1.1936762
170	0x3e3e1ef7	0.185665
171	0xbf3f39f2	-0.7469779
172	0xbfa3e288	-1.2803507
173	0x3f0d4f03	0.5519869
174	0xbf1644b9	-0.5869861
175	0x3e9a2ce6	0.3011238
176	0xbf44474d	-0.76671296
177	0xbebb3cbb	-0.3656977
178	0x3e1a2a6f	0.1505525
179	0xbfc6bebf	-1.5526961
180	0x3d99766c	0.0749329
181	0x3e98e6ec	0.2986368
182	0xbe8b08aa	-0.27155048
183	0x3f410d30	0.7541075
184	0x3e9afe36	0.30272073
185	0x3e843c3e	0.2582721
186	0x3f80900e	1.0043962
187	0x3cdf018e	0.027222421
188	0x3ee760ed	0.45191136
189	0xbf9788fe	-1.1838682
190	0xba10b408	-0.0005519991
191	0xbfb6784e	-1.4255464
192	0xbd67028a	-0.056398906
193	0xbf1512a3	-0.5823156
194	0x3ebc6440	0.36795235
195	0x3f0287c8	0.50988436
196	0x3fbd9cfc	1.4813533
197	0x3ea602a3	0.32423887
198	0xbf2c4a83	-0.67301196
199	0xbe8698bf	-0.2628841
200	0x3e9eef08	0.3104174
201	0x3f049b78	0.51799726
202	0x3ee89572	0.45426518
203	0x3ff5bf43	1.9198993
204	0xbe86d306	-0.26332873
205	0xbfaa1668	-1.3288088
206	0x3f00df1e	0.5034045
207	0x3f5aa99f	0.8541507
208	0x3f0188d8	0.5059943
209	0x3ecdd9ca	0.40205222
210	0x3f9221d1	1.141657
211	0xbf821297	-1.0161923
212	0xbed27ec4	-0.4111234
213	0x3e6376c6	0.22213277
214	0xbf28eaa5	-0.6598304
215	0xbf1b5fc1	-0.60692984
216	0x3e08e943	0.13370232
217	0xbe572f8f	-0.21014236
218	0x3e896b52	0.2683969
219	0x3e4c85d9	0.19972934
220	0xbe8bd02d	-0.27307263
221	0xbf8ffff6	-1.1249988
222	0xbee5417a	-0.44776517
223	0x3f54c85c	0.83118224
224	0xbff653e5	-1.9244353
225	0x3fa8d856	1.319102
226	0xbf57d72c	-0.843127
227	0xbfb8d8f1	-1.4441205
228	0xbf551c01	-0.83245856
229	0xbf47defd	-0.7807463
230	0xbe63f256	-0.22260413
231	0xbec34dd2	-0.3814531
232	0xbf2fd02e	-0.6867703
233	0xbfa9e98c	-1.3274398
234	0xbe8d679b	-0.27618107
235	0x3f3e3167	0.7429413
236	0xbf1d69ba	-0.6148945
237	0x3e131062	0.14361718
238	0x3e9a2c0c	0.3011173
239	0x3c9132b2	0.017724369
240	0xbdfe78f7	-0.12425416
241	0x3dd1479a	0.10218735
242	0x3eb68687	0.3564951
243	0x3e15e0a6	0.14636478
244	0x3f9313f5	1.1490465
245	0xbf7e3c80	-0.99311066
246	0x3c758e62	0.01498756
247	0xbf6465ff	-0.89218134
248	0x3fbcca81	1.4749299
249	0x3e7161ec	0.2357251
250	0xbf4d08c0	-0.80091476
251	0xbe3b420c	-0.18286914
252	0x3e195e85	0.14977463
253	0x3d0cae30	0.034345806
254	0xbf949e02	-1.161072
255	0xbf9d0400	-1.2266846

layers.0.bias f4 [100]
0	0xbf4f9a6e	-0.81095016
1	0xbed0315e	-0.40662664
2	0xbfd763a8	-1.6827288
3	0xbf3bef32	-0.7341186
4	0xbfc970b0	-1.5737514
5	0xc0179c43	-2.3689125
6	0xbf8a18ef	-1.0788859
7	0xbff1b47d	-1.8883206
8	0xbfbaa821	-1.4582559
9	0xbf164189	-0.5869375
10	0xc00ea0d0	-2.2285652
11	0xbf2b8611	-0.67001444
12	0x3f1898aa	0.59607947
13	0xbf6aa78b	-0.916619
14	0xbebcdc58	-0.3688686
15	0xbfe4899c	-1.7854495
16	0x3dc34c90	0.095360875
17	0xbf66924c	-0.9006698
18	0x3e23cce4	0.15996128
19	0xbfaa4678	-1.3302755
20	0xbea051c4	-0.31312382
21	0x3f246652	0.6421863
22	0xbf94beda	-1.1620743
23	0xbe883fb8	-0.26611114
24	0xbfb9f6a1	-1.452839
25	0xc00089c7	-2.0084093
26	0xbf0a7501	-0.54084784
27	0x3f3ec5e6	0.7452072
28	0xbf5eb83f	-0.8699989
29	0x3f41fc9d	0.7577608
30	0x3c9c90c2	0.019111995
31	0xbf74805b	-0.95508355
32	0xbf831deb	-1.0243505
33	0xbfcfd77f	-1.6237639
34	0x3e212c25	0.15739496
35	0xbff71ef3	-1.930632
36	0xbfb3645b	-1.4015001
37	0xbe9eed69	-0.31040505
38	0xc0047c65	-2.0700924
39	0xbefd46cf	-0.49468085
40	0xbfb5e946	-1.4211814
41	0x401615af	2.3450735
42	0xbf8a1345	-1.078713
43	0xbfe4da43	-1.7879108
44	0xbf8a689d	-1.0813175
45	0x3e383486	0.17988786
46	0xbe2cdfb8	-0.16882217
47	0x3fb7fe4d	1.4374481
48	0xbf65cd4b	-0.8976638
49	0x3f58e033	0.847171
50	0xbe8127ed	-0.25225773
51	0x3da4f9cc	0.080554575
52	0xbd93570b	-0.071943365
53	0xbf57e6b3	-0.84336394
54	0xbf55f078	-0.8357005
55	0xbfc85fca	-1.5654233
56	0xbfa055e6	-1.2526214
57	0xbf983040	-1.1889725
58	0xbe3d28e2	-0.18472627
59	0xc013f73f	-2.3119657
60	0xbf220e50	-0.6330309
61	0x3e507672	0.20357683
62	0x3f1521c9	0.5825468
63	0xbfa3ffe8	-1.2812471
64	0x3fcc5746	1.5964134
65	0x3e1ca98f	0.15299056
66	0x3f16a0b2	0.5883895
67	0xc012d7e2	-2.2944264
68	0xbfbe0672	-1.4845717
69	0xbf23e049	-0.64014107
70	0xbe9db004	-0.30798352
71	0xbdd850b7	-0.1056227
72	0xbfc715ce	-1.5553529
73	0xbef8f705	-0.4862596
74	0xbf1c9903	-0.6117098
75	0xc00e57f2	-2.2241178
76	0xbf3a3afa	-0.7274624
77	0xbfac9b92	-1.3484976
78	0xbf142cd0	-0.5788088
79	0xc000f80e	-2.01514
80	0xbfd002a7	-1.625081
81	0xbfea3b82	-1.829941
82	0xbfd19cd1	-1.6375982
83	0xbf978bf8	-1.183959
84	0xbf5ae0d6	-0.8549932
85	0xbf2b135b	-0.6682641
86	0xc004ff49	-2.0780814
87	0x3f9e6d7f	1.2377166
88	0x3d991070	0.07473838
89	0xbf550aa8	-0.83219385
90	0xbf2dfdbc	-0.6796529
91	0xbfbb0284	-1.4610143
92	0x3f24be6b	0.64353055
93	0x3fa63820	1.2985878
94	0x3c332550	0.010934189
95	0x3f777325	0.9666007
96	0xbea2ecc7	-0.31821272
97	0xbf32d5f3	-0.6985771
98	0xbf2f7d8b	-0.6855094
99	0xbf4b6ff1	-0.79467684
