retail-case-study/models/final.pth (torch_old, 412536 bytes, 113 tensors)

embeds.0.weight f4 [3, 3]
000000 0b 50 20 3c 48 d1 4e ba ab 45 eb ba 34 5e 7c bc
       0.009784709 -0.00078894617 -0.001794984 -0.015403319
000010 63 60 15 bd 1e 9e d6 bb 38 74 2f ba d8 b4 94 bc
       -0.036468875 -0.0065496108 -0.0006693038 -0.01815264
000020 e6 72 2b 3d
       0.041857623

embeds.1.weight f4 [4, 3]
000000 7f 75 c1 b8 7a f8 89 3c 19 e9 50 3c a3 a5 ab 3d
       -9.2248425e-05 0.016842116 0.012750887 0.08381202
000010 fc 94 b1 bd f8 4f 5e 3d 91 6e 23 be f2 1d 83 3e
       -0.08670995 0.054275483 -0.15960146 0.25608784
000020 c5 b3 4f be 8d 81 2c 3e 3d ee a2 bd 09 19 47 3e
       -0.2028342 0.16846295 -0.079555966 0.19443144

embeds.2.weight f4 [82, 19]
000000 9c 24 20 3c f9 c6 c1 ba 9b 30 c8 ba 22 bd 04 bc
       0.009774353 -0.001478403 -0.0015273275 -0.008101733
000010 55 65 c3 bb 2f c3 ba bb 0e 48 2c bb 89 2f 2d bb
       -0.0059630075 -0.005699537 -0.0026288065 -0.0026426038
000020 15 24 7d ba 10 dd c7 bb 04 b7 81 bb f6 9a 70 3c
       -0.0009656561 -0.0060993508 -0.0039585847 0.014685383
000030 f9 95 83 3c b7 d6 a4 3b 55 bf f7 ba 8c 15 7b 3c
       0.016062723 0.005030479 -0.0018901626 0.015324961
000040 b0 2a d7 ba 80 83 fd 3a 3f 8f ea 3b 01 eb cf bd
       -0.001641592 0.0019341558 0.0071581895 -0.10152245
000050 8f 75 2a be 81 1d 61 3e 45 bf 14 3d a3 93 37 bd
       -0.16646408 0.21983911 0.03631522 -0.04481853
000060 e0 50 52 bd cc ef 22 be 3f 56 4e 3e ca e2 63 3d
       -0.05134666 -0.15911788 0.20150088 0.055636205
000070 a6 77 85 ba 54 9b b6 3d 38 c0 54 be df b6 d1 3c
       -0.0010182753 0.08916345 -0.2077645 0.025599895
000080 9a 28 87 3d b2 a3 62 3c 46 8d 28 3d 66 3c 7b 3e
       0.06599541 0.013832973 0.041150354 0.24534759
000090 1c 65 f5 3b 9c 33 29 3d b2 5f fa bd b2 b0 9b be
       0.00748886 0.041308984 -0.12225284 -0.30408245
0000a0 09 7b 68 3e cb 19 0e 3e 3b ba 14 be 62 66 2f be
       0.22703184 0.13877027 -0.14524166 -0.171289
0000b0 2f 61 9f be 62 ee 92 3e c1 a2 75 3d e8 9d 8c bd
       -0.31128833 0.28697497 0.059969667 -0.06866056
0000c0 06 70 45 3e 85 cd fe bd 41 fe 05 3c 0f 27 54 3e
       0.19281015 -0.124415435 0.008178295 0.20718025
0000d0 e4 2a 59 be 0a 75 14 3e 9d ac a4 3e 8a 4f a8 3c
       -0.21207768 0.14497772 0.32162943 0.02054574
0000e0 6d 76 0c 3e cc 95 a8 bd 6c a9 27 bd 6f ca b1 3d
       0.13717051 -0.082316965 -0.040933058 0.08681189
0000f0 ea 74 4c bb 57 78 9d bd 48 b0 fb 3c ad 5d 1c bc
       -0.0031197616 -0.07688969 0.030723706 -0.009543818
000100 d9 d2 8e bc 5e b3 38 3d b4 4e 5a bc 41 22 06 3b
       -0.017434524 0.045092933 -0.013324428 0.0020467194
000110 a0 4a 4a bd 03 f8 03 3c ef f9 63 bc 99 06 a8 bd
       -0.049387574 0.008054736 -0.013914569 -0.082043834
000120 49 89 f3 3d 6d c1 a1 3d 53 e2 90 3c 08 8c c8 bc
       0.118914194 0.07898221 0.017686045 -0.024480835
000130 f6 7f bb bd b1 c3 83 be 8c 7c 38 3e 77 4d 94 3d
       -0.09155266 -0.25735238 0.18016261 0.07241338
000140 8b 9a e4 bd b3 98 8c bd e5 e9 31 be 39 97 2a 3e
       -0.11162289 -0.068650626 -0.1737438 0.1665925
000150 12 db 95 3d aa bd 2d bd a3 73 b2 3d 1f 73 47 be
       0.07317175 -0.042417206 0.08713462 -0.19477509
000160 eb 39 0c 3d 7e be fd 3d 32 41 0a be 5c 14 b3 3d
       0.034234922 0.12389849 -0.13501433 0.087441176
000170 7f c9 8b 3e dd ba ae bd 19 a3 0a 3e 9e c2 78 be
       0.27302167 -0.08531735 0.1353878 -0.2429299
000180 80 93 53 bd ee f0 01 3d 59 d4 8e bc b1 b2 2d be
       -0.05165434 0.03172391 -0.01743524 -0.16962697
000190 30 36 e7 ba 7f c4 a2 bd a6 ed 1a 3e 8f cf 89 bc
       -0.001764005 -0.07947635 0.15129718 -0.016822604
0001a0 85 d2 95 bb a0 8b 2f bb cd f1 7d bc 84 39 20 bc
       -0.004572215 -0.0026786104 -0.015499544 -0.009779338
0001b0 a2 cf 86 3d 6e 46 ce bb b0 71 5f 3e 37 30 ad 3d
       0.065825716 -0.006295017 0.21820712 0.08456462
0001c0 9d 75 24 3d 16 07 c9 3c cd 13 60 bd 0f 61 f1 3c
       0.040151227 0.024539512 -0.054706383 0.029465226
0001d0 b9 ba 43 3c 4c 85 d9 bd 36 fe cd bc 78 92 97 3d
       0.011946374 -0.106211275 -0.025145631 0.074009836
0001e0 06 4d 27 bd 6e 99 f6 3c c3 05 0e be f7 34 2e 3e
       -0.04084494 0.030102458 -0.13869385 0.17012392
0001f0 bc 17 83 bc a3 66 86 3c ef 29 da bd b1 c6 94 bd
       -0.016002528 0.016406363 -0.106525294 -0.0726446
000200 ac 09 97 3a b7 ed 25 3d 35 33 da bc 22 53 f3 3d
       0.0011523268 0.040509906 -0.026635746 0.11881091
000210 58 5b bd bd 85 99 37 be c1 6e 58 bd 2f 8d 7a 3d
       -0.09245938 -0.17929657 -0.05284 0.0611698
000220 15 bd 55 3d 5d 76 6e be 85 ed 58 ba 8b 09 52 bd
       0.052182276 -0.2328734 -0.0008275139 -0.051278632
000230 43 30 08 3e 90 8e a5 ba 1b 21 ff bb f0 65 a4 3c
       0.1329966 -0.0012630988 -0.007785929 0.020068139
000240 1b c4 13 3d e3 21 a2 3b e7 77 07 3e 98 0d aa bc
       0.036075693 0.0049478873 0.13229333 -0.020758435
000250 c7 65 57 3e 09 64 22 3d a8 f2 2d 3d f4 40 da 3c
       0.21034919 0.039646182 0.042467743 0.0266423
000260 34 74 c0 bd 9b b1 66 be 5d d7 6e 3e ad 9e d5 3d
       -0.09397164 -0.22528689 0.23324342 0.10430656
000270 ad 4d e8 bd d2 1f cf bd 5e 7b 46 be 33 02 55 3e
       -0.113429405 -0.10113491 -0.19382998 0.2080162
000280 2e 86 81 3c 10 54 32 bd 02 ed 6e 3d 71 9e f3 bd
       0.015811052 -0.0435372 0.058331497 -0.11895455
000290 05 75 ba 3b 67 01 0e 3e de eb 4f be f0 e1 2b 3d
       0.0056902193 0.13867722 -0.2030482 0.041963518
0002a0 dc d4 8f 3e 06 2f 85 bb 4f 67 e3 3d 79 c9 c7 bd
       0.28092086 -0.0040644435 0.11103689 -0.09755225
0002b0 0c ed ad bd 16 cc de 3d 5b 22 83 3d 5b 23 40 be
       -0.08492479 0.1087877 0.06403037 -0.18763487
0002c0 eb 54 74 bd 67 d5 10 bd d4 53 93 3b d0 44 00 be
       -0.059651297 -0.035359766 0.004496077 -0.1252625
0002d0 f6 25 b6 3d c4 3b 96 3c 49 d6 a8 3d 4a ab 13 be
       0.08893959 0.018339045 0.08243997 -0.1442081
0002e0 66 cf 84 3d 12 45 ea bd 95 d1 6d 3e 2e eb 14 bc
       0.064848706 -0.11438955 0.2322448 -0.009089274
0002f0 28 fc 03 3e 32 dc 5a bd 19 27 34 be 33 e6 b6 3a
       0.12889159 -0.05343265 -0.1759304 0.0013954103
000300 1b 92 ea 3d 4a 05 41 3d fe 7a 33 be a7 f9 21 3c
       0.11453649 0.047124185 -0.17527387 0.009886182
000310 8a ba 40 bd b6 6e 8e 3c fe 8f c6 bc 17 cd a9 bc
       -0.047052898 0.017386775 -0.024238583 -0.020727677
000320 35 24 37 3d 96 93 be 3c 3c f7 56 bd d7 26 fc 3d
       0.044712264 0.023263734 -0.052481875 0.123120956
000330 9a 17 ab bd 10 25 7a 3e 17 ac ce 3b fc f0 8c 3d
       -0.08354111 0.244282 0.006307136 0.068819016
000340 18 63 67 3b 63 75 a5 bd 69 6b 76 bd 05 46 e1 3d
       0.0035306867 -0.0807903 -0.060161028 0.10999683
000350 f8 eb 95 3c 3b fe ee bd ab 5d 18 bd a6 8b 30 bd
       0.018300995 -0.11669584 -0.037198704 -0.04310193
000360 58 38 35 bc ab b0 5e 3d 33 4c ae bc 53 95 06 bd
       -0.011060797 0.054367702 -0.021276569 -0.03285725
000370 dd 2d 4f 3d c4 08 bd bb 84 92 59 3d 8e ca cf bd
       0.050580848 -0.005768867 0.053118244 -0.10146056
000380 70 c1 1a 3e 25 08 f2 3c e4 e2 95 3c 09 b8 76 3c
       0.15112853 0.0295449 0.018296666 0.015058526
000390 b4 66 c1 bb 27 a4 85 3a 46 f5 47 3d 70 3d d2 bd
       -0.0059021357 0.0010196016 0.048817895 -0.102656245
0003a0 4d 24 0a bd c8 2c 74 3d e6 cb 3b bc c4 e4 0d bd
       -0.033726025 0.05961302 -0.011462187 -0.034641996
0003b0 7e 5c 74 bd 3b 91 a2 3d 67 30 b0 bd e8 cc 3e bc
       -0.05965852 0.07937857 -0.08602982 -0.011645533
0003c0 ab 79 91 bd 7f d1 e9 bd 09 60 f3 bd ab bb 0a 3d
       -0.071032844 -0.11416911 -0.118835516 0.03387038
0003d0 63 9b 80 bc a6 ea 81 3d 22 c4 0e be dc 19 82 bd
       -0.015699094 0.06343584 -0.13942006 -0.063525885
0003e0 69 91 a3 be 70 29 9b 3e 9c dd c4 3d df 24 a9 bd
       -0.31946877 0.30305052 0.09612581 -0.08258986
0003f0 7d 3a 34 be 84 9b 5d be 8d 9d 58 3e d8 7a 53 3d
       -0.17600437 -0.21641356 0.21153851 0.051630825

embeds.3.weight f4 [4, 3]
000000 6d 97 9c 3a dd fc 3a 3b 38 6b b0 ba bc 2a 9d be
       0.0011946984 0.0028532066 -0.0013459688 -0.30696666
000010 59 dd c3 3e 05 b2 97 be c6 25 61 3d 19 53 90 bc
       0.38254812 -0.29628006 0.054967664 -0.017617749
000020 af 06 17 3d d1 33 e8 bc fd 64 a6 3b dd a8 81 bc
       0.03687161 -0.02834502 0.0050779567 -0.01582759

embeds.4.weight f4 [13, 7]
000000 14 db 00 3c c4 0f cf 3b 92 d0 92 bb 34 5b 7e bb
       0.007864732 0.006319018 -0.00448043 -0.0038811686
000010 f6 6c a6 39 c2 2c f8 3b c9 44 0a bc 0e 3a c3 3d
       0.0003174317 0.007573695 -0.008439251 0.095325574
000020 e0 0f 79 bc 64 1d 85 bd 73 46 1b bc b5 f9 9e bd
       -0.015201539 -0.064997464 -0.009477246 -0.077624716
000030 83 ee d7 bc 14 db 9f bd f5 1d 0f bd bb cc 6a 3d
       -0.026358848 -0.07805458 -0.03494068 0.057324152
000040 70 62 36 bd 05 90 94 bd 75 51 91 bb 2f ec 31 3d
       -0.04452747 -0.07254032 -0.0044347593 0.043438133
000050 4d c5 a8 3d 00 5a 46 3d 49 e1 6c bd 40 18 7f 3c
       0.08240757 0.048425674 -0.057832036 0.0155697465
000060 17 4a 5b bc b4 08 59 bc 8b de 33 bd b0 1d 36 3d
       -0.013384364 -0.013246704 -0.043913405 0.044461906
000070 c9 6c 1f 3c e2 e5 b9 bc ae ed 92 3a 51 64 a7 3c
       0.009730526 -0.022692624 0.001120975 0.020433577
000080 3c 22 24 bc 17 73 f6 3b d2 cb 03 3c 99 e0 36 bd
       -0.010017928 0.007521044 0.0080442 -0.044647787
000090 6a 62 88 3d 76 84 87 ba ec 3e 8e bd 5c ba 0e 3d
       0.06659396 -0.0010339159 -0.06945595 0.034845695
0000a0 f0 a2 88 3c de 5d 58 3d c8 46 b6 bd 64 34 0b ba
       0.016679257 0.052823894 -0.08900219 -0.0005310236
0000b0 bd b0 1e bd da 73 ab bd f1 c4 ef 3c b9 7c 90 3d
       -0.03874277 -0.08371706 0.029268714 0.07055039
0000c0 23 8a a6 bc ec 6a 36 bd 74 63 5f 3d 0d 95 44 bd
       -0.02032954 -0.044535562 0.054538205 -0.04799371
0000d0 e1 e0 df bd 82 37 2c bb ae 85 a9 3d 7e 99 9d bd
       -0.10931564 -0.0026278202 0.082774505 -0.07695292
0000e0 2a f7 a9 bb ea 3b 1c 3c a5 45 c6 39 db b4 9f bd
       -0.005186935 0.009535769 0.00037817392 -0.07798167
0000f0 ad 26 0b bb 5c ba 90 3d 39 7e 57 3c 5c b6 ae 3d
       -0.002123277 0.07066795 0.013152652 0.08530876
000100 12 a0 af bd 7f d5 b2 bc bf de 99 3c f5 d7 94 3c
       -0.08575453 -0.021830318 0.018782971 0.018169383
000110 60 1b 37 bd ef 7d 15 3d 85 02 1c 3e 5c 09 58 bc
       -0.04470384 0.036497053 0.15235336 -0.013185825
000120 76 c6 3b 3d ae 2e 95 3d 7b a4 c2 bb 24 82 d6 bd
       0.045843564 0.07284294 -0.0059400178 -0.10474041
000130 02 fa 60 bd 75 1d cb 3c dd 49 59 bc bb c9 30 3d
       -0.054925926 0.02479432 -0.013262239 0.043161135
000140 46 95 3d 3d 18 d1 84 3d 31 62 a9 bd 6e a4 8e bc
       0.046284936 0.06485194 -0.08270682 -0.01741239
000150 5e 19 05 3e e3 18 30 bd 7e 05 a5 3d 8c 0b aa 3d
       0.12997958 -0.042992484 0.08057688 0.08302984
000160 f4 58 a2 ba e5 ba f0 bd 9d 92 92 bd
       -0.0012386129 -0.11754397 -0.071568705

embeds.5.weight f4 [53, 15]
000000 d4 eb 82 bc 06 1f d6 bb 1e 2d bc bb 19 a4 87 bb
       -0.015981592 -0.00653446 -0.005742683 -0.004139435
000010 c5 8a 04 3c 88 1d 5a bb c0 ec 2b 3c 01 e4 80 ba
       0.008089726 -0.0033281762 0.010493457 -0.0009833575
000020 b4 0d 86 3c 1a 93 32 bc 69 fb 5c bc 2a 77 05 bc
       0.016363956 -0.01089933 -0.013487675 -0.008146087
000030 da 31 26 3b 62 b7 4f 3c fa 52 08 3c f4 d3 af ba
       0.0025359304 0.012677999 0.008320564 -0.0013414607
000040 65 a5 72 3b a6 51 5c 3d 61 6e 78 bc 68 ae 5d 3d
       0.0037024852 0.053788804 -0.015163035 0.054121405
000050 02 d5 91 3d b7 99 8c 3d 0a 9b 2b 3d d1 9a 18 3d
       0.07120706 0.06865256 0.041895904 0.03725702
000060 4b 37 a8 3b 4a 88 85 bc 26 96 77 3a 37 c9 14 3e
       0.0051335446 -0.01630034 0.0009444676 0.14529882
000070 89 ce 0e 3d 75 de e3 3c 3c b6 cd bd 6b e3 b7 bd
       0.034864936 0.027816037 -0.10044524 -0.089789234
000080 55 a1 36 3d ed fc 4d 3d a0 e9 8a bd 6f 1c b1 3d
       0.044587452 0.050290037 -0.06782842 0.086480014
000090 d2 e0 f5 3d 71 6c d5 3d a1 bc 78 bd 0c 66 8b 3d
       0.12005772 0.10421074 -0.060726766 0.06806573
0000a0 e9 37 16 bd ce d1 f9 bb d4 9b 88 3d 86 1d 8a bd
       -0.036674414 -0.0076238876 0.06670347 -0.067439124
0000b0 eb cb b7 3d d4 ee 60 3c 0a a5 0b be 48 1d e7 3d
       0.08974441 0.013728816 -0.13637176 0.11284882
0000c0 5e 38 fa 3d d1 18 98 bd c7 e7 93 bc b3 13 6c 3d
       0.122177824 -0.07426608 -0.018054856 0.057635974
0000d0 cb 6e bf bc cb 51 da 3d dc cc 40 3c 6d cc 3e 3d
       -0.02336826 0.10660132 0.011767592 0.046581674
0000e0 73 79 16 bd 7f 3d 6a 3d 47 4a 3c bd 45 fd e6 bc
       -0.036736917 0.057187553 -0.045969274 -0.02819694
0000f0 73 35 e9 b9 e3 e9 02 be e7 62 9d 3d bc f3 05 3e
       -0.00044481046 -0.12784533 0.0768488 0.13081259
000100 a5 b9 2c be 9b dd 1c 3d d1 67 08 3e 67 97 4a 3d
       -0.16867693 0.038297277 0.13320853 0.049460795
000110 ae 21 69 bd 9d c8 5c bd 4a b6 34 3d e1 47 17 bc
       -0.056916885 -0.053902257 0.044119157 -0.009233446
000120 2f 8d 94 3d a5 d9 92 3d 4e 20 b0 b9 b4 b2 ed 3d
       0.07253491 0.07170419 -0.00033593405 0.116063505
000130 29 ac 59 3d 3a 01 15 bd ae f6 43 bd 44 56 15 3d
       0.0531427 -0.036378123 -0.047842674 0.036459222
000140 0f be d4 bd d4 4c b7 bd ef eb 79 bc 58 88 ac bd
       -0.10387813 -0.08950201 -0.015254005 -0.08424443
000150 51 19 bd bc 8f 97 15 bd 0f 24 3f bc aa 40 06 bc
       -0.02308336 -0.03652149 -0.011666312 -0.008194128
000160 8e 49 5a 3b b8 0e 3d bc c3 9a 4a bd 3e 9a 98 bd
       0.0033308002 -0.011539154 -0.049464 -0.07451294
000170 57 6c 31 3c a1 5f 43 3d f2 2e 24 bd f0 eb 9c 3c
       0.010829053 0.04769862 -0.040083833 0.019155473
000180 d7 ac 5f 3d 16 6e 89 3d 0a c7 45 3d 0b 9e 9d bc
       0.054608192 0.0671045 0.04828552 -0.0192404
000190 f7 7e 0d bd d4 bb 96 3d 31 ca 82 3d a7 ed 0f bd
       -0.03454491 0.07360044 0.06386221 -0.035138752
0001a0 21 fe d6 3c 87 a6 30 bd 48 de 24 bc f9 c4 31 3d
       0.026244225 -0.043127563 -0.010062762 0.04340074
0001b0 c8 3a 00 bd ae 3c b1 3c 59 79 a2 3b e5 20 83 bc
       -0.03130606 0.02163538 0.0049583134 -0.016006896
0001c0 ef d6 b7 bc 05 44 8c 3c 98 10 d7 bc 83 e2 a6 3d
       -0.022441356 0.017122278 -0.02625303 0.081486724
0001d0 84 d4 c6 3b 99 f3 f3 bd 7a b3 da 3d 1d 2f b8 3d
       0.0060678143 -0.11911697 0.10678764 0.08993361
0001e0 8a bd 90 3d c2 83 0d 3d 8c 62 fd bb ee 32 90 3d
       0.07067402 0.034549482 -0.007732695 0.07040964
0001f0 de 1b db 3b f1 b9 88 bd 61 7e 10 bc ba 27 35 3d
       0.0066866716 -0.066760905 -0.008819194 0.04422734
000200 dc 6b 50 bd b7 65 21 bc a4 d3 cc 3c 26 82 0a 3d
       -0.050884113 -0.009850911 0.025003262 0.033815525
000210 7e 7e 6a bd 07 bd 8d bd 47 a7 28 bd 65 73 6c 3c
       -0.05724954 -0.0692082 -0.041175153 0.014431809
000220 e6 c3 85 3d ed c9 ad 3d 51 e8 1d 3a 19 77 ef 3d
       0.06531505 0.0848578 0.00060236925 0.11692638
000230 72 13 87 bd ab 35 c1 bd 18 d2 49 3d 74 52 06 3d
       -0.06595506 -0.094340645 0.049272627 0.032793477
000240 46 1c f4 3d 7d a5 ff 3c 15 03 de 3d d7 14 cd bb
       0.11919455 0.03120684 0.108404316 -0.006258588
000250 32 1b 93 bc ae 86 4e bd 0c fa f7 3c fb d1 11 3d
       -0.017957304 -0.05042141 0.030270599 0.035600644
000260 6a dc 86 3c 64 03 01 3c ef 6f 2c bb 61 3d a8 bd
       0.016462523 0.007874344 -0.0026311835 -0.08214832
000270 61 cf 72 bd fa 42 46 bd c8 12 aa 3c 36 fc 66 bc
       -0.059279803 -0.048403718 0.020760909 -0.014098218
000280 27 ab a0 3d fb 32 b8 3d ea d9 80 bd d8 80 c1 bc
       0.07845145 0.08994099 -0.06291564 -0.023621008
000290 1c fe 51 bd 60 fd 25 3d 8f 94 f3 3d 1f 4a 96 bd
       -0.05126773 0.04052484 0.1189357 -0.07338356
0002a0 b3 69 48 bd 11 c0 da 3b 8f ee 60 3d 71 32 c8 bc
       -0.048928928 0.006675728 0.054915007 -0.024438115
0002b0 fd 0a a8 bd 5e 60 a5 3b db ed 07 3d 8a e3 00 bd
       -0.08205221 0.0050468883 0.03318582 -0.031467
0002c0 df 3a 7a bc 11 65 3a 3d 64 8d 0c bd bc 5c 24 3d
       -0.015272825 0.04550654 -0.034314528 0.0401275
0002d0 fb 30 ef bd 7e 95 f2 bc b2 a4 ac bd 20 54 4b 3d
       -0.11679264 -0.029612299 -0.08429851 0.049640775
0002e0 31 e2 db bc 13 48 e4 3d 09 8a d0 3d 18 1c 6d 3b
       -0.026841255 0.111465596 0.10182578 0.0036180075
0002f0 3c 74 62 3d bf e1 9c bd 5f ff f0 3d 12 bf a9 bd
       0.05528663 -0.07660245 0.11767458 -0.08288397
000300 40 e8 5d bd aa 53 db 3c 25 f3 83 3d 09 85 76 3c
       -0.05417657 0.026773293 0.064428605 0.0150463665
000310 59 51 04 3c 0a f0 cf 3d bf de bc 3d 25 17 ab 3c
       0.008076035 0.10153206 0.09222173 0.02088506
000320 3b 59 ac bb 31 62 c3 3c 4b b8 86 bd cb 52 52 bc
       -0.0052596605 0.023850532 -0.0657812 -0.012837122
000330 dc 76 1f 3d 9d 73 64 bd 26 e4 41 39 58 7b 3e bd
       0.038931713 -0.05577432 0.00018490906 -0.04650435
000340 4a 69 04 bd 1b 36 18 bd c0 97 f2 3a bc 37 de 3d
       -0.032326974 -0.037160974 0.001850836 0.10850474
000350 3f fe 81 bd 4b 0d a7 bd e1 bd 70 3d 51 1d 46 3d
       -0.06347322 -0.08156832 0.058774833 0.048367802
000360 9e 32 85 bd 38 51 06 3d 2e 07 7b 3d b8 7e 41 bd
       -0.06503795 0.0327923 0.061286144 -0.04723999
000370 4a 28 df 3d a6 d0 4c bd 95 28 09 bd f3 2b 24 3d
       0.108963564 -0.05000367 -0.033485968 0.040080976
000380 47 c2 39 bc 94 75 f3 bb 2f 46 87 bd c6 fe b5 bd
       -0.011337823 -0.007429788 -0.06605183 -0.08886485
000390 d8 ce b4 3c 0f e1 d7 bd a4 31 91 3c e5 79 56 3d
       0.022071287 -0.105409734 0.017723866 0.05236234
0003a0 5c ca 25 3d 55 90 9d 3b 39 ea 21 bd 7c 60 77 3d
       0.040476188 0.0048084655 -0.039530013 0.06039475
0003b0 c8 4a 82 3d 76 55 8b bd 2c 55 0f bd cf 56 80 3d
       0.0636192 -0.0680341 -0.034993336 0.062665574
0003c0 35 0b 9d 3c 11 71 40 bc b0 d8 3d bd 2b 77 af 3c
       0.019170383 -0.011745707 -0.046349227 0.021419128
0003d0 f9 92 2c 3d f3 1b cd bd 64 9b 49 3d f6 0f b1 bc
       0.04213235 -0.100150965 0.049220458 -0.021614056
0003e0 6c f8 94 bc c4 98 c2 bd db 1e 41 bd 9b bd aa bc
       -0.018184863 -0.09501794 -0.047148567 -0.020842364
0003f0 14 e3 8d bd ff 2f cd bc 6f bc e7 bc bb 13 29 3a
       -0.06928077 -0.0250473 -0.028288094 0.00064497784

embeds.6.weight f4 [32, 11]
000000 bf f3 04 bc e4 83 3d bc 20 b3 0a 3c dc e3 c2 3a
       -0.008114754 -0.01156709 0.008465558 0.0014868933
000010 97 81 15 3c 0a c2 08 3b c8 39 b8 bb 2c 6d 76 bc
       0.009125135 0.002086761 -0.0056221224 -0.015040677
000020 fe be 14 bc 5a fc 66 bc b1 08 fd bb cd c9 ad 3d
       -0.009078739 -0.014098251 -0.0077219834 0.08485756
000030 71 aa 2f 3e ff be dd 3d 1e 93 fe 3c f2 1c ed bb
       0.17154862 0.10827445 0.03107601 -0.0072361166
000040 34 fa 5c bc 2e 33 f4 3b ed ad 77 3d 4b 35 87 3c
       -0.013487387 0.00745239 0.060468603 0.016504904
000050 26 21 23 3c fb 65 58 3d 20 a1 39 b7 23 81 aa bc
       0.009956634 0.05283163 -1.1064374e-05 -0.02081353
000060 8e f3 b5 bd e3 3b 72 3d ad a2 c8 bc 4e 57 80 bd
       -0.08884345 0.059139144 -0.024491632 -0.06266652
000070 57 fb df bd 3d 0a ec 3d 00 4c 98 3d 47 6e a4 bd
       -0.10936611 0.1152539 0.07436371 -0.08028846
000080 ff a3 8a bd fb 88 dc bc 4b fa 77 3c 0f a4 1f bc
       -0.06769561 -0.026920786 0.015135358 -0.009743704
000090 44 f0 06 3d 38 5e c7 3b 0d 96 14 3c f4 28 e8 3c
       0.03294398 0.00608423 0.009068978 0.02833984
0000a0 1d 89 00 bd 4e 9b b2 bd 78 c3 b9 bb 3e 00 51 3d
       -0.03138076 -0.08721028 -0.0056690536 0.05102562
0000b0 7d 53 45 3d d8 ab 1a bd 42 23 35 3d b4 de a0 3c
       0.048175324 -0.03776154 0.044223078 0.019637443
0000c0 15 86 56 3d cb 01 b9 bc 55 fc f7 bc 88 93 c5 3d
       0.052373964 -0.022583863 -0.030271688 0.0964728
0000d0 7d d2 36 3d 37 ea 54 bd ea 71 b2 3b e6 ce da 3c
       0.04463433 -0.051981177 0.0054457085 0.026709985
0000e0 1e 9c e7 3b 28 0b ab bd 85 69 50 bd af 1b c6 3c
       0.007068171 -0.08351737 -0.05088188 0.024183122
0000f0 bc 91 ec 3c af e6 49 3d d8 c2 a6 bd 05 0e ed bc
       0.028878085 0.049292263 -0.08142632 -0.02893735
000100 04 2a 71 ba 8d e1 ef bc 8f 18 b8 3c bc d3 29 bd
       -0.0009199681 -0.029282356 0.022472648 -0.04146169
000110 59 59 99 3d 1a db 80 bd 5d 47 38 bd 1e 03 bd 3c
       0.07487745 -0.0629179 -0.044989932 0.023072775
000120 d2 1b e4 3d 14 0d 08 be 7f 6b c4 bc c8 49 05 3e
       0.11138119 -0.13286239 -0.02397704 0.13016427
000130 d5 59 8f 3d aa 79 9c bc e6 ac bc 3c b1 1c 06 3d
       0.06999556 -0.019100983 0.023031663 0.032742206
000140 bb fd f2 bd d9 eb 81 3c 51 29 11 3e e2 7f 0a 3e
       -0.118648015 0.015859531 0.14175917 0.13525346
000150 b4 9e 90 bd 46 64 3a 3c 5e 87 7e 3d ce 2a 30 3c
       -0.0706152 0.011376446 0.062140815 0.010752393
000160 4e fb bb bd aa 93 59 bd 19 c2 47 3d 69 7b 0b bd
       -0.09178792 -0.05311934 0.04876909 -0.03405324
000170 c3 67 89 3d e4 82 d9 ba 12 ec 1b 3c 98 75 42 bd
       0.06709244 -0.0016594795 0.009516733 -0.047475427
000180 65 5d e2 bb d8 ab 17 3d 2c ee 00 3e 58 94 09 3d
       -0.006908106 0.037029117 0.12590855 0.033588737
000190 b4 0d 36 3c 16 15 8d bd cc 46 80 bc d3 d9 0e 3d
       0.0111116655 -0.068887874 -0.015658759 0.034875702
0001a0 db 95 01 3d 3b 6a 16 3e d4 3e 86 bd 3b 5b 09 bd
       0.031637054 0.14688961 -0.06554952 -0.03353427
0001b0 d2 40 8c 3d 63 f8 a8 3d 4c ef d4 3c 55 f9 17 bd
       0.06848301 0.08250501 0.025993012 -0.037103016
0001c0 c4 0d 85 3c a5 36 15 3e bf 0e 46 bc 20 03 96 bd
       0.016241916 0.14571626 -0.012088477 -0.07324815
0001d0 5f e3 0b be f0 de 29 3e e5 a7 96 3d 66 ac f1 bd
       -0.13660954 0.1658895 0.07356242 -0.118004605
0001e0 90 6b c0 bd 3c 82 c2 3d b8 4c 78 bb 56 e6 2a 3c
       -0.09395516 0.094974965 -0.0037887525 0.010430893
0001f0 a6 43 d8 3c a3 d3 6d bb 98 ed 94 bd 21 f2 b7 bd
       0.026399445 -0.0036289475 -0.0727188 -0.08981729
000200 39 ad 54 3d f0 95 a8 3c bb de 75 bb a7 6f 7a bd
       0.05192301 0.020579308 -0.003751679 -0.061141636
000210 46 17 69 3c 47 d6 b8 3c fc c8 a1 3b b3 57 d5 39
       0.01422674 0.022563113 0.0049372893 0.00040691867
000220 fe f3 57 3d 5c 79 4f 3d e7 52 42 bd 45 41 f0 3d
       0.052722923 0.050652847 -0.047442343 0.11731199
000230 23 86 ba 3d de fb bc bd bf 9f 4a bd a7 0e fb bc
       0.09107616 -0.09227727 -0.049468752 -0.030646635
000240 58 34 3f 3d 56 f8 6e bd 97 70 81 3c 43 ef 0d 3d
       0.04668078 -0.0583423 0.015800757 0.034652006
000250 a6 b5 0b 3d fd fe 0d 3d 09 6f 7c bd b5 07 5d 3c
       0.03410878 0.034667004 -0.06162933 0.013490607
000260 44 63 28 3d bb ce fc 3d f5 fb 22 3c bb 51 fa 3c
       0.041110292 0.12344118 0.009947767 0.03055655
000270 11 f1 7f 3d 69 5e a4 bd 90 a2 97 3d 8b 21 d1 bc
       0.06248576 -0.0802582 0.07404053 -0.02552869
000280 33 72 86 3c 5f 1c 9f bc db ba a8 bd 55 a7 30 bc
       0.016411876 -0.019422708 -0.08238765 -0.010782083
000290 68 f0 d3 3d 3e ca 53 bd ff 4a 46 3c 97 f5 0f bd
       0.10348588 -0.051706545 0.012102841 -0.035146322
0002a0 4e ae b9 bd 40 46 18 bd 88 ee 13 3d 08 ed 13 bd
       -0.09066449 -0.03717637 0.036116153 -0.036114722
0002b0 9e 0a 64 3b 29 24 ab 3d a9 32 0b 3d 71 f9 28 3d
       0.0034796367 0.083565064 0.03398386 0.04125351
0002c0 d8 6e 1e bd 0c a0 63 bd 25 aa 6e bd 0f 0a 5e bd
       -0.038679928 -0.055572554 -0.05826773 -0.05420881
0002d0 43 c4 9b bb 78 c8 9d 3b 2f 92 f7 bc ae d9 1a bd
       -0.004753621 0.0048151575 -0.030221073 -0.03780525
0002e0 75 c8 8b 3c 00 77 9d 3b ef f1 92 3d 35 ac 12 bd
       0.017063359 0.0048054457 0.071750514 -0.03580876
0002f0 4e c6 8c bd 8a 5b 87 bc 01 0b b6 bd 93 3e d3 bc
       -0.06873761 -0.016523141 -0.088888176 -0.025786674
000300 26 44 18 3c 95 f8 56 3d c8 c9 98 bc 4e 9f 86 3d
       0.009293592 0.05248316 -0.018650904 0.06573354
000310 16 97 a1 3d 74 97 a8 bc 29 82 d4 3d 9a 8d 75 3d
       0.078901455 -0.020580031 0.103763886 0.059949495
000320 c9 b3 e8 3c bc 39 d3 bb ca 23 43 bd 94 f2 4e bc
       0.02840604 -0.0064460915 -0.047641553 -0.012631077
000330 3d 54 40 3d 87 12 85 3c b3 d1 54 bd a1 88 bd 3c
       0.046955336 0.016244186 -0.051957797 0.023136439
000340 4d 7b b0 bc 1f e8 51 3c e9 4c 11 3c 0e d5 22 3d
       -0.02154317 0.01281169 0.0088684345 0.039753966
000350 f4 5b b9 3d f5 ea 0c bd 14 84 c2 bc c2 8f e7 3b
       0.09050742 -0.03440376 -0.02374462 0.007066698
000360 51 84 2a 3d 99 60 c4 3d f4 1c 06 be 8a a8 eb bd
       0.041630093 0.09588737 -0.13096982 -0.11506756
000370 6b 65 06 bd 88 06 65 3d 15 54 0e 3d 43 77 04 bc
       -0.032811563 0.05591443 0.034748156 -0.008085075
000380 cd cf fc bc 8c db 4a 3b e8 2a a0 bb a4 4b 9b bc
       -0.030860806 0.0030953614 -0.0048879273 -0.018956967
000390 0c 0c 36 bd b4 88 25 3d 87 c1 ac ba 2c a3 68 3d
       -0.044445083 0.040413573 -0.0013180234 0.056796238
0003a0 50 2f f2 3d fc 1f ac bd d4 4c 25 3d 49 e5 32 3d
       0.118254304 -0.08404538 0.040356472 0.043675695
0003b0 63 ef 8d bc c9 c0 51 3d 4e 78 86 3d 42 3d 4b bc
       -0.017326063 0.051209245 0.06565915 -0.012404742
0003c0 9a 64 6c bb c1 d3 0e 3d 53 8b d1 bc e9 85 de 3c
       -0.0036070705 0.034869913 -0.02557913 0.027163463
0003d0 cd f5 d6 bb 57 fa 6b 3d 4e 94 13 3d 8c b1 8c bd
       -0.0065600635 0.05761179 0.036030106 -0.06869802
0003e0 d4 87 c6 bd 7f 49 b2 3d b8 c9 32 3d ad 64 3a bd
       -0.09693876 0.087054245 0.043649405 -0.04550617
0003f0 63 4e 4a bc 29 80 ce bc b8 85 a5 bc 5e 61 88 bc
       -0.01234779 -0.025207596 -0.020205364 -0.01664799

embeds.7.weight f4 [8, 5]
000000 d5 61 3c 3c 2a 25 ad bb 1e 43 a3 3b ff 76 1e bc
       0.011497934 -0.0052839713 0.004982366 -0.009671926
000010 ed 85 70 bc 26 52 d2 bc b4 dd b1 3c bf 34 20 3c
       -0.014680368 -0.025673937 0.021712162 0.009778201
000020 14 00 cc 3c 1a bb 5a bc 6a 11 e6 bc 52 00 14 bd
       0.024902381 -0.013350273 -0.028084476 -0.036133118
000030 db a5 82 bd b2 a1 2b 3d 84 9c 02 bc cb 37 f3 3c
       -0.06379291 0.04190225 -0.007971887 0.02968969
000040 f0 92 0f bb 9b 3b 0c bd 3a cf 17 3d 09 09 16 bd
       -0.002190765 -0.03423653 0.03706286 -0.03662971
000050 f6 d8 f0 bc 1a 64 6e 3c 21 0e 5e 3c 61 b1 f0 bc
       -0.02940033 0.014550233 0.013553173 -0.029381456
000060 25 0c a5 bc 38 91 8c 3c 9c ef 3f bd d2 30 62 bc
       -0.020147393 0.01715909 -0.04685937 -0.013805585
000070 34 33 0d bd 9c 19 0c bc 7d 75 85 3c 53 04 02 bd
       -0.03447266 -0.008551028 0.016291374 -0.031742405
000080 70 e4 48 3d d3 37 13 3d 7e 51 c2 bc 2d 78 e0 bc
       0.04904598 0.03594191 -0.0237205 -0.027401054
000090 78 00 89 3c f9 38 92 3c 4b 00 12 3d 4c 17 a3 3d
       0.016723856 0.017849432 0.03564481 0.07963428

embeds.8.weight f4 [3, 3]
000000 30 71 31 bb 44 19 14 3b 2a 97 ce bb 4b e1 04 bd
       -0.0027075522 0.0022598067 -0.0063046413 -0.03244142
000010 72 e7 a8 3d 91 a5 e1 3b c6 5a 93 bd e5 f5 7c bd
       0.0824727 0.006886192 -0.07195048 -0.06175794
000020 3a 95 3c bd
       -0.04604075

embeds.9.weight f4 [3, 3]
000000 24 89 a9 bb 85 53 29 3c f5 d4 3c 3c 0f 7a d0 bb
       -0.005173819 0.010334854 0.011525382 -0.006362207
000010 d5 31 05 3d 2b 98 0a 3c 6e 43 1e 3d 6e 7e 98 3d
       0.032518227 0.008459131 0.038638525 0.074459895
000020 cb 9b 2e bd
       -0.042629045

embeds.10.weight f4 [3, 3]
000000 85 a2 15 bc ff 30 a2 bb b3 f6 cd ba fa 92 58 bd
       -0.009132986 -0.0049496884 -0.0015713781 -0.052874543
000010 c6 e8 50 3c 7b 14 fe bb 3a bd fa 3c 58 f4 14 3c
       0.01275081 -0.0077539063 0.030607808 0.009091459
000020 b5 6f b5 bd
       -0.08859197

embeds.11.weight f4 [3, 3]
000000 11 7b 20 38 ef 8c c6 ba c9 dd 66 bc 31 ac a8 bb
       3.8261587e-05 -0.0015148203 -0.014090964 -0.00514748
000010 5d a2 b7 bc a8 0d 47 bc 15 70 81 bd c3 78 5e 3d
       -0.022416288 -0.012149252 -0.06320206 0.054314386
000020 31 83 07 bd
       -0.0330841

embeds.12.weight f4 [3, 3]
000000 fc 82 a2 bb ec dd 51 bc 32 d4 d6 bb 72 45 8f 3b
       -0.004959462 -0.012809258 -0.0065560574 0.004372292
000010 d0 41 14 3c a8 3c eb bc 09 08 a3 3d dd 12 cb bd
       0.009048894 -0.028715447 0.07960517 -0.09915707
000020 bf 4a 82 3d
       0.06361913

embeds.13.weight f4 [3, 3]
000000 c1 82 17 bb 33 ae fd 39 cc ff 47 3c 60 29 ba 3b
       -0.0023118707 0.0004838571 0.012206983 0.005681202
000010 80 69 d0 b7 65 0c dd 3c f7 a8 86 be 91 2d 26 bd
       -2.484466e-05 0.02698345 -0.26300785 -0.0405708
000020 49 43 72 be
       -0.2365848

embeds.14.weight f4 [3, 3]
000000 7e 12 61 3b cd e9 8f bb 1c 1f 3b bc 93 c5 76 bc
       0.0034343298 -0.004391885 -0.011420991 -0.015061754
000010 b8 5a 21 3c 19 63 87 bc 9c 21 55 3e 95 5b a8 be
       0.009848289 -0.016526746 0.20813602 -0.32882372
000020 d8 4d 99 be
       -0.29942203

embeds.15.weight f4 [3, 3]
000000 c9 b3 51 3b 90 8d d9 3b 76 ed 22 3b 6f 88 5c 3c
       0.003199803 0.00663919 0.0024860776 0.013460263
000010 1f 79 0f 3c bb 69 f1 bc 6c b4 53 be 78 27 59 be
       0.008756905 -0.029469362 -0.20674294 -0.21206462
000020 13 28 59 be
       -0.21206693

embeds.16.weight f4 [3, 3]
000000 31 49 d9 3a 0d cd 8c bb ab 86 45 bb c5 9a 0b 3c
       0.0016577599 -0.004296905 -0.0030140083 0.008520787
000010 b3 a9 c4 bc 53 f4 7f bc 7f 3b 9d be df d9 ea 3d
       -0.0240067 -0.015622216 -0.30709454 0.11467337
000020 ed 40 c0 3e
       0.37549534

embeds.17.weight f4 [3, 3]
000000 80 9e 51 bc ae a9 d3 bb 93 3e db 3b 86 96 19 bd
       -0.012794137 -0.0064594364 0.006690809 -0.037497066
000010 74 95 8c 3c cc e5 68 bc 6a 5f a8 bc 9c 99 7f 3e
       0.017161109 -0.014214944 -0.02055331 0.24960941
000020 91 d9 99 be
       -0.30048802

embeds.18.weight f4 [102, 21]
000000 7f 0e 8f 3a a5 8f 8e 3b ec 11 1a ba 0d 54 a4 bb
       0.0010914354 0.00435062 -0.00058773044 -0.0050149024
000010 62 49 4c bc bc ca 2b bc e1 9f e3 bb 86 cf 4c 39
       -0.012468668 -0.010485347 -0.0069465493 0.00019532265
000020 95 61 f6 3b d1 1f 30 3b d3 ae 9d 3b f7 46 57 b9
       0.007518957 0.0026874433 0.0048121004 -0.00020530434
000030 ca e6 7e 3c 33 f4 e2 3a d1 71 06 bb ae 32 81 3a
       0.015557954 0.0017315209 -0.0020514617 0.0009857023
000040 78 1a de 3b b1 07 0f 3c c5 49 1a 3c 09 af 3a bb
       0.0067780577 0.008729861 0.009417002 -0.0028485677
000050 43 a7 3c bc 28 33 ee 3d b4 8f 2f be 4d a6 dd bd
       -0.011514488 0.11630851 -0.17144662 -0.10822735
000060 d5 50 b7 bc 95 cf 53 3e de 29 26 be df 1c ba 3d
       -0.02237741 0.20684655 -0.16226909 0.09087538
000070 44 6c 61 3e 2a 97 5a bd 73 7c de 3d 7f 84 2a be
       0.22013956 -0.053366818 0.108635806 -0.16652106
000080 e9 71 f6 3d a0 57 22 3e 4b 0b 9d 3d 9c 64 59 be
       0.120334454 0.15853739 0.076681696 -0.21229786
000090 91 b0 ad bd a4 b6 06 3e af f1 20 bd 85 e4 28 be
       -0.08480943 0.1315561 -0.039292987 -0.16493423
0000a0 31 9e d1 3d 5b 03 c9 bd 75 d9 5f 3d 59 61 41 3d
       0.10235251 -0.09815093 0.054650743 0.04721198
0000b0 0f ca bb bd ed 0a 23 bd f8 10 a4 3c 3b dc 3c bd
       -0.09169399 -0.03980534 0.020027623 -0.046108466
0000c0 5d 6f f4 3d 15 9b 1e 3d 52 47 0d 3d 0b e6 95 3c
       0.11935303 0.038722117 0.034491844 0.01829817
0000d0 5d db 0a bd 79 17 e8 bc ec fc fb bd a8 8c b4 3c
       -0.033900607 -0.028331505 -0.123041004 0.022039726
0000e0 79 a5 d8 bc df ed 7f 3d e4 6b 1c be 4d 53 ea bc
       -0.026446091 0.06248271 -0.15275532 -0.028604174
0000f0 a8 14 02 3d 8f 11 5a 3d 26 2f a5 3d da ff f0 3b
       0.03175798 0.0532394 0.080656335 0.0073547186
000100 65 68 81 bd 6f f6 f8 bb 62 46 15 bd 0d c2 81 3c
       -0.0631874 -0.0075977365 -0.036444075 0.015839601
000110 8f 96 06 bd 75 ac 94 bd d8 2e 86 3d 97 3d 4a 3d
       -0.032858428 -0.07259456 0.065519035 0.049375143
000120 17 72 15 3d f3 dc 51 bd c6 f2 73 3d d1 69 f1 bc
       0.036485758 -0.051236104 0.0595577 -0.029469403
000130 49 2c 26 bd 93 d5 4e 3d e4 22 a8 bb be 26 59 3d
       -0.040569577 0.05049665 -0.0051311124 0.053015463
000140 5b e6 06 3d 10 a4 c7 3b 43 89 43 bc 10 80 a7 3c
       0.032934528 0.006092556 -0.011934581 0.020446807
000150 37 6e ea bb d5 a0 f9 3c 5b 89 0a bd 8f d9 48 3d
       -0.007154252 0.030472199 -0.0338224 0.049035605
000160 bc ca 13 bd 50 5b f0 3d 97 80 1b 3d 39 16 c4 3d
       -0.036082014 0.117361665 0.03796443 0.09574551
000170 84 01 58 3d d4 38 f2 bc 20 97 02 3e e4 10 82 bd
       0.05273582 -0.029568113 0.12752962 -0.06350878
000180 9e f3 6f 3d 53 83 ec bd 78 02 24 bd 9f 98 81 3d
       0.05858194 -0.115484856 -0.040041417 0.06327938
000190 d2 a2 86 3b b4 1b 63 3d e8 e8 09 3d a7 b3 45 bc
       0.004108765 0.05544634 0.033669382 -0.012066758
0001a0 12 e1 a7 bc 17 a3 af bd 90 5a 2d 3d bb 15 3d bd
       -0.020493064 -0.08576029 0.042322695 -0.046163302
0001b0 14 30 bd bb f9 84 bc bc 71 bc f2 bd 94 2d 7d 3c
       -0.0057735536 -0.023012625 -0.118523486 0.015452761
0001c0 09 21 fd 3c 05 4f 94 3d c2 08 07 be 91 c9 03 be
       0.030899541 0.07241634 -0.13186935 -0.1286986
0001d0 b4 77 ae bd 42 4d 14 3d c1 bd df 3c 25 5d 16 3d
       -0.08518925 0.03620649 0.027312161 0.036709923
0001e0 aa 74 05 be a7 fd 0b be f6 9e e3 3c 57 70 07 3d
       -0.13032785 -0.1367098 0.02778576 0.03306612
0001f0 57 1c 65 bd 2f cf 85 3c 68 44 b6 bc 9d da b9 bd
       -0.05593523 0.016334144 -0.022249416 -0.090749
000200 35 a0 87 bd 9b c2 87 3a 48 f8 bc 3d 08 79 2b be
       -0.06622354 0.001035768 0.092270434 -0.16745389
000210 b5 4e 9f 3d 04 f8 f5 3d 9f 0d ad 3d 49 a5 26 be
       0.07778684 0.12010196 0.08449864 -0.16273989
000220 ba 74 b6 bc 48 85 e3 3b 8e e7 af bd c3 27 03 3d
       -0.022272456 0.0069433786 -0.085890874 0.03202034
000230 cc 61 b5 bd 82 90 97 bd 08 93 c7 bb 2b f9 02 bd
       -0.08856544 -0.074006096 -0.0060905255 -0.031975906
000240 6c 57 02 bd be 64 5c 3d 24 86 ae 3d 01 d7 3c bd
       -0.031821653 0.053807013 0.08521679 -0.04610348
000250 bd 8c 2e bc 9d 0c ef bd 52 fb b3 3d ca 65 36 bc
       -0.010653672 -0.11672328 0.0878817 -0.011132667
000260 02 d9 b5 3b 7c 6f 6d 3d d7 a0 d7 3d e1 90 ef 3d
       0.005549551 0.057967648 0.10528725 0.11697555
000270 e5 41 b4 bd ca 4f d1 3d d5 2a 4d 3c 9f fa a7 bd
       -0.08801631 0.10220297 0.012522419 -0.08202099
000280 a8 d0 c2 bd a3 e3 30 3c 75 a5 c2 3d b8 44 29 bc
       -0.09512454 0.01079646 0.09504215 -0.010331325
000290 56 c4 8b bb 53 5a e5 3d 0d 5a 30 3d ec d0 f9 ba
       -0.0042653484 0.111988686 0.04305463 -0.0019059456
0002a0 e4 bf ba 3b 7e da 85 3d f8 9e 76 3d 5f 90 23 bc
       0.0056991447 0.06535815 0.0602102 -0.009983151
0002b0 cf 21 cc bd 00 84 95 3d a6 36 2e be d5 2c 66 bd
       -0.09967386 0.073005676 -0.17013034 -0.0561951
0002c0 06 f4 7f 3d 9c 42 ab 3d 2e df df bc d2 b3 db bc
       0.06248858 0.08362314 -0.0273281 -0.026819143
0002d0 4e 91 97 3d 5d 81 03 bd c7 95 6f bd b3 1a 06 3e
       0.074007615 -0.032105792 -0.05849245 0.13096122
0002e0 60 57 10 3e c3 75 ce 3d f1 89 b2 bd f7 49 f7 bc
       0.14095831 0.10081055 -0.087177165 -0.030186636
0002f0 b8 d6 02 3d c9 51 81 3d 8d 58 9b bc 4e 9b 4f bc
       0.031943053 0.063144274 -0.018963123 -0.012671305
000300 93 11 a7 3d b5 f2 b5 3c 89 93 e4 bc b1 b2 d5 3c
       0.08157649 0.022210458 -0.027902381 0.026086183
000310 d1 98 6f bc b4 f9 c2 3d 8e 21 73 3c 13 ad a6 3b
       -0.014623837 0.09520283 0.014839543 0.00508655
000320 b3 32 d5 bd d6 b6 18 3d 50 ef 03 3e ae a1 d4 bc
       -0.10410061 0.03728374 0.12884259 -0.025956001
000330 78 e6 b7 bc fc 9b 79 3d 14 2e 2b bc 3a 4f 9d bd
       -0.022448763 0.060939774 -0.010447998 -0.07681127
000340 9f 00 d3 bc 27 80 c0 bc e6 e9 85 3c b9 b0 63 3d
       -0.025757132 -0.023498608 0.016346883 0.055588458
000350 ef 8a 26 bc d5 f8 26 bd 33 f1 92 3d 9f c0 5b 3d
       -0.01016496 -0.04076465 0.07174911 0.053650495
000360 02 9c 55 3d 32 32 bb 3d 1b d4 2b 3d 03 27 6e 3d
       0.052150734 0.09140433 0.041950326 0.058142673
000370 58 59 57 3d 43 2b 8c bd d2 54 6f bd 11 d3 99 3d
       0.05257544 -0.06844189 -0.0584305 0.07510961
000380 83 cd 10 bc de 15 69 3b cf 8c f8 3c de 8f 66 bd
       -0.00883806 0.0035566012 0.03034058 -0.056289546
000390 a7 a0 84 3d d8 b3 07 3d 5e e7 fc bc 2e 17 35 bd
       0.064759545 0.033130497 -0.030872043 -0.04421156
0003a0 b5 0e 8a 3c 14 64 a5 3d 47 18 c0 3d 2c 69 a6 bd
       0.016852716 0.08075729 0.093796305 -0.08125529
0003b0 1e 4c 19 3d f5 14 9a bd a0 26 a1 bb c1 75 d9 3c
       0.037426107 -0.075235285 -0.0049179345 0.026545407
0003c0 1a a3 87 bd 85 4d 57 bd 63 3c 44 bd f4 6d 6a bc
       -0.06622906 -0.052564163 -0.04790915 -0.014308441
0003d0 b8 a1 51 bd 87 25 4b bd 25 a6 f6 3c 2d 63 fb bc
       -0.051179618 -0.049596336 0.03010852 -0.03068694
0003e0 2a 44 cf 3d 39 bf 85 3c 76 3d d2 bb 4f 7f 03 3e
       0.10120423 0.016326534 -0.006416018 0.12841533
0003f0 a7 9d 41 bd b4 6d 98 3d 24 ab 08 3c 6d 56 11 bc
       -0.04726949 0.07442799 0.008341584 -0.008870703

embeds.19.weight f4 [46, 14]
000000 3f 92 9a b8 a5 75 98 bc c7 e1 79 ba 15 28 15 bb
       -7.370533e-05 -0.018610785 -0.00095322396 -0.0022759486
000010 b5 8c 4e 3b bc d9 58 3c 95 d5 b3 3a fa 32 e3 bb
       0.0031516973 0.013235506 0.0013720269 -0.006933567
000020 6c 2b 4b ba 63 24 0e 3c 3d 51 60 3c 62 94 15 bb
       -0.0007750306 0.008675667 0.013691244 -0.0022824039
000030 77 87 f7 bb 3d 7f 4a bb 28 40 32 3d c9 f2 0d 3d
       -0.0075539905 -0.0030898594 0.043518215 0.034655366
000040 37 f8 27 bd 51 a1 ab 3d bb c8 45 be 51 71 27 3d
       -0.0410082 0.08380378 -0.19314854 0.04087955
000050 2f 6b 0b 3e f5 0c 87 3e a6 db 53 3d 2b 8a cc bd
       0.13615106 0.26377073 0.051723145 -0.09987291
000060 40 d3 00 be 1d 5c 15 be 21 72 13 be c5 42 87 3c
       -0.12580585 -0.1458592 -0.14399005 0.01651133
000070 93 80 72 bd ab 10 15 bd a1 2f 1b 3d 94 d6 d3 3d
       -0.05920465 -0.03639285 0.03788722 0.10343662
000080 be 75 a8 bd fe ea 93 3d 17 04 9e 3d ce 88 34 3e
       -0.082255825 0.072225556 0.07715624 0.17630312
000090 0c 2c cc 3d 8d 5e 61 bd 61 68 4a bd a0 cd 44 bd
       0.09969339 -0.05502181 -0.04941595 -0.04804766
0000a0 94 f7 95 bd 98 22 ac 3d 3a 93 f6 bd 23 80 21 3d
       -0.073226124 0.08405036 -0.120398 0.03942884
0000b0 b6 4a 88 3e a4 95 cc 3d 71 22 29 3d 11 cb 41 3e
       0.266195 0.09989479 0.04129261 0.1892512
0000c0 85 32 13 be 29 bf 17 bb 7c 66 08 be b8 54 81 3e
       -0.1437474 -0.0023154712 -0.13320345 0.25259948
0000d0 b8 6b 0e be 52 70 d6 bd 4d 04 90 3d 40 06 b8 bd
       -0.13908279 -0.10470642 0.0703207 -0.08985567
0000e0 cf ab 6a bc 1f e7 6b bd ba 6e 67 bd 73 60 83 3b
       -0.014323189 -0.05759346 -0.05650208 0.0040093004
0000f0 34 8b ff bc 3a 55 06 bd b8 eb a2 3d 73 0d f5 3d
       -0.031194307 -0.032796122 0.07955116 0.11965456
000100 18 ad a8 3d 5b 8f d0 bd 2b b5 51 3d 5b da 0c bd
       0.0823614 -0.10183593 0.051198166 -0.034387928
000110 f9 42 1d be 87 e9 bd 3c 44 db 92 bd 09 88 c5 3d
       -0.1535758 0.023182644 -0.07170728 0.09645087
000120 a4 b4 08 3e 38 32 5d 3d 49 09 3d bd 0f 49 f4 3d
       0.13350159 0.05400297 -0.046151433 0.11927997
000130 fb e6 c4 bd e9 40 b0 3c e6 54 67 be 0a a6 09 3e
       -0.096143685 0.021515327 -0.2259098 0.13442245
000140 17 94 11 be 0f 17 83 bb 60 41 ad 3d 90 f4 c3 bd
       -0.14216648 -0.0040005515 0.08459735 -0.09568131
000150 30 6f f1 bc cf b8 ac bd 4f b8 6c 3d 0f 12 5d bd
       -0.029471964 -0.08433687 0.057792958 -0.0539723
000160 f7 f3 69 3d 59 ce 2e bb b4 6d 1d bc d9 eb 4e bc
       0.05711743 -0.0026673286 -0.009608675 -0.012629473
000170 a2 ee a1 3d 74 c5 c1 bb 7f 09 e1 3d fe 07 c4 3b
       0.07906844 -0.005913431 0.10988139 0.005982398
000180 49 ad 63 bd 25 44 1e 3d dc 31 36 bd d9 95 0a 3e
       -0.05558518 0.038639206 -0.044481143 0.13533725
000190 7b 04 ca 3d d7 27 33 3d 34 28 23 bd b6 9a 5c bd
       0.09864136 0.043739166 -0.039833263 -0.05385848
0001a0 e7 b1 f6 bd 7e d6 bf 3c 80 b3 f0 bd e3 7c db 3c
       -0.12045651 0.023417708 -0.11752987 0.026792949
0001b0 3a 97 ab bd 37 c7 54 be a4 50 96 bd 9f 78 a0 3a
       -0.083784536 -0.2077912 -0.073396 0.0012242979
0001c0 e1 e8 87 3d 85 b2 9c bc e0 9f 5e bc 45 13 21 bd
       0.06636215 -0.019128093 -0.013587922 -0.039325017
0001d0 ca bb 68 bc 82 4e 0d 3d 0f fc 46 ba 61 85 e4 3b
       -0.014204929 0.0344987 -0.000759066 0.006973908
0001e0 9b ab 41 bc 36 7c 9a 3d e6 2e 24 be 54 18 10 bd
       -0.011820699 0.075432226 -0.16033515 -0.03517945
0001f0 8a 6c ac 3d 9f a3 74 bc bf aa 7a bd 55 f4 96 3d
       0.0841914 -0.014931588 -0.061197992 0.073708214
000200 e3 b5 f4 3d 9e bc 01 3e f2 89 ed 3d ce 92 30 bc
       0.11948755 0.12669608 0.115985766 -0.010777188
000210 e8 36 55 be e0 fa 27 be 58 b9 16 be dc bb 2e 3e
       -0.20821726 -0.16404295 -0.1471914 0.1706385
000220 9f 76 d0 bd 42 fc 1b 3d d8 34 01 3e 94 a2 a4 bd
       -0.10178875 0.03808237 0.12617815 -0.08038822
000230 4d c2 85 be eb b5 84 be c1 d3 33 3e 60 e9 3d 3e
       -0.26124802 -0.25920042 0.17561246 0.18546057
000240 73 3b 07 be f2 cf 53 3e e5 4e 10 be 1d e2 90 3d
       -0.13206272 0.20684794 -0.14092596 0.07074378
000250 09 f8 22 3e 62 eb 8a 3d 51 d8 51 3e 68 20 70 be
       0.1591493 0.06783177 0.20492674 -0.23449862
000260 f8 25 0b be 27 43 8d 3e 31 10 b1 bc b3 25 ae 3c
       -0.13588703 0.27590296 -0.021614166 0.02125821
000270 9f 24 28 3d 32 d2 18 3d b5 ef 1c 3d 9d 54 d3 3c
       0.04105055 0.037309833 0.03831454 0.025797183
000280 81 5a b6 bd 64 ff 56 bd 81 65 f8 3c 83 70 b1 3c
       -0.08903981 -0.052489653 0.030321838 0.021660095
000290 5e 94 af 3c 68 16 8f 3c 4e 61 7b bd 87 57 06 3d
       0.021433052 0.017466739 -0.061372094 0.032798316
0002a0 eb 8b 20 be eb 48 ff bd 0c e5 23 3e c3 76 1c 3e
       -0.15678374 -0.1246508 0.16005343 0.15279679
0002b0 ae 95 e3 bd a7 20 22 3e 8f 94 eb bd 3c dd 5e bd
       -0.111125335 0.15832768 -0.11502945 -0.054410204
0002c0 72 e6 67 3d 5e 74 56 3e 87 da 90 3d fa f8 e6 bd
       0.056616254 0.20942828 0.07072931 -0.11277957
0002d0 33 66 89 bb fc a4 aa 3d 77 59 a3 3c ea 3a 5a be
       -0.0041930913 0.083322495 0.019940121 -0.21311536
0002e0 8a 86 ac bd 04 26 9b bc 6c dd 67 bd 3c 96 37 3d
       -0.08424099 -0.018939026 -0.05660765 0.04482101
0002f0 89 a6 20 3d ab 87 6f 3c 3e 74 46 3e a2 66 3a bd
       0.03922132 0.014619748 0.1938028 -0.045508035
000300 05 79 26 bc c9 fd b6 3b 0c 8c 14 bd 1d 85 9b 3d
       -0.010160689 0.0055844528 -0.03626637 0.07593749
000310 f8 84 9c 3b 52 38 d9 bd ca 17 15 bd 2c 84 db 3c
       0.0047765933 -0.10606445 -0.03639964 0.026796423
000320 6e 9a 09 be f6 14 bd 3c 99 84 f4 3d 8e 6f 05 3e
       -0.13437817 0.023081284 0.119393535 0.13030836
000330 c3 1b c5 3d d8 e9 bf bd 11 0d b6 3d 89 93 21 bc
       0.09624436 -0.09370774 0.08889211 -0.009861835
000340 cb 12 d1 bd 24 a6 cd 3d 98 8c a6 bd 10 5e dd 3b
       -0.102086626 0.100414544 -0.08132285 0.006755598
000350 7f 21 29 3e c8 d9 b6 3d dd 4a c5 3d 3d c4 01 3e
       0.16516684 0.08928257 0.0963342 0.12672515
000360 76 25 81 be dc f4 34 be a7 b4 7c bd 13 79 78 3e
       -0.25223893 -0.17671531 -0.06169572 0.24264936
000370 d8 ed 8d bd b7 45 a6 3c b5 9c 0c 3e 6c 0a dd bd
       -0.06930131 0.020296915 0.13731654 -0.107930034
000380 8c 36 fc bd 1e 96 86 3b 31 9b 80 3e ae b1 42 3e
       -0.123150915 0.004107251 0.25118402 0.19013092
000390 94 d3 2f bd 3d ba 29 3d f4 86 fc bd 3a ea 09 3d
       -0.042926386 0.041437376 -0.12330428 0.03367064
0003a0 5a 0c 45 bd 64 b4 f2 3d d9 f0 d3 bd 9c 54 c9 bd
       -0.048107482 0.11850813 -0.103486724 -0.09830591
0003b0 51 4e 50 bd 55 0d 35 3d 75 2f ad bd 1b b3 fa 3c
       -0.05085594 0.044202168 -0.08456317 0.030602982
0003c0 02 47 f8 3b bf cd 7d 3d cc bf 67 be 0c 92 28 3d
       0.007576824 0.061963793 -0.22631758 0.041154906
0003d0 31 fc 23 3d bf 04 0f 3e c5 ca b7 bc 34 21 b9 bb
       0.04003543 0.13966654 -0.022435555 -0.00564971
0003e0 a8 a8 18 be b4 97 b6 bd 23 99 7b 3b a0 81 8b 3d
       -0.14908087 -0.08915654 0.0038390837 0.068118334
0003f0 e2 99 06 be bd ca ed bc a8 2e 33 3d 5a f0 1c 3e
       -0.13144639 -0.029027337 0.043745667 0.15326062

bn_cont.weight f4 [11]
000000 45 fc 4a 3e 3e 52 96 3e 6b 4c 7c 3d 53 6f 20 3d
       0.19822796 0.2935962 0.061596315 0.039168667
000010 ee bc ae 3d c0 f0 ba 3d 29 8b 17 3e a6 77 c5 3e
       0.08532129 0.09127951 0.14799179 0.38567847
000020 c1 d5 2a 3e d8 0b be 3e 8c 41 be 3d
       0.16683103 0.3711841 0.09289846

bn_cont.bias f4 [11]
000000 05 7c bd bc 28 89 96 3d 02 91 41 3d 97 0e 60 bc
       -0.023130426 0.07350379 0.04725743 -0.0136753535
000010 67 a1 ce 3b 3e 94 8a bb a1 b2 cc bc 46 51 c9 3c
       0.0063058618 -0.0042290976 -0.02498752 0.024574887
000020 9e 94 89 bd 1d 16 1f 3e 3d 37 a9 3c
       -0.067177996 0.1553578 0.020656222

bn_cont.running_mean f4 [11]
000000 41 2c ef 3c c7 ae 02 3d 3a 3d 4e bd e5 2e b0 3c
       0.029195907 0.031904962 -0.05035136 0.021506736
000010 b4 29 11 3c 4a f8 27 bd cb ce c3 bb 8d ea ac bb
       0.00886004 -0.04100827 -0.0059755794 -0.005276984
000020 e8 2e dd 3c e4 73 df bc f7 91 24 3d
       0.026999906 -0.02727694 0.040178265

bn_cont.running_var f4 [11]
000000 cc dc 7b 3f 4e f5 72 3f b6 45 f9 3e 3a a0 d0 3f
       0.98383784 0.94905555 0.48685998 1.6298897
000010 91 67 b1 3f 54 3f 02 3f 9e 57 81 3f 9d 3e 79 3f
       1.3859731 0.5087788 1.0104864 0.97361165
000020 05 b7 7e 3f a1 c9 79 3f c6 42 f6 3e
       0.99498016 0.97573286 0.4809782
