retail-case-study/models/tmp.pth (torch_old, 140913 bytes, 43 tensors)

embeds.0.weight f4 [3, 3]
000000 c1 04 2b 3c e9 a0 5c ba c3 fb fa ba 44 2f 03 bc
       0.010438145 -0.00084163115 -0.0019148517 -0.0080068745
000010 1e 55 a6 ba 1e 28 85 ba 81 4f cc 3a c0 c2 43 3c
       -0.0012690162 -0.001015905 0.0015587659 0.0119482875
000020 0d 84 a2 3b
       0.0049595893

embeds.1.weight f4 [4, 3]
000000 f2 60 ce b8 8d 2f 93 3c fd dc 5e 3c ef e6 7a bb
       -9.840903e-05 0.01796701 0.013602492 -0.003828462
000010 84 9b db bb 67 a4 33 3b 77 24 95 bc 9b 83 9c 3c
       -0.0067018885 0.0027411224 -0.018205864 0.019105723
000020 27 b4 4f bc 90 18 56 3c 58 38 27 bc a4 e0 85 3a
       -0.012677229 0.01306738 -0.0102063045 0.0010214043

embeds.2.weight f4 [82, 19]
000000 5e d6 2a 3c d3 b7 ce ba c6 8e d5 ba ad 9a 0d bc
       0.010427086 -0.0015771337 -0.001629316 -0.008642835
000010 f2 71 d0 bb eb 3b c7 bb 4d c9 37 bb 8d c0 38 bb
       -0.0063612396 -0.006080141 -0.0028043569 -0.002819094
000020 84 06 87 ba e1 35 d5 bb 68 60 8a bb 64 56 80 3c
       -0.0010301624 -0.006506667 -0.0042229183 0.015666194
000030 6f 5f 8c 3c e1 d8 af 3b 49 25 04 bb b6 eb 85 3c
       0.01713535 0.00536643 -0.0020163825 0.016347747
000040 37 89 e5 ba 06 39 07 3b 5b 39 fa 3b fb 0a 6c 39
       -0.0017512207 0.0020633354 0.007636232 0.00022510804
000050 01 7c 3c 3b 14 f6 68 ba f2 77 87 bc 62 b6 6b b9
       0.0028760436 -0.0008886766 -0.016536687 -0.0002247929
000060 55 f1 33 bc 5b 8c 95 bc 54 9e 8e 3c 6e d8 f5 bb
       -0.010982831 -0.018255403 0.017409481 -0.007502607
000070 e5 ff f4 3b 63 d2 0f bc 47 8f 5d b9 80 fc 68 3b
       0.007476794 -0.008778187 -0.00021129577 0.0035550892
000080 39 60 28 3c 94 1c 91 bb 90 f3 69 3b d4 92 62 39
       0.0102768475 -0.0044284556 0.0035698153 0.00021607737
000090 e0 3b fb 38 59 85 5a bc 0a 9f cb bb c5 f7 5d bc
       0.00011979765 -0.013337457 -0.0062140273 -0.013547842
0000a0 6e fd 2d b9 f8 a0 39 bc c6 2c 1e 3b a9 d5 bf 3b
       -0.00016592976 -0.011329882 0.0024135574 0.0058543277
0000b0 90 2c 1b bc 9d a3 a1 ba 7d 9c 5d ba 4c b1 1f bc
       -0.009471074 -0.0012332086 -0.00084537995 -0.009746861
0000c0 7b 7f 3e 3c 9d 4f 99 3c b4 5a e1 bb 27 00 56 3c
       0.011627073 0.01871472 -0.0068772677 0.01306156
0000d0 46 1e f4 3b 14 26 4c ba 10 f3 6b 3c 47 31 74 39
       0.007449898 -0.00077876565 0.014401212 0.0002328801
0000e0 fb 47 3d b8 57 3e 5c bc ce 4c 2d 3c 20 3a 92 bc
       -4.512815e-05 -0.013442597 0.010577394 -0.017849982
0000f0 87 36 91 bb 4e e5 3c bc d4 ed c8 bb b0 3e 47 3b
       -0.004431549 -0.01152928 -0.006131867 0.0030402355
000100 32 aa a4 bb d2 f8 93 3b 78 8b 43 3b 05 58 4f 3c
       -0.0050251717 0.0045157457 0.0029837769 0.012655263
000110 b0 91 12 bc 9c 96 e0 3b e2 5f da bb f0 d8 65 3b
       -0.008945867 0.0068538915 -0.006664262 0.0035071932
000120 34 68 7a 3c 22 64 07 bc b4 3d ae 3a af c6 d5 3b
       0.015283633 -0.00826362 0.0013293535 0.006523929
000130 f9 b3 80 3c 32 52 98 bb de 87 39 3c a2 d5 97 bc
       0.015710818 -0.0046484703 0.011323897 -0.018534485
000140 89 c8 05 bc 3e 26 ac bb ac c0 08 3b 85 bf d0 3b
       -0.008165487 -0.0052535823 0.0020866795 0.006370487
000150 18 87 25 3b b4 09 88 3c a8 d7 83 3b 79 12 13 bc
       0.0025257524 0.01660619 0.004023511 -0.008976572
000160 fe 2e 4d b9 c2 c3 57 bc 37 cd e1 3a 2c 98 fd 3a
       -0.0001956783 -0.013169231 0.0017227296 0.0019347719
000170 c7 31 97 bb ba 14 14 3a 0a 3d 18 bc 57 ba 94 bc
       -0.004614088 0.00056488405 -0.009291897 -0.01815526
000180 5c a7 80 b9 a1 5a fb bb 00 7e 48 bc 02 07 6a 3c
       -0.00024538755 -0.007670716 -0.012237072 0.014283897
000190 ac 46 81 3c 5d 52 e6 b9 40 f2 23 bc fc 17 42 bc
       0.01578077 -0.00043930384 -0.010006487 -0.011846539
0001a0 dc 1b ef bb 59 39 4e bb 67 08 bd bb 46 19 4e bc
       -0.0072970223 -0.0031467287 -0.005768824 -0.012579268
0001b0 22 0d 5e 3c 7d dd ea ba 87 8f 3c bc 73 ab 53 3c
       0.013552936 -0.0017918792 -0.011508829 0.012919295
0001c0 33 13 3e bb c1 e3 5b 3b 67 8d 98 3c e0 ac ff 3b
       -0.0029003143 0.00335525 0.018622113 0.0078025907
0001d0 93 79 9c 3b 5f 07 1a 3c 81 4b d8 3b ae ef 84 3b
       0.004775235 0.0094011715 0.0066007976 0.0040568924
0001e0 f7 8a 3f bc b8 f8 c7 ba 8c 4e d0 3b 0a 36 3e bb
       -0.011690847 -0.0015256619 0.0063570198 -0.002902391
0001f0 09 5d 2e bb 8f 2b 7a bb 7b 55 3f ba 47 22 25 3b
       -0.0026605746 -0.0038172936 -0.00072988094 0.0025197433
000200 a6 ae 37 3c 7c 1d d0 3b 85 25 e1 bb 2e 3c a6 bb
       0.011211073 0.006351171 -0.0068709278 -0.005073092
000210 5e 58 21 bc 0d a2 22 3b fe db 2c bc 06 c5 ed 3b
       -0.009847729 0.0024815828 -0.010550497 0.007256153
000220 5e 7a 12 3c 04 ba e7 3b e2 80 ce 3b 69 8b c0 bb
       0.008940307 0.0070717353 0.006301985 -0.005875994
000230 c0 5b d9 3b ef dc 13 bc 9c 7b 19 3c e9 b7 18 3c
       0.006633252 -0.009024843 0.00936785 0.009321191
000240 0f cb 86 3c 16 8c 17 3c 97 87 96 3b c2 60 94 3b
       0.016454248 0.009249708 0.0045938003 0.004528136
000250 13 68 7b 3b a0 b4 53 3b b8 9a 0f bc 29 fa 14 3c
       0.0038361594 0.0032303706 -0.008764915 0.009092846
000260 67 29 ff 3b 95 57 c2 39 81 4a f6 bb 94 06 1e 3b
       0.007786918 0.00037067817 -0.007516206 0.0024112808
000270 af 0a 62 3b 29 40 a0 3b 2b e9 01 3c b6 c2 91 3c
       0.0034491231 0.004890461 0.007929127 0.01779304
000280 7d f9 3a bb c3 cc 72 bc 9f da 85 bb 97 85 d7 3b
       -0.0028530054 -0.014819327 -0.0040848996 0.0065772044
000290 55 52 ee bb 5c 11 c5 bb e4 91 2f 3c 3d 5d 17 3b
       -0.0072729983 -0.0060140323 0.010715935 0.0023096346
0002a0 af c2 98 bc 92 f4 af bb 32 fc a9 3b cc b8 1b 3c
       -0.01864752 -0.005369731 0.0051875347 0.009504508
0002b0 ea 6b 1c 3c 84 9b 16 3c f8 53 ae 3a d3 8c da ba
       0.009547213 0.009192351 0.0013300171 -0.0016674049
0002c0 01 be 39 bc 2f 28 a1 39 7d 61 2b bb ef d8 78 bb
       -0.011336804 0.00030738252 -0.0026150637 -0.00379711
0002d0 bd a1 4d bc 2d 0d 0a 3b 77 5f dd 3b 62 e4 89 bc
       -0.012550768 0.0021064982 0.006755765 -0.016832534
0002e0 cd f0 33 bc 66 7f b4 bb 18 85 56 bc 7b 58 a9 ba
       -0.010982704 -0.005508351 -0.013093255 -0.0012920046
0002f0 51 27 8f 3b 98 ce 03 bc 50 6c 0e 3c 8d 6b 9f 3b
       0.0043687006 -0.008044861 0.008692816 0.004865116
000300 73 40 b4 3b bd de a8 ba 94 c7 f9 bb fe f5 c6 3b
       0.005500847 -0.0012883764 -0.0076226685 0.006071805
000310 ab ee c3 bb 2c 2d 95 bb a3 1b a0 bc 7b 76 21 bc
       -0.005979379 -0.004552504 -0.019544428 -0.009854908
000320 4f 59 c8 3b aa 1c 85 bc 4b cc 96 3b ae eb 28 3c
       0.006114162 -0.01624902 0.0046019903 0.010310097
000330 14 3e cf b9 87 5a 6d bb 7b df fc bb a2 16 99 bb
       -0.00039528369 -0.0036217289 -0.0077170706 -0.0046718875
000340 b4 ce 7c ba c8 85 06 3c 4d f1 94 bb 1d 7a e4 bb
       -0.0009643838 0.008210607 -0.004545367 -0.006972565
000350 9f 02 11 3c 13 fc bd 3b 3f 0c 0b bc 42 09 f9 bb
       0.008850723 0.005797872 -0.008486806 -0.0075999806
000360 b8 32 c8 3a 59 58 1e 3c 8d 82 ab bb 3b 9b d5 bb
       0.0015273904 0.009664618 -0.0052340687 -0.006518749
000370 29 7c d3 b8 61 2c 2c 3c bd 55 05 bb 9b 66 d6 bb
       -0.00010084391 0.010508628 -0.0020345293 -0.0065429932
000380 bf ef 91 bc be 27 7c bb b7 89 11 3c 54 a5 23 bb
       -0.017814515 -0.0038475837 0.008882931 -0.002497037
000390 c0 b8 ec bb 32 97 45 3c 84 2b 48 bc 87 2d c2 bb
       -0.0072241724 0.012059974 -0.012217406 -0.0059258374
0003a0 d0 9d f2 3b 00 e2 a2 3b 89 5a 84 bc 37 a4 86 ba
       0.0074040666 0.004970789 -0.016156452 -0.0010272329
0003b0 ca 54 dc bb 2d 40 41 3b 53 7e 59 bb f3 ad 4b 3c
       -0.006723975 0.0029487715 -0.0033186867 0.012431609
0003c0 c6 ac a1 ba 53 a4 d8 3b ea c2 63 bb 21 bb 26 3a
       -0.0012334816 0.006611386 -0.003475363 0.0006360282
0003d0 e1 b0 e6 bb 8d a7 19 bc fd 46 7b 38 29 95 7f bb
       -0.0070401286 -0.009378326 5.9909176e-05 -0.0038998818
0003e0 e4 77 a3 3b 90 fe 5a bc 29 2d 0b bc 94 c7 b7 bb
       0.0049886573 -0.0133663565 -0.008494654 -0.0056085084
0003f0 59 e4 84 bc 9e 03 58 3c 61 93 a2 3b 75 a6 46 b9
       -0.016222166 0.013184456 0.0049614166 -0.00018944762

embeds.3.weight f4 [4, 3]
000000 45 0c a7 3a 90 79 47 3b 3c 33 bc ba 0e 62 79 38
       0.0012744745 0.0030437447 -0.0014358531 5.9457547e-05
000010 c0 57 88 bb ce 24 19 bb e1 d7 d5 ba dc d7 58 bc
       -0.0041608512 -0.0023367885 -0.0016314947 -0.013235059
000020 db 65 13 3c a4 78 a3 bc dd 9e df ba 62 a9 c4 3b
       0.008996452 -0.019954987 -0.0017060895 0.0060016373

embeds.4.weight f4 [13, 7]
000000 e0 75 09 3c cf e3 dc 3b 70 9e 9c bb f7 aa 87 bb
       0.00838992 0.006741024 -0.0047796294 -0.0041402536
000010 4b 8a b1 39 ef 5f 04 3c d3 80 13 bc 9e eb 6e 3c
       0.00033863107 0.008079513 -0.009002882 0.014582543
000020 34 fe 60 bc 21 ff 7a 3c bd f0 a4 39 e1 cf 75 bb
       -0.013732482 0.0153196165 0.00031459882 -0.0037507939
000030 99 12 29 bb 89 32 c9 3b 52 98 09 3b 24 d5 a8 3b
       -0.0025798439 0.0061400575 0.002099533 0.0051523615
000040 d2 7f 22 3c 7c cc 35 ba ab f7 0c bc be 64 08 3c
       0.00991817 -0.00069350726 -0.0086039705 0.0083248
000050 96 91 9a 3c 9f 90 86 bc b6 43 02 bc 4a 81 d3 ba
       0.018868249 -0.016426383 -0.007950714 -0.0016136554
000060 e9 9b 6f 3b cf ad 64 3b 84 0c 35 39 49 c2 df 3b
       0.0036561436 0.0034893637 0.00017266168 0.0068285805
000070 c1 4f 9f 39 1e bf f5 bb f2 cd d2 3b d5 1f 13 bc
       0.00030386265 -0.0074995896 0.006433242 -0.008979757
000080 f3 23 b1 3b 44 d3 56 3b 53 7d 51 3b 97 cc 05 3a
       0.005405897 0.0032779733 0.0031965568 0.00051040336
000090 8a 42 1f 3c c0 f2 6e bc 8f 98 86 ba d4 ae ab ba
       0.009720454 -0.014584243 -0.0010268855 -0.0013098367
0000a0 d0 38 85 bc 1c f5 7f 3b 2d c6 31 3c 7b fc 64 bb
       -0.016262442 0.0039056009 0.010850471 -0.003494053
0000b0 d7 2d 28 bc eb af de ba 7d 71 6e 3c 0d e2 18 3b
       -0.010264835 -0.0016989683 0.014553425 0.0023328096
0000c0 77 e7 bf ba e2 ea ca 3b 54 8d 0a bc 0d c9 15 bc
       -0.0014641125 0.006192551 -0.008456547 -0.0091421725
0000d0 8b 3d 2e bc ca 4a cb 3b 6b 8b 6e 3a 4d ec 96 bb
       -0.01063479 0.006203984 0.00090997544 -0.004605806
0000e0 62 29 05 3c 62 ce 9a ba 94 68 2e bc b0 0e 28 bb
       0.008127542 -0.0011810774 -0.010645051 -0.002564352
0000f0 89 e8 d2 bb 47 e9 f7 39 a0 29 8b bb f7 c0 e5 3b
       -0.0064364118 0.00047285316 -0.0042469054 0.0070115286
000100 c2 b4 c9 3b b6 d0 2a b8 02 9b 43 bc 21 0e 26 3c
       0.006155581 -4.0725536e-05 -0.011938812 0.0101352045
000110 98 52 f7 3b b8 56 57 3a 14 92 2b bc 89 fc 97 bb
       0.0075476877 0.0008214521 -0.010471839 -0.004638259
000120 19 ae 26 3c 05 88 d8 ba 3e ce 57 bb 2d c4 20 3c
       0.010173344 -0.0016520029 -0.0032929326 0.009812397
000130 14 b6 33 bb 32 49 e9 bb 45 28 af bb 2a a4 80 3c
       -0.002742176 -0.0071193213 -0.0053453767 0.01570328
000140 00 dd f6 3b 5b d7 44 bc 97 df 0d 3c d4 21 87 bb
       0.0075336695 -0.012014235 0.008659265 -0.0041239057
000150 de e9 93 38 87 9d 2c bc 13 c2 a3 b9 aa 15 60 3c
       7.0530674e-05 -0.010535604 -0.0003123438 0.01367704
000160 bc 14 5a ba 60 c7 93 3c 26 b4 0a 3c
       -0.00083191297 0.018039405 0.008465802

embeds.5.weight f4 [53, 15]
000000 87 aa 8b bc 78 6b e4 bb 6b be c8 bb b4 b2 90 bb
       -0.017049087 -0.006970819 -0.006126215 -0.0044158343
000010 a9 64 0d 3c 9e ae 68 bb 25 68 37 3c 4c 7f 89 ba
       0.008629956 -0.003550447 0.011194264 -0.0010490208
000020 35 01 8f 3c 20 80 3e bc 46 bd 6b bc 86 60 0e bc
       0.01745663 -0.011627227 -0.014388388 -0.008690005
000030 eb 4a 31 3b 9e 96 5d 3c f9 6d 11 3c 2e 85 42 ba
       0.0027052711 0.0135246795 0.008876317 -0.0007420358
000040 f6 0b 88 3c 7d a7 05 bc bd 62 af 3a 05 52 40 3c
       0.016607266 -0.008157608 0.0013380867 0.011738305
000050 80 20 43 3c 02 38 a1 b8 31 39 9f bc b2 93 fa 38
       0.011909604 -7.6875105e-05 -0.01943645 0.00011948439
000060 53 0c 56 ba 22 f6 97 3b 42 9e fa ba f7 05 0f bc
       -0.00081652886 0.0046374956 -0.0019120651 -0.0087294495
000070 e9 a5 d0 bb 76 61 15 bc 8f 59 5e bb a7 be 8f ba
       -0.0063674343 -0.009117475 -0.0033927893 -0.0010966853
000080 92 5c 5f 3b 81 21 01 3c 8f 56 57 bc 5d 50 ae bb
       0.0034082276 0.007881523 -0.013143196 -0.0053196386
000090 b2 24 26 bc 94 c6 c3 3b af 7f 00 3c fc 2f 5e bb
       -0.010140585 0.0059746 0.007842942 -0.0033903113
0000a0 dc 89 37 ba c0 72 20 3c 0e 8f a4 3a c8 30 84 ba
       -0.00070014386 0.0097929835 0.0012554841 -0.0010085339
0000b0 e9 6e 53 3c ee 04 af 3b 19 de 53 bb ed 2c 0f bc
       0.012904861 0.005341164 -0.0032328425 -0.0087387385
0000c0 36 11 11 bc fe 64 40 bc 1d 5f 03 bc 44 af 92 3c
       -0.008854201 -0.011742828 -0.008018282 0.017905839
0000d0 9b 83 d0 bb 9b 74 8e bb 89 57 6b bc 2f bf ea 39
       -0.006363345 -0.0043473965 -0.014364132 0.000447744
0000e0 bb 22 0a 3b 8a 74 a6 3a bb e3 8c bb db f3 83 bb
       0.002107783 0.0012699526 -0.0042996085 -0.0040268726
0000f0 e0 b0 8a 3b 40 0b 3b bc 6f bd 36 3b a7 42 27 3b
       0.004232511 -0.011416256 0.0027883907 0.0025521906
000100 e1 90 a9 bb e3 e3 ef bb ca 5e 63 3b 78 92 9c 3c
       -0.0051747416 -0.0073208674 0.003469395 0.01911281
000110 5c 98 0b 3a 42 3e 78 3c 79 4e 49 bc c2 14 1c 3b
       0.00053251325 0.015151562 -0.012286776 0.0023816084
000120 65 fd ed bb 01 e4 25 bc 66 5f 28 3b fc bc 3f bc
       -0.007262873 -0.010125161 0.0025691628 -0.011702772
000130 42 39 52 bc 60 cc 20 3c f2 72 e5 3b de 7c 87 ba
       -0.012831034 0.009814352 0.007002228 -0.0010336896
000140 64 72 89 bb 90 56 fe 3b 43 c8 f3 b9 65 e8 5a bc
       -0.0041945446 0.007761784 -0.00046497778 -0.013361071
000150 d8 38 40 3a 23 1f 0f bc 76 0d 12 bc 02 b3 57 3b
       0.0007332689 -0.008735451 -0.008914342 0.0032913093
000160 27 9b 8b 3c 84 34 d3 3b eb 6e 86 bb a4 58 86 3b
       0.017041756 0.0064454693 -0.004102578 0.0040999223
000170 ec 68 e2 3b ae ef df bb e1 a8 a6 ba 84 8d a3 bc
       0.0069094803 -0.006833992 -0.0012715125 -0.01996494
000180 c5 d9 31 bb 35 90 ef bb 38 70 9b bb 6e 42 0a bc
       -0.0027137857 -0.007310892 -0.004743602 -0.00843869
000190 54 5e 60 bc b2 26 e6 38 05 82 ff b9 98 19 2c bc
       -0.013694365 0.00010974462 -0.00048734262 -0.010504149
0001a0 81 c4 e1 3b db 96 76 3c 6c f4 e8 bb 00 98 f5 b9
       0.00688988 0.015050615 -0.0071092155 -0.0004684329
0001b0 9e 01 4a bb 42 03 d2 3b 58 0f 03 bc 0f 6f 64 3b
       -0.0030823718 0.00640908 -0.007999264 0.0034856235
0001c0 38 64 d0 bb f4 6b 65 3c 1e 66 72 3b bd 03 2f ba
       -0.0063596033 0.014002789 0.0036987136 -0.0006676277
0001d0 86 cd 44 bc b2 9b 54 3c 6e ed 28 3c f4 97 3e bb
       -0.012011891 0.012976574 0.010310514 -0.002908227
0001e0 4a b6 73 bb 53 ae 00 3c dc 44 32 3c 4f 59 38 bb
       -0.003718751 0.007854062 0.010880675 -0.0028129404
0001f0 76 78 96 bc e4 ac 01 bc 0d 28 8f 3a 5b 91 2b 3b
       -0.018367987 -0.0079147555 0.001092197 0.0026179168
000200 b0 ba 06 3c 4f a2 81 3c 3d ad 80 3c af 85 0a bc
       0.008223221 0.015824465 0.015707606 -0.008454724
000210 47 2c 0b bc 47 28 51 bb 90 a0 59 3b e7 86 e3 bb
       -0.008494443 -0.0031914876 0.0033207275 -0.006943572
000220 22 25 c0 3b 97 cb 41 bc 15 6b 51 bc fd f5 f8 ba
       0.0058638016 -0.011828325 -0.012781878 -0.0018994209
000230 40 46 3b 3c 89 15 de b9 21 0d ff bb cf 01 97 bb
       0.011430323 -0.00042359185 -0.0077835475 -0.00460837
000240 dc 76 71 3c 40 de 3a 3b 15 c5 83 bc 29 43 19 bc
       0.014737811 0.002851382 -0.016085187 -0.009354391
000250 b2 2b cd 3b 8b e1 19 3c bb b3 97 bb cb e8 cb bb
       0.0062613124 0.009392153 -0.00462958 -0.0062228194
000260 79 38 7c 3c f9 cb a6 3a 97 d3 a4 b9 b5 93 22 3a
       0.0153943235 0.0012725584 -0.00031438164 0.00062018196
000270 b5 92 e6 b9 75 3e e1 39 d3 a4 86 37 66 e1 dc 3b
       -0.00043978324 0.00042961878 1.6050797e-05 0.006740737
000280 02 10 2f bb b8 b1 ab bb 80 ce 84 3c 37 36 29 3b
       -0.0026712422 -0.0052396916 0.016211748 0.0025819668
000290 70 3c e0 bb 5e dd 03 3c 62 dd 1b 3b 21 85 ef 3b
       -0.006843142 0.0080483835 0.0023783077 0.0073095714
0002a0 ae c7 aa ba 16 cb 07 bc 8d ce 0c 3c 59 92 80 bc
       -0.001302948 -0.008288166 0.008594167 -0.015694784
0002b0 26 61 ad b9 6f 59 e3 3a 61 c4 2b 3c dd e7 9f 3b
       -0.00033069513 0.0017345379 0.010483832 0.004879935
0002c0 e1 ca a6 3a b9 22 35 3c 57 22 f4 bb 12 73 59 bb
       0.0012725258 0.011055642 -0.0074503827 -0.003318016
0002d0 30 f3 e2 bb 82 6c 6e bc 32 2a 3b ba b0 64 8d 3c
       -0.006925963 -0.0145522375 -0.00071397715 0.017259926
0002e0 47 93 53 bb 93 0e 2a bc 73 55 5d bc 6b 50 9f bb
       -0.003228383 -0.010379451 -0.013509142 -0.0048618815
0002f0 fb 27 fe bb f0 33 44 3b a6 41 e0 ba e4 40 58 3c
       -0.007756231 0.0029938184 -0.0017109409 0.013199065
000300 c9 4d b2 3b 5c 07 6a 3b 33 53 6b 3a e1 4b 77 3c
       0.0054414016 0.0035709953 0.0008976936 0.015093775
000310 aa 4c a4 3b c7 ff 79 3c a7 ed 31 3b 04 65 4e bc
       0.005014022 0.015258736 0.0027149708 -0.012597326
000320 32 a0 2a 3c f3 d6 a9 38 80 73 43 3b 55 a6 1f bc
       0.01041417 8.0985854e-05 0.0029823482 -0.0097442465
000330 4a ec 1f bc 70 d9 15 bc 40 da 32 3c 05 6a ae bb
       -0.009760926 -0.009146079 0.010916293 -0.005322697
000340 06 a8 00 bc 03 cd 91 bb c4 5f a9 3b 2d 5e 31 3c
       -0.00785256 -0.004449488 0.005168887 0.010825676
000350 a0 76 4d bb 0d c2 46 3b 8e bb 93 bc 47 ff fb ba
       -0.0031351224 0.0030328066 -0.018033769 -0.0019225859
000360 26 14 2d ba 72 07 ef 3b ce 75 6a 3a bd d4 6c 3c
       -0.00066024286 0.0072945887 0.0008943946 0.014455018
000370 db b1 52 3c b8 94 1d b9 9e 4a f7 3b 26 02 7a 3c
       0.012859787 -0.00015028089 0.007546737 0.015259301
000380 67 94 c0 3b a6 e6 15 bc 6f 30 fe bb db ce 62 ba
       0.005877066 -0.009149229 -0.0077572386 -0.00086520397
000390 b6 b0 11 3b f7 de bf bb 7b 80 db ba ff f3 a1 bb
       0.0022230572 -0.005855437 -0.0016746664 -0.0049424167
0003a0 aa 52 72 3c 47 47 0e bb 16 f8 1f bb 15 cb 4b 3c
       0.014790216 -0.0021709965 -0.0024409345 0.012438555
0003b0 cb 8d 58 3b 8e 57 fd b9 1d f6 0d 3c 04 3c 9c 3b
       0.00330435 -0.00048321154 0.008664635 0.0047678966
0003c0 b4 03 6d 3c 27 05 1c bc 90 4f 8b bb f2 c1 6a bc
       0.014466215 -0.009522713 -0.004251428 -0.014328467
0003d0 b5 16 e5 3b b0 80 e0 bb 29 09 f8 ba ee 30 9d 3c
       0.0069912323 -0.0068512782 -0.0018923628 0.01918837
0003e0 de 41 c4 3b f4 96 0d 3c 1b 7a 3a bb 6b cd 81 3a
       0.0059892973 0.008641947 -0.0028454128 0.0009903138
0003f0 fd 9c ac 3b 6a 58 c7 bb 5d 0a 79 bc 11 13 16 3c
       0.005267738 -0.006083538 -0.015200225 0.009159819

embeds.6.weight f4 [32, 11]
000000 e5 d4 0d bc 8f 2b 4a bc ef f5 13 3c ae e7 cf 3a
       -0.008656715 -0.012339487 0.009030803 0.0015861893
000010 82 7d 1f 3c b5 e3 11 3b 6f 87 c4 bb 30 71 83 bc
       0.009734513 0.0022260968 -0.0059975903 -0.016045183
000020 1b ae 1e bc 62 69 76 bc 37 f8 06 bc dc af 75 3a
       -0.009685065 -0.015039774 -0.00823789 0.00093722134
000030 93 87 81 3c e8 35 02 bc ac 66 9d bc 8f 71 74 38
       0.015811717 -0.007947423 -0.019213997 5.8279893e-05
000040 27 2b a9 ba 08 0f 12 3c b4 7d 94 3b 14 82 1f 3b
       -0.0012906537 0.008914717 0.0045315865 0.0024339007
000050 06 cd ee 3a 73 22 24 bc 35 ec 43 bc d6 6c 8b 3c
       0.0018219061 -0.010017979 -0.011958172 0.01701967
000060 fb fc aa bb 6f 06 29 3c 00 6a 97 bb 5b d3 6e bc
       -0.005218146 0.010316475 -0.0046207905 -0.014576758
000070 e5 f3 c9 bb 46 ba 6c ba 26 82 88 bb ef 97 7c 3c
       -0.0061631077 -0.00090304425 -0.0041659055 0.015417083
000080 9c 0b 7f 3b c9 13 35 3b 30 a0 0d 3b d2 33 10 bc
       0.0038916832 0.00276302 0.0021610372 -0.008801417
000090 b8 54 78 3a c9 62 3b bc cf f7 2c ba b9 9c e2 3b
       0.00094730733 -0.011437126 -0.00065982057 0.0069156555
0000a0 fd 06 08 3a 05 4c dc bb 02 d3 09 bb 05 b0 6e 3b
       0.00051890296 -0.0067229294 -0.0021030311 0.0036420834
0000b0 aa 2c a7 3b 64 18 13 3c 0f 23 07 3c af b4 12 bc
       0.00510176 0.008977983 0.008248105 -0.008954211
0000c0 89 cc 07 bc 5d 04 92 3c d0 bc c2 bb 45 30 fb 3a
       -0.008288511 0.017824346 -0.0059429184 0.0019164166
0000d0 ad 21 8b 3b 6e 62 bd 3a 26 05 e7 bb 09 ba 2a 3c
       0.004245958 0.001444889 -0.0070501743 0.010420331
0000e0 e2 5e 83 3c a6 7d 27 3b c5 ab b4 bb 49 e9 c1 bb
       0.016036455 0.002555707 -0.0055136406 -0.0059177023
0000f0 02 6d 14 3c 10 55 16 bc 18 af e2 bb 7c a1 50 3b
       0.009059193 -0.009175554 -0.0069178455 0.0031834533
000100 db f0 22 bb 01 30 a5 bb 39 2c 59 bc 64 e4 2b bc
       -0.00248628 -0.005041123 -0.013255172 -0.010491464
000110 e6 a5 30 bc e9 cd 0d 3c ec 17 ef 3b f9 97 b8 3b
       -0.010781741 0.00865505 0.007296553 0.005633351
000120 3d 92 53 3a 7b 92 d8 ba 06 a8 57 bc a6 37 e2 ba
       0.00080708024 -0.0016523147 -0.0131626185 -0.0017259016
000130 7d 98 41 3b 12 15 6b 3b 40 41 23 3c 30 04 14 bc
       0.0029540353 0.0035870713 0.009964287 -0.0090342015
000140 3e ee 91 3c f5 f2 d3 ba 5c 24 a4 bb de 65 a5 3b
       0.017813798 -0.0016170429 -0.005009217 0.005047544
000150 6f a4 ad ba c3 1d 06 ba c2 8d 3e bc 10 bc 6b 3b
       -0.0013247858 -0.0005116129 -0.011630477 0.0035970248
000160 f2 3a 26 3c eb 3e 78 bb 53 d8 b2 3a 15 f3 3d bc
       0.01014589 -0.00378793 0.0013644792 -0.0115936
000170 34 3f ae 3b 9d 53 6d ba 7e bd 93 3a ab ae c9 bb
       0.005317593 -0.0009053292 0.0011271683 -0.0061548552
000180 46 f8 cd bb 33 41 1f bc 04 95 24 bc 92 71 d5 3b
       -0.0062857 -0.009720135 -0.010045294 0.006513783
000190 59 a7 71 3b ef 81 00 3a 6a b1 ea ba ca 4b 06 bc
       0.0036873429 0.0004902174 -0.0017905657 -0.00819678
0001a0 20 25 66 bb 3e 44 db 3b 96 05 16 37 f0 31 02 3c
       -0.0035117343 0.0066914847 8.941997e-06 0.007946476
0001b0 8d 0a 0e bb e4 41 25 3c 33 a4 3c bb 37 00 3a 3b
       -0.002167377 0.01008651 -0.0028784394 0.0028381476
0001c0 72 e7 43 bb af 1d 85 3c 1e ad 6a bc ca 5f 67 bb
       -0.002989259 0.016249506 -0.014323501 -0.0035304897
0001d0 09 43 bc 3b 10 6c 5f 3c 62 6e c3 3b 87 87 db bb
       0.005745296 0.013636604 0.0059640864 -0.0066995057
0001e0 03 b0 05 3c 5e bb 16 3b b7 b9 4b 3c a1 3b 6e 3a
       0.00815964 0.0022999863 0.012434415 0.0009087865
0001f0 20 71 8c ba b0 93 47 ba fd 7b f7 3a 42 2e 51 3c
       -0.0010714866 -0.0007613255 0.0018881556 0.012767376
000200 57 75 41 bc 37 28 ea bb 55 cc 8b bc 26 88 f9 ba
       -0.011807761 -0.0071459073 -0.017065207 -0.0019037768
000210 94 c2 a3 3a ad 82 06 bb b5 4e e6 3b fe a4 c1 bb
       0.0012493902 -0.0020524666 0.0070284256 -0.005909561
000220 b3 07 61 3b 5f 82 a1 ba 8c 4b 8c bb f5 a4 4a 3b
       0.0034336864 -0.0012322179 -0.004281467 0.0030921076
000230 f8 f0 f2 3b fb 0b f5 ba 04 52 bb 3b 90 c7 47 bc
       0.0074139796 -0.0018695587 0.005716564 -0.0121935755
000240 85 ac 1e 3a f8 23 7e 3b 37 ff a0 3c ce df a4 bb
       0.0006052929 0.0038778763 0.019652946 -0.0050315624
000250 60 b6 8e 3c 41 0a 27 bb e1 ee 05 3b e2 49 8a 3b
       0.017420948 -0.002548829 0.0020436572 0.0042202333
000260 d6 cc 8c 3c 26 dd fc 3b 57 86 be 3a 36 57 31 3a
       0.017187517 0.0077167926 0.0014535886 0.00067650096
000270 d0 9f 27 bb bb bf d3 3b 07 50 82 3c ab 78 8a 3c
       -0.0025577433 0.006462065 0.0159073 0.016903242
000280 5d 1e 08 bc 07 ce a5 3b 01 0b aa bb 00 d3 b2 3b
       -0.00830802 0.0050599608 -0.0051893 0.005457282
000290 f4 56 bd bb c4 32 1b bc b6 b9 85 3b 79 88 08 bc
       -0.005778188 -0.009472553 0.0040809764 -0.008333319
0002a0 98 05 3f ba 56 ec 9a bb f8 6e 25 bb 2a 22 e0 3a
       -0.00072869053 -0.0047278805 -0.0025243144 0.0017100025
0002b0 77 25 35 bb fe fd e0 bb f6 99 9e bb 42 8b 95 3a
       -0.002764074 -0.0068662157 -0.004840131 0.00114093
0002c0 54 f2 d9 ba 3d ce bf 3b b5 3a 39 3a 8e dd 1a bc
       -0.0016628006 0.005853443 0.0007065938 -0.009452237
0002d0 14 f9 3d bc f0 63 a9 bb 51 78 05 3c 09 ec 1f 3b
       -0.011595029 -0.005169384 0.008146361 0.0024402163
0002e0 58 9e 0d bb 14 d3 75 3b e1 bf 36 3b ae cc e6 3b
       -0.0021609273 0.0037509846 0.0027885365 0.0070434427
0002f0 0e dd 14 bb 75 bf 4b bb cd 0c ac 38 24 97 8f bc
       -0.0022714767 -0.003108946 8.2039835e-05 -0.017528124
000300 81 d9 a4 3b f3 21 51 3b e6 4f 0f 3c 49 9b 93 ba
       0.0050308113 0.0031911104 0.008747077 -0.0011261489
000310 ff f5 94 bb 26 a6 c4 3b 76 0d 91 bc 54 34 e0 3a
       -0.0045459266 0.0060012517 -0.017706614 0.0017105439
000320 e7 8f 8d 3b 99 8e d8 3b bd 74 c4 39 8a 01 3d bc
       0.004320133 0.006608796 0.0003747101 -0.0115360115
000330 18 ca 4f ba ca 32 b1 3a ac 66 21 bc 59 6f 26 bc
       -0.00079265377 0.0013519165 -0.009851139 -0.010158383
000340 eb 5a b1 3b 86 6f 01 bc 74 94 5c bc ee 3a 76 3c
       0.0054124496 -0.007900124 -0.013463128 0.015028698
000350 1b 74 1a 3c 7c a2 2a 3c 73 ee 39 3c 20 3f 6d 3a
       0.009427096 0.010414716 0.011348355 0.0009050239
000360 33 6c 11 3c 4a 92 d3 38 a7 da 0d 3c 0c ae 9a bb
       0.008875894 0.000100885125 0.008658088 -0.004720455
000370 20 fa 53 bb 67 e6 94 bb 83 5f 7a 3c c1 7f 21 3b
       -0.003234513 -0.0045440677 0.015281561 0.0024642798
000380 b2 78 36 bc eb 4a 85 bc 8e 9d 39 b9 26 13 30 3c
       -0.011137174 -0.016271075 -0.00017701669 0.010746753
000390 ae b3 59 bc 50 83 2b 3b 87 75 f8 ba bd 57 61 3a
       -0.013287468 0.0026170798 -0.0018955924 0.0008596143
0003a0 8d 53 cc 3b c8 bb 87 3b a7 1f 60 3b 1c f8 5a 3b
       0.006235546 0.0041422583 0.0034198554 0.0033412045
0003b0 37 06 9b 3b 65 f3 a6 ba 98 25 48 3b 8a 76 59 3b
       0.0047309655 -0.0012737332 0.0030539986 0.0033182227
0003c0 46 0f 93 bb 4a e4 7d 3b 06 19 18 3c 6a d4 6c 3c
       -0.0044879047 0.0038740807 0.00928331 0.01445494
0003d0 99 81 4a 3c 15 7f 81 bb e2 71 32 3c 25 c7 40 3c
       0.01236 -0.003951917 0.01089141 0.01176623
0003e0 46 e5 d5 bb 59 ad 53 ba f0 a6 87 3c b2 a2 54 bb
       -0.0065275757 -0.0008074842 0.016559094 -0.0032445607
0003f0 0a d7 84 3a d0 b5 8e bb 97 a6 e3 bb 6c 74 e2 bb
       0.0010134887 -0.00435517 -0.0069473493 -0.006910851

embeds.7.weight f4 [8, 5]
000000 7d f6 48 3c 73 b5 b8 bb 47 2a ae 3b 01 0c 29 bc
       0.012265799 -0.005636865 0.0053150984 -0.010317803
000010 2d 4b 80 bc d8 c0 90 3c 48 f9 8c 3b 58 8c e0 bb
       -0.015660847 0.01767008 0.0043021776 -0.006852668
000020 05 f3 6f 3a 07 91 8d 3c 70 91 15 3a 4a 3f 5e 3b
       0.0009153339 0.017281068 0.0005705571 0.0033912235
000030 22 a0 b0 ba 5c 23 1b bb e0 87 67 39 88 ac 94 3b
       -0.0013475458 -0.00236722 0.00022080494 0.004537169
000040 5e b1 98 3b 81 e4 40 bc 68 dc a1 ba 49 ec b3 ba
       0.0046598157 -0.01177323 -0.0012349011 -0.0013727035
000050 7b fb 23 3c 54 5c 64 3b 42 8e 88 3c 96 34 00 bc
       0.010008688 0.003484507 0.016669396 -0.007825037
000060 12 94 c1 ba e7 d0 d5 bb 8b ec a8 bb a9 39 13 bc
       -0.001476886 -0.0065251472 -0.0051551512 -0.008985915
000070 77 e8 54 3c 1c fa ab bb 6d 54 17 3b 72 d0 97 bc
       0.012994877 -0.005248321 0.0023091093 -0.018532012
000080 44 62 90 3c 61 14 de bb 8e b8 5b 3b 7b 0f d3 bb
       0.017624982 -0.0067773317 0.0033526751 -0.0064410544
000090 ab bc e6 bb 0e 48 9c 3b 07 e9 b0 3b a6 4f 26 bc
       -0.007041534 0.004769332 0.005398873 -0.010150826

embeds.8.weight f4 [3, 3]
000000 ae 4a 3d bb 3a fd 1d 3b c1 62 dc bb 42 6c bb bb
       -0.0028883624 0.0024107234 -0.0067256396 -0.0057196924
000010 e2 de 32 3c 06 a4 b9 3b 7c a2 19 3c cd 93 15 3c
       0.010917397 0.005665305 0.009377118 0.009129477
000020 d0 4b 45 bc
       -0.012042001

embeds.9.weight f4 [3, 3]
000000 f9 db b4 bb 3e a2 34 3c f4 70 49 3c 89 27 57 3b
       -0.005519387 0.01102501 0.0122949965 0.0032829961
000010 07 2c 25 3c 52 be 80 3b 64 b0 22 3a 86 77 a8 bb
       0.010081298 0.003928938 0.0006206094 -0.0051412014
000020 ef 4a d3 3a
       0.0016120354

embeds.10.weight f4 [3, 3]
000000 b7 a0 1f bc 02 06 ad bb dd b7 db ba 1b 5f 40 bc
       -0.009742907 -0.005280257 -0.001676317 -0.011741425
000010 77 34 14 3c fd 56 37 bb 05 45 34 bc 90 90 6f 3c
       0.009045712 -0.0027975433 -0.011002784 0.014621869
000020 e1 b4 53 bb
       -0.0032303857

embeds.11.weight f4 [3, 3]
000000 c6 32 2b 38 7e cf d3 ba dd 48 76 bc eb 5f 01 3c
       4.0816863e-05 -0.001615986 -0.01503202 0.007896404
000010 13 35 fb 38 0b 84 a4 ba cd b0 a2 bb 9c 93 b7 bb
       0.000119784985 -0.0012551559 -0.004964924 -0.005602313
000020 98 e8 a9 bb
       -0.005185198

embeds.12.weight f4 [3, 3]
000000 57 5d ad bb a9 e1 5f bc 1e 2d e5 bb 23 0a 00 bc
       -0.005290668 -0.013664641 -0.006993904 -0.007814917
000010 36 68 14 3c e9 b4 2f 3c 0c 1e fe 3a 2f e5 3f bc
       0.009058049 0.010724285 0.0019387617 -0.0117123565
000020 0a 91 d3 3b
       0.006456499

embeds.13.weight f4 [3, 3]
000000 03 a1 21 bb e2 4f 07 3a 29 5b 55 3c 30 78 d5 bb
       -0.002466262 0.0005161745 0.013022223 -0.0065145716
000010 d9 87 09 bc 4c ce 6c 3c b7 fb 82 3a 53 f6 18 bc
       -0.008394205 0.014453482 0.000999323 -0.009336072
000020 7d 98 db 3b
       0.0067015276

embeds.14.weight f4 [3, 3]
000000 4a 1a 70 3b d3 85 99 bb 00 9e 47 bc 3c 58 0d 3b
       0.0036636763 -0.0046851425 -0.012183666 0.0021567484
000010 8a bd fb 3b 81 86 03 3c 38 7e 36 3a e0 f4 c4 3b
       0.007682507 0.008027674 0.0006961557 0.0060106367
000020 3c 04 c5 3a
       0.0015031169

embeds.15.weight f4 [3, 3]
000000 12 b5 5f 3b 90 14 e8 3b 01 cf 2d 3b 50 0b 55 bb
       0.0034135026 0.0070825294 0.002652109 -0.0032507963
000010 24 6a 15 3c fd 04 1a 3b c0 54 63 bc 84 1c 08 3a
       0.009119544 0.0023501508 -0.013875186 0.00051922374
000020 36 e6 a8 bb
       -0.0051543964

embeds.16.weight f4 [3, 3]
000000 d7 cb e7 3a 6b 34 96 bb 79 b7 52 bb fc dd 26 3c
       0.001768465 -0.0045838854 -0.0032152815 0.010184761
000010 b0 83 f3 3b 0a 48 54 bb 77 6a 7f 3a 0f 7f 8c 3c
       0.00743147 -0.0032391571 0.00097433425 0.01715043
000020 19 b0 c2 b9
       -0.00037133766

embeds.17.weight f4 [3, 3]
000000 27 9e 5f bc 50 cc e1 bb a5 e2 e9 3b 5d 46 57 bc
       -0.013648546 -0.006890811 0.007137614 -0.0131393345
000010 cb 86 38 bc 18 04 32 bc 30 06 f6 3b 69 83 41 3c
       -0.011262606 -0.010865234 0.007508062 0.011811116
000020 ec f1 89 bc
       -0.01683899

embeds.18.weight f4 [102, 21]
000000 3d 9c 98 3a 17 15 98 3b 25 5c 24 ba 4f 4d af bb
       0.0011643242 0.004641186 -0.0006269834 -0.005349792
000010 18 ee 59 bc e0 43 37 bc 47 d3 f2 bb dc 7c 5a 39
       -0.013301395 -0.011185616 -0.00741044 0.00020836614
000020 02 6b 03 3c de e2 3b 3b b9 36 a8 3b 49 a7 65 b9
       0.008021118 0.002866916 0.0051334766 -0.0002190146
000030 14 f7 87 3c 2e 1c f2 3a 4d 6c 0f bb 1d d4 89 3a
       0.016597308 0.0018471533 -0.002188462 0.0010515485
000040 b0 ef ec 3b f3 94 18 3c 53 97 24 3c ab 26 47 bb
       0.0072307214 0.009312856 0.010045844 -0.0030388038
000050 40 40 49 bc 01 db 53 bb fb 01 6b 3b 75 da 12 3a
       -0.012283385 -0.0032326581 0.0035859335 0.00056020106
000060 16 c1 0a bc 58 c3 2d 3a 01 a0 95 bc 81 4a ce 3a
       -0.008468887 0.0006628535 -0.018264772 0.0015738757
000070 4d a3 bb 3b 7b a4 a2 39 60 0d 40 3c 99 50 51 bc
       0.005726254 0.00031021595 0.011721939 -0.012775564
000080 c1 76 ac 3b 58 45 f1 b9 cc db f7 3b 25 82 3a bb
       0.00526318 -0.00046018767 0.0075640436 -0.002845892
000090 d3 72 24 3c 69 31 e8 bb 2e 34 3f bb 47 63 3a 3c
       0.010037142 -0.0070859683 -0.0029175389 0.011376209
0000a0 a4 f1 83 b9 b8 4a f6 3b 2c 97 5e 3b 54 e7 8c 3b
       -0.00025166303 0.0075162314 0.0033964617 0.0043000374
0000b0 fc cf 5b bc c2 66 2a 3b 62 0a c7 bb a7 a2 45 bc
       -0.013416287 0.002600119 -0.006074236 -0.012062705
0000c0 63 6f 86 3c 10 13 d7 bb 35 28 f0 bb 7b 4d 1f bc
       0.016410535 -0.0065635517 -0.007329012 -0.009723063
0000d0 a4 ee 0b bc b8 06 77 3c 68 c2 9d 3c c7 ba 1c bb
       -0.008540783 0.0150772855 0.01925774 -0.002391504
0000e0 f5 5b 83 3b 0c d4 d7 ba b9 f8 66 bb af 94 07 bc
       0.004008765 -0.0016466393 -0.0035243465 -0.008275195
0000f0 cf f4 6b 3b 26 24 2b bb 18 4b 45 3b db 53 08 bc
       0.0036004072 -0.0026114075 0.0030104574 -0.008320774
000100 00 ac 32 3a 7c 9d 5d 3c f8 fc de 3a 75 36 82 3c
       0.0006815791 0.013526317 0.0017012646 0.015895108
000110 de ff 30 3b 81 16 94 bb 1d 47 4b 3c fd e5 41 3c
       0.0027007977 -0.0045192842 0.012407091 0.011834619
000120 1e b3 de 3b 14 6c a1 3b af 30 3f bb a7 d1 01 3b
       0.006796255 0.004926214 -0.0029173305 0.00198088
000130 a4 57 95 3c 9b 18 9a bb a9 84 47 bc ab ac 1f 3b
       0.018230267 -0.00470264 -0.012177625 0.0024364393
000140 eb c2 09 3c e6 47 51 bc 29 e3 0b bb 79 04 8f 3c
       0.0084082885 -0.01277349 -0.0021345115 0.017458187
000150 1e 67 15 3c 50 92 e7 3b 2f db b2 3a d9 b4 2d bb
       0.009118823 0.0070670024 0.0013645644 -0.0026505499
000160 e4 f8 15 3c 2b 1f 8b 3c 73 d3 3b 3c c6 5b 49 3b
       0.009153578 0.016982635 0.011463988 0.0030724867
000170 c7 d8 25 ba 05 5f ca bb 05 da f6 ba 96 e9 2f bc
       -0.0006326553 -0.006175878 -0.0018833285 -0.010736844
000180 c6 7d 8c 3b 13 ad ea 3b eb 48 9c bc 96 2f 04 bc
       0.0042874543 0.0071617453 -0.019077739 -0.008067986
000190 bb b8 3b 3c 4e 70 52 bc 49 71 f3 3b 19 34 76 3b
       0.011457617 -0.012844158 0.007429276 0.0037567674
0001a0 34 db 42 3c 47 96 2d bc 81 5e 55 3c d0 a3 82 bb
       0.011893082 -0.010594911 0.01302302 -0.003986813
0001b0 53 2a 4b bb 20 17 e1 38 af 82 27 bc 0e 0a 55 bc
       -0.003100057 0.000107331434 -0.0102240285 -0.0130028855
0001c0 b6 52 85 bc aa 09 cd 38 84 f1 d7 b7 c2 35 b2 b9
       -0.016274791 9.776962e-05 -2.5742462e-05 -0.00033990858
0001d0 0a 06 a7 3a 34 68 e5 ba 40 c1 37 3b 65 85 17 3c
       0.0012742889 -0.0017502368 0.002803877 0.009248112
0001e0 70 f1 81 ba 41 05 5c bc 02 80 49 3c 8f da f6 ba
       -0.0009913873 -0.013428987 0.012298586 -0.0018833446
0001f0 5b 5e 6a bc e1 e8 c7 39 d2 ff 10 3c 9f 9a 8d 3b
       -0.014304723 0.00038129746 0.008850055 0.004321411
000200 5c 58 43 bc 2f 02 d5 b9 0f e0 60 3c e0 52 96 ba
       -0.011922922 -0.00040628153 0.013725295 -0.001146879
000210 ec 06 6e 3b 2e 21 4b 3b ed b4 86 3c d2 1e 65 3b
       0.0036320044 0.0030995118 0.016443694 0.0034960997
000220 9f 4a 90 bb 02 59 d9 bb 02 80 e7 3a dc f3 ce bb
       -0.004403427 -0.006632925 0.0017662051 -0.0063156914
000230 8c 16 e9 bb 2b bd 03 3c 26 6d 20 3a 6f 0b 81 bc
       -0.0071132835 0.008040707 0.000611978 -0.015752522
000240 8b 7e 92 bb e2 37 f4 ba 78 a4 f6 3b 35 07 86 bb
       -0.0044706515 -0.0018632377 0.0075269304 -0.0040902146
000250 5b 11 3d 3c ec c0 f0 39 fd cc 5a 3c dc a8 7f ba
       0.011539782 0.00045920105 0.013354537 -0.000975264
000260 27 e8 90 3b 41 2c 31 bb 92 e8 27 bb 41 da 39 3c
       0.004422206 -0.0027034434 -0.00256208 0.01134354
000270 e6 04 89 3b 66 e4 f5 ba 6c 1d e1 ba 00 03 2d 3c
       0.004181492 -0.0018760085 -0.0017174906 0.010559797
000280 10 d7 8e b9 cf 7b 17 bb 0e 79 ae bb 11 f9 91 bc
       -0.00027244585 -0.0023114567 -0.0053244894 -0.01781896
000290 49 6b 4d ba 2b 7a 1f 3b 0c fb 21 3b 6f 54 83 3c
       -0.0007836116 0.0024334292 0.0024716286 0.016031472
0002a0 40 85 4e bc e7 4a 79 3c fd ff 03 ba 89 b2 e6 bb
       -0.012605011 0.015215612 -0.00050353986 -0.007040326
0002b0 8d 64 29 bc bd 95 92 bb 32 96 bc b9 14 75 69 bc
       -0.010338915 -0.0044734166 -0.00035970059 -0.014249105
0002c0 d0 b8 81 3b 85 8d 2d 3c 91 57 05 bb 29 2b 29 3b
       0.003958799 0.010592823 -0.0020346383 0.002581308
0002d0 1d a2 8f bc 97 65 00 bc 66 51 e9 3a 90 3f 0a 3c
       -0.017533356 -0.007836721 0.0017800748 0.008438006
0002e0 92 3a 4a 3c c9 34 91 3b c2 6c 2e 3c 5d c2 85 3c
       0.012343066 0.0044313413 0.010646047 0.016328031
0002f0 dc e7 7d 3c 58 78 8d bb 73 2f 3e 3b 7e 44 1c 3c
       0.015497174 -0.0043173246 0.002901998 0.009537814
000300 e2 bb e1 ba ae 32 05 bc eb 96 c3 3b a1 4b ca ba
       -0.0017222131 -0.008129759 0.0059689186 -0.0015433916
000310 fe c1 90 bc 81 4e 68 bb ad 71 3c 3c f4 ba 87 3b
       -0.017670628 -0.0035447183 0.011501712 0.0041421596
000320 75 91 ec 3b 7e 2f e8 3b f9 27 27 3b c9 0d 98 b9
       0.0072194883 0.0070857396 0.0025506003 -0.0002900197
000330 52 af e6 ba f2 ce b5 3a f6 5c 01 b8 1e 66 48 3b
       -0.0017599857 0.0013870879 -3.0842573e-05 0.0030578445
000340 96 dd 27 3c a9 f9 88 bc 9b ae 9b bb 20 d6 6d bb
       0.010245701 -0.01672061 -0.004751039 -0.0036290959
000350 dc a5 c3 bb 59 e5 a3 3a 00 7f 62 3b c2 0a 84 ba
       -0.0059706997 0.0012504264 0.0034560561 -0.0010074007
000360 f8 cf 59 bb 94 fc e8 bb 1a e4 07 bc fc 8b ae bb
       -0.0033235531 -0.007110188 -0.00829413 -0.005326746
000370 d3 46 e9 3b d4 4e e5 3b c1 7f 93 3b 02 38 70 bb
       0.0071190386 0.0069979224 0.0045013134 -0.0036654477
000380 0b 5f 19 3c 04 67 20 3c cb 94 a4 3b bd 5c 2d 3c
       0.009361039 0.009790186 0.0050226203 0.010581193
000390 eb bf 55 bc 09 a6 0f 3c ca ba 95 bb b5 d3 53 bc
       -0.013046245 0.008767613 -0.004569386 -0.012928893
0003a0 e4 37 88 3b 42 9b 05 3c 0a c2 3d bb 9b 6b a8 bb
       0.0041570533 0.008154692 -0.0028954768 -0.0051397807
0003b0 14 8a 5b bc 45 26 48 3b 72 50 73 bc 94 3c 42 bc
       -0.01339962 0.0030540389 -0.014850723 -0.011855263
0003c0 6a 42 09 bb ce 7c 4f 3c 75 90 10 bc 98 84 43 3c
       -0.0020944127 0.012664033 -0.008823504 0.011933468
0003d0 01 88 39 3b 59 20 8f bc 99 7a e7 bb b9 9b 66 bb
       0.0028309824 -0.01747148 -0.0070641753 -0.0035188033
0003e0 eb 65 31 bc cb 9f 28 bc 94 20 53 3c 19 ef 39 3c
       -0.010827522 -0.010292004 0.012886185 0.011348509
0003f0 41 91 a8 3a 57 69 e1 3b 5a 7e 99 3b 5e 1b 5a bc
       0.0012860672 0.0068790126 0.0046842517 -0.013312189

embeds.19.weight f4 [46, 14]
000000 8f e4 a4 b8 3e a4 a2 bc c2 49 85 ba fa 1d 1f bb
       -7.862702e-05 -0.019853707 -0.0010169076 -0.0024279342
000010 e0 57 5c 3b f8 54 67 3c e6 d7 bf 3a 41 5f f2 bb
       0.0033621714 0.014119379 0.0014636486 -0.007396609
000020 7d bc 58 ba 4d a2 17 3c 26 4c 6f 3c 91 91 1f bb
       -0.0008267833 0.009255004 0.014605558 -0.002434824
000030 8c 07 04 bc 4e 05 58 bb cc 48 df 3b 88 16 05 3b
       -0.00805844 -0.0032962146 0.006814098 0.002030762
000040 f9 6c f4 bb 31 d2 85 3b af 9b 9f bb e9 ca db 3b
       -0.0074592796 0.0040838947 -0.004870854 0.0067075384
000050 66 fe 91 3b 5a 54 02 3a f7 a7 35 bc 24 41 1c 3c
       0.0044553755 0.0004971676 -0.011087409 0.009537015
000060 7d 91 ff 3b 7e bc 1b bc 32 ad 26 3c 92 5c 0b 3c
       0.007799326 -0.009505389 0.010173129 0.008505957
000070 1c 67 6d bc ed 21 3a ba 2c 59 58 bb ff b1 8a 3b
       -0.014489915 -0.0007100392 -0.0033012135 0.0042326446
000080 4f 77 e9 ba 14 92 a3 3c 7c b5 90 3c a1 20 9d 36
       -0.0017812046 0.019967116 0.017664663 4.682763e-06
000090 e5 5a 96 3a 32 25 14 3c 85 b0 96 3b 82 1f bc bb
       0.001147118 0.009042071 0.0045986795 -0.0057410607
0000a0 6e 4f 30 bb 7c 3d 3a bc 30 02 a4 3a 5e 76 5f bc
       -0.0026902813 -0.011367198 0.0012512859 -0.013639061
0000b0 71 88 10 bc 5e 87 bc bb 25 22 d5 3b e7 ed ac 3a
       -0.008821593 -0.0057534417 0.0065043145 0.0013193459
0000c0 01 d7 78 3b ca 69 7b bb b2 65 38 3c 1b b2 b5 bb
       0.003796995 -0.0038362616 0.011254715 -0.0055449135
0000d0 6d 7e 26 3a 78 3a d6 3b ec 3d 11 3c ab 09 d9 3a
       0.00063512364 0.0065377317 0.008864861 0.0016558667
0000e0 02 2f 1f bc 39 d0 95 bb 06 52 2f bc f8 de 78 3b
       -0.009715797 -0.004571941 -0.010700708 0.0037974697
0000f0 90 fd c6 3b 0b 84 61 3a e1 9a 8c b8 b8 54 04 3b
       0.0060727075 0.0008602745 -6.704569e-05 0.0020192098
000100 11 73 0d bc 79 32 14 3c c5 59 d7 bb fa bd 87 bb
       -0.008633391 0.009045237 -0.0065719807 -0.00414252
000110 9c 47 df b9 00 59 a9 3b 58 8e 50 3c 9c 4a 37 3c
       -0.00042587228 0.0051680803 0.01272925 0.011187222
000120 1b a2 74 3b 32 d4 3a 3b 78 38 1f 3c 29 22 0e 3b
       0.0037328068 0.0028507826 0.009718053 0.0021687842
000130 e5 f1 00 bb 6a da 10 bb de 1a 43 3a fd 56 88 bc
       -0.001967543 -0.0022102841 0.0007442663 -0.016643042
000140 fd ac 6a bb 46 7d 3a bc be a0 99 3c 66 74 d6 ba
       -0.0035808675 -0.011382407 0.018753406 -0.0016361594
000150 53 25 5f bb b0 fb 6e 3b 7b 43 06 3c cc e4 eb 3b
       -0.0034049347 0.0036465935 0.0081948 0.0071989056
000160 b7 8c b4 bb 2b 14 4c 3c 6f 07 7b 3b 39 d1 06 3c
       -0.0055099386 0.01245598 0.0038303991 0.0082285935
000170 f5 e8 d4 b8 a7 7f 1c bc 84 57 e7 bb a9 35 03 bc
       -0.000101523394 -0.009551919 -0.007059993 -0.008008399
000180 04 11 55 3b d3 2c 4c 3c bf 2c 9d ba 3c 2c 13 bc
       0.0032511363 0.012461859 -0.0011991485 -0.008982714
000190 1b a5 00 3c d0 46 3b 3c f9 9a 7a bc ab d3 0a bc
       0.007851864 0.011430457 -0.015295737 -0.008473317
0001a0 41 09 b5 3b 87 68 45 3c 44 2f e6 3b 4a f3 8d 39
       0.005524785 0.012048847 0.0070246775 0.0002707488
0001b0 f0 ae 5a 3c 01 ea 03 bc 21 33 2f bb 8e 68 1a bc
       0.013347372 -0.008051396 -0.0026733356 -0.009424342
0001c0 b5 5b 41 3c 30 08 1d bc a4 f4 15 3a 5f 1e 1d bc
       0.01180165 -0.009584472 0.0005720353 -0.009589761
0001d0 07 a4 5d 3c a4 ad 35 3c aa b7 dd bb 85 ac c6 3b
       0.013527877 0.011088762 -0.006766279 0.0060630464
0001e0 46 4e 2d 3c d3 e9 c6 3b ae 10 3b bb be 37 1f bc
       0.010577744 0.0060703545 -0.0028543877 -0.00971788
0001f0 0f 6d b5 3b 6b 99 24 3c c4 3b d5 bb e0 e2 90 bb
       0.0055366824 0.010046343 -0.0065073688 -0.004421577
000200 0a 18 e7 3a 97 0e 8c bb 25 1f 53 bb 36 56 06 bb
       0.0017631066 -0.0042742 -0.0032214609 -0.0020498163
000210 74 73 be ba bb 37 2b 3b 1f 92 0a 3b c6 a6 7a bc
       -0.0014530257 0.0026125747 0.0021144224 -0.015298551
000220 ee 54 b8 3a 24 8c 01 bc f1 88 8f 3c e4 79 05 bc
       0.0014063397 -0.007906947 0.017521353 -0.008146737
000230 b3 95 d5 3b cd 3d 49 bc 12 05 7f 3b 6e 07 9a 3b
       0.0065180897 -0.012282801 0.0038912934 0.0047005927
000240 4e aa 87 bc 2a 6e 5b bc 06 ed 60 3b fd e0 f0 bb
       -0.0165607 -0.013392964 0.0034320964 -0.0073510394
000250 82 c5 13 bb b0 96 d1 ba bd 5b 82 3b d2 fc 0a 3c
       -0.0022548144 -0.0015990343 0.003978221 0.008483129
000260 14 78 ce bb 4e 3d cf 3b 8f c2 67 37 fb f6 06 ba
       -0.0063009355 0.0063244468 1.3813972e-05 -0.00051484973
000270 b3 61 2e 3c 7e 1c a5 3a 74 22 04 3c e6 f7 85 bb
       0.0106434105 0.0012596992 0.008064855 -0.0040883897
000280 0e fb 4e 3b a2 0d 8b bc 06 97 05 bc 90 e7 85 3a
       0.0031582746 -0.016974274 -0.008153683 0.0010216106
000290 8b 37 94 bb 26 2c 4b 3c d3 05 5f bc 04 71 cd 3b
       -0.004523223 0.0124006625 -0.013612228 0.006269576
0002a0 33 83 1b bc b9 f2 ee bb 47 b6 85 ba 28 38 87 3c
       -0.00949173 -0.0072921184 -0.0010201418 0.01650627
0002b0 78 cf 55 bc a2 f2 4e bb b9 43 07 3c 84 7a ab 3b
       -0.013049953 -0.0031577726 0.008255892 0.005233111
0002c0 49 b1 02 3c 89 ca 3f ba 1b f1 82 3b d7 85 67 3c
       0.007976838 -0.0007316252 0.003996027 0.014131031
0002d0 34 32 30 3b 2b 80 c3 bb d2 85 40 bb 00 82 58 bc
       0.0026885392 -0.0059662065 -0.0029376638 -0.013214588
0002e0 62 98 0f 39 0c 71 ea bb 70 1e cb 3b 92 0c 35 3c
       0.0001369431 -0.0071545895 0.006198697 0.01105036
0002f0 39 48 17 bc c0 8c fb 3b e2 a6 7a bb 45 0f 45 3a
       -0.009233528 0.007676691 -0.0038246443 0.0007517229
000300 67 2e 3c bb 55 d9 d9 bb ed 97 ab b9 3d e2 37 3c
       -0.0028714181 -0.0066482225 -0.00032728855 0.011223373
000310 5e e4 ab 3b 06 bb d8 ba 0b 33 2b bb 14 d1 aa 3b
       0.0052457293 -0.001653523 -0.0026122953 0.0052129123
000320 96 14 04 3c fb d4 9a 3a d4 92 7b bb 18 3e 1a 3c
       0.008061549 0.0011812741 -0.0038387077 0.009414218
000330 55 a4 8b 3b a5 ef 6f bc 14 6a d9 3a 96 56 ac bb
       0.0042615333 -0.014644538 0.00165874 -0.0052593453
000340 14 d1 79 bb 02 3f 3c 3b 91 9f 88 bb 7b 20 06 3a
       -0.0038119005 0.002872408 -0.0041694124 0.00051165343
000350 dd c3 26 3b 50 e5 71 3c 29 1e a2 3b 29 cc d0 ba
       0.0025446333 0.014764145 0.004947443 -0.0015929985
000360 6b 5d 0b 3b 83 fd 10 bc 00 94 62 bc 7d 1f 61 bb
       0.0021265398 -0.008849504 -0.013829231 -0.0034351044
000370 49 69 e5 bb 27 1c 78 3c 19 b6 87 bc 8a 70 6b 3c
       -0.0070010764 0.015143431 -0.016566323 0.014370093
000380 ca 7a de bb aa f3 df 3a 88 c9 94 3c 6b 64 81 3b
       -0.00678954 0.0017086167 0.018162504 0.0039487383
000390 8b c1 fe 3b f4 8e 0b 3c 0a 43 68 bb f4 96 32 bc
       0.007774537 0.008517969 -0.003544035 -0.010900248
0003a0 46 84 6b 3c 61 8c f7 3b 8a 88 f6 ba 66 d4 02 bb
       0.014374798 0.0075545763 -0.0018809002 -0.0019963025
0003b0 27 e7 29 3c 70 12 72 bb 2d e9 a5 3a 33 4a 47 3b
       0.010370052 -0.003693726 0.0012657993 0.0030409216
0003c0 4b ba 5c 3c af f1 8e 3a 2e cc 81 bc d2 55 ab 3a
       0.01347215 0.0010905768 -0.01584443 0.0013071841
0003d0 95 7e bf 3b e2 8d 2e 3c bb f1 e5 bb e1 21 46 ba
       0.005843947 0.010653945 -0.007017342 -0.0007558149
0003e0 47 96 3e bb 48 6e 88 3c b7 8e 83 bb 60 04 51 bc
       -0.0029081271 0.016654149 -0.0040148157 -0.012757391
0003f0 70 dd 3c bc 2d 2e 9a ba 8f 73 7d bc 24 a8 86 3b
       -0.011527404 -0.0011763029 -0.015469446 0.0041093994

bn_cont.weight f4 [11]
000000 e0 46 c3 3d b3 e0 6f 3f b6 94 25 3f c8 b4 fc 3d
       0.09535003 0.9370224 0.6468004 0.12339169
000010 78 3c 8d 3e 03 cd 75 3f ac ad 1f 3f 69 9d 60 3f
       0.27585196 0.9601595 0.6237438 0.8774019
000020 81 89 30 3f 60 18 70 3d fa f0 f9 3e
       0.68959814 0.058616996 0.48816663

bn_cont.bias f4 [11]
000000 00 00 00 00 00 00 00 00 00 00 00 00 00 00 00 00
       0.0 0.0 0.0 0.0
000010 00 00 00 00 00 00 00 00 00 00 00 00 00 00 00 00
       0.0 0.0 0.0 0.0
000020 00 00 00 00 00 00 00 00 00 00 00 00
       0.0 0.0 0.0

bn_cont.running_mean f4 [11]
000000 00 00 00 00 00 00 00 00 00 00 00 00 00 00 00 00
       0.0 0.0 0.0 0.0
000010 00 00 00 00 00 00 00 00 00 00 00 00 00 00 00 00
       0.0 0.0 0.0 0.0
000020 00 00 00 00 00 00 00 00 00 00 00 00
       0.0 0.0 0.0

bn_cont.running_var f4 [11]
000000 00 00 80 3f 00 00 80 3f 00 00 80 3f 00 00 80 3f
       1.0 1.0 1.0 1.0
000010 00 00 80 3f 00 00 80 3f 00 00 80 3f 00 00 80 3f
       1.0 1.0 1.0 1.0
000020 00 00 80 3f 00 00 80 3f 00 00 80 3f
       1.0 1.0 1.0
